g1_no_DR_policy_lstm.pt (torch, 144788 bytes, 10 tensors)

hidden_state f4 [1, 1, 64]
0	0x00000000	0.0
1	0x00000000	0.0
2	0x00000000	0.0
3	0x00000000	0.0
4	0x00000000	0.0
5	0x00000000	0.0
6	0x00000000	0.0
7	0x00000000	0.0
8	0x00000000	0.0
9	0x00000000	0.0
10	0x00000000	0.0
11	0x00000000	0.0
12	0x00000000	0.0
13	0x00000000	0.0
14	0x00000000	0.0
15	0x00000000	0.0
16	0x00000000	0.0
17	0x00000000	0.0
18	0x00000000	0.0
19	0x00000000	0.0
20	0x00000000	0.0
21	0x00000000	0.0
22	0x00000000	0.0
23	0x00000000	0.0
24	0x00000000	0.0
25	0x00000000	0.0
26	0x00000000	0.0
27	0x00000000	0.0
28	0x00000000	0.0
29	0x00000000	0.0
30	0x00000000	0.0
31	0x00000000	0.0
32	0x00000000	0.0
33	0x00000000	0.0
34	0x00000000	0.0
35	0x00000000	0.0
36	0x00000000	0.0
37	0x00000000	0.0
38	0x00000000	0.0
39	0x00000000	0.0
40	0x00000000	0.0
41	0x00000000	0.0
42	0x00000000	0.0
43	0x00000000	0.0
44	0x00000000	0.0
45	0x00000000	0.0
46	0x00000000	0.0
47	0x00000000	0.0
48	0x00000000	0.0
49	0x00000000	0.0
50	0x00000000	0.0
51	0x00000000	0.0
52	0x00000000	0.0
53	0x00000000	0.0
54	0x00000000	0.0
55	0x00000000	0.0
56	0x00000000	0.0
57	0x00000000	0.0
58	0x00000000	0.0
59	0x00000000	0.0
60	0x00000000	0.0
61	0x00000000	0.0
62	0x00000000	0.0
63	0x00000000	0.0

cell_state f4 [1, 1, 64]
0	0x00000000	0.0
1	0x00000000	0.0
2	0x00000000	0.0
3	0x00000000	0.0
4	0x00000000	0.0
5	0x00000000	0.0
6	0x00000000	0.0
7	0x00000000	0.0
8	0x00000000	0.0
9	0x00000000	0.0
10	0x00000000	0.0
11	0x00000000	0.0
12	0x00000000	0.0
13	0x00000000	0.0
14	0x00000000	0.0
15	0x00000000	0.0
16	0x00000000	0.0
17	0x00000000	0.0
18	0x00000000	0.0
19	0x00000000	0.0
20	0x00000000	0.0
21	0x00000000	0.0
22	0x00000000	0.0
23	0x00000000	0.0
24	0x00000000	0.0
25	0x00000000	0.0
26	0x00000000	0.0
27	0x00000000	0.0
28	0x00000000	0.0
29	0x00000000	0.0
30	0x00000000	0.0
31	0x00000000	0.0
32	0x00000000	0.0
33	0x00000000	0.0
34	0x00000000	0.0
35	0x00000000	0.0
36	0x00000000	0.0
37	0x00000000	0.0
38	0x00000000	0.0
39	0x00000000	0.0
40	0x00000000	0.0
41	0x00000000	0.0
42	0x00000000	0.0
43	0x00000000	0.0
44	0x00000000	0.0
45	0x00000000	0.0
46	0x00000000	0.0
47	0x00000000	0.0
48	0x00000000	0.0
49	0x00000000	0.0
50	0x00000000	0.0
51	0x00000000	0.0
52	0x00000000	0.0
53	0x00000000	0.0
54	0x00000000	0.0
55	0x00000000	0.0
56	0x00000000	0.0
57	0x00000000	0.0
58	0x00000000	0.0
59	0x00000000	0.0
60	0x00000000	0.0
61	0x00000000	0.0
62	0x00000000	0.0
63	0x00000000	0.0

weight f4 [32, 64]
0	0xbeba95ca	-0.36442405
1	0xbf277e15	-0.6542676
2	0xbd1acd04	-0.037793174
3	0xbeb33207	-0.34999105
4	0xbe9f8acb	-0.31160578
5	0x3ea6d828	0.3258679
6	0x3f21b33e	0.63164127
7	0x3eaf55bd	0.342451
8	0x3ed7f0a7	0.4217579
9	0xbe6b6134	-0.22986299
10	0x3ebecf9f	0.37267777
11	0x3d00cb78	0.031444043
12	0x3f1c6e78	0.6110606
13	0x3de12ee0	0.10995269
14	0x3ecad418	0.3961494
15	0xbec44174	-0.38331187
16	0x3f0cea1d	0.5504473
17	0xbf8cbaa5	-1.0994459
18	0xbf047d5a	-0.5175377
19	0x3d4e311a	0.050339796
20	0x3f817bf5	1.0115954
21	0xbb9b5eb1	-0.0047415127
22	0x3e835b72	0.25655705
23	0x3ee7bf36	0.4526307
24	0x3ec58a30	0.3858199
25	0x3e3429e3	0.17594104
26	0xbe37957d	-0.17928119
27	0xbe3e16b1	-0.18563344
28	0x3e621826	0.22079524
29	0x3f3ee8cc	0.7457397
30	0x3dd09448	0.101845324
31	0xbef69e32	-0.48167568
32	0x3ca7d1b4	0.020485736
33	0x3f43c15a	0.76466906
34	0x3d6782e0	0.056521297
35	0xbdc3ae82	-0.09554769
36	0x3edcbb2a	0.43111545
37	0xbda68786	-0.08131318
38	0x3b88ff93	0.0041808574
39	0x3f367713	0.7127544
40	0xbed49977	-0.41523334
41	0xbe0abc42	-0.13548377
42	0x3ec2037a	0.37893277
43	0xbf0ab27e	-0.5417861
44	0x3c716cec	0.014735442
45	0x3e07b80c	0.13253802
46	0xbe4762a8	-0.19471228
47	0x3e74c32f	0.23902582
48	0xbe94673f	-0.2898502
49	0xbe28b7e4	-0.16476399
50	0x3d9fdd3f	0.07805871
51	0x3e4a6c86	0.19767961
52	0x3f16d040	0.58911514
53	0xbe93b3dd	-0.28848162
54	0x3e08bace	0.1335251
55	0x3f184906	0.59486425
56	0x3cf5abe2	0.029989187
57	0x3ea6c015	0.32568422
58	0xbe0e01fa	-0.13867941
59	0x3de463e0	0.11151862
60	0xbe38f7bb	-0.18063252
61	0x3ec1e32b	0.37868628
62	0xbe66aeb3	-0.2252758
63	0x3ea56d51	0.32309964
64	0x3bea4b19	0.0071500656
65	0xbfab7c13	-1.339724
66	0xbf0b4914	-0.54408383
67	0xbf1a4c46	-0.60272634
68	0x3ecc4de3	0.39903173
69	0xbf3e4a6b	-0.743323
70	0x3fb8337c	1.4390712
71	0xbf229918	-0.6351485
72	0x3e4cca8f	0.19999145
73	0x3ec47e01	0.38377383
74	0xbf14afa7	-0.58080524
75	0x3f56654d	0.8374832
76	0xbfb14662	-1.3849604
77	0x3e0678c2	0.13132003
78	0xbe90bacb	-0.28267512
79	0x3f1115d1	0.56673914
80	0x3dd7ce2f	0.10537373
81	0xbd24b647	-0.040212896
82	0xbf6451da	-0.89187396
83	0xbe8951e2	-0.26820284
84	0xbe0d08b9	-0.13772859
85	0x3ea61078	0.3243444
86	0x3dfba9b8	0.12288231
87	0xbf942de2	-1.1576502
88	0x3f9303ce	1.1485536
89	0x3f37b5cf	0.7176179
90	0x3e8a0652	0.26957947
91	0xbe3ff8bb	-0.18747227
92	0xbf1fafeb	-0.62377805
93	0x3ee8410d	0.4536213
94	0x3e3b0802	0.18264773
95	0x3f2ad79d	0.6673525
96	0xbec687e0	-0.3877554
97	0x3e568809	0.20950331
98	0x3ef127c8	0.47100663
99	0x3ef06315	0.46950594
100	0xbf307fb4	-0.6894486
101	0xbe741571	-0.23836304
102	0xbe76a8fc	-0.240879
103	0x3ed1228c	0.4084667
104	0xbf44c575	-0.76863796
105	0xbf319708	-0.6937108
106	0x3dd96e03	0.10616686
107	0x3f4d1187	0.8010487
108	0xbe8d1c07	-0.27560446
109	0x3dcf62ae	0.101262435
110	0xbdbb10ac	-0.09134039
111	0x3fa30368	1.2735415
112	0xbdaf856c	-0.0857037
113	0xbcfda932	-0.030964468
114	0xbee2e3ae	-0.4431433
115	0x3f1e49bd	0.61831266
116	0xbd8faa11	-0.070148595
117	0xbf27c42c	-0.6553371
118	0xbdeec361	-0.11658359
119	0x3e16cefb	0.14727394
120	0x3db710c2	0.08938743
121	0x3f015e55	0.50534564
122	0x3f46f52e	0.77717865
123	0xbdb8df44	-0.090269595
124	0x3e4b9ed3	0.19884805
125	0xbcec8e26	-0.028876375
126	0x3d05e693	0.032690596
127	0xbd530e99	-0.051527593
128	0xbf367101	-0.7126618
129	0xbeaa53a7	-0.33266947
130	0xbf061bbd	-0.52386075
131	0xbede2085	-0.43384185
132	0x3d34012c	0.04394643
133	0xbce2217e	-0.027603861
134	0x3e9f639b	0.3113068
135	0x3f0e78d1	0.556531
136	0xbddfb420	-0.10923028
137	0xbf145090	-0.5793543
138	0xbeb8d2f4	-0.36098444
139	0x3ebece63	0.37266836
140	0xbc5665c2	-0.013085784
141	0x3e27b0bb	0.16376011
142	0x3e9ec5e5	0.31010357
143	0xbda66f01	-0.08126641
144	0xbf0bf6a9	-0.5467325
145	0x39a181a4	0.00030804903
146	0xbf1b45ea	-0.60653555
147	0x3ef3a3f3	0.4758602
148	0xbf1057b3	-0.5638382
149	0x3f64f4eb	0.89436215
150	0xbe15bee8	-0.14623606
151	0xbe9d17e6	-0.30682296
152	0xbb80b7b7	-0.0039281505
153	0x3e1be551	0.15224196
154	0x3d837957	0.06419628
155	0x3fcf0607	1.6173714
156	0x3f5d768d	0.8650902
157	0x3e7ac323	0.24488501
158	0x3f15fa68	0.58585215
159	0x3e0b5a19	0.13608588
160	0xbef08d0f	-0.4698262
161	0xbeedac1e	-0.46420377
162	0x3dc5f203	0.09665301
163	0x3d8ea5b7	0.06965201
164	0x3df639ae	0.1202272
165	0xbe7a2d2e	-0.24431297
166	0x3f1c6669	0.61093765
167	0xbe634593	-0.22194509
168	0xbea28c12	-0.3174749
169	0xc008bb19	-2.1364195
170	0x3ee587f7	0.44830295
171	0xbe9e74f3	-0.309486
172	0xbecdaa56	-0.40169019
173	0xbdc15343	-0.09439709
174	0xbda5a97a	-0.08088966
175	0xbe66695d	-0.2250113
176	0x3e7e252d	0.24818869
177	0x3ec83be0	0.3910818
178	0xbd62f5a9	-0.05541006
179	0xbe8b9a64	-0.27266228
180	0xbe4451b7	-0.19171797
181	0xba731f26	-0.0009274356
182	0xbc865a71	-0.016400548
183	0xbea66fe8	-0.32507253
184	0xbe011a81	-0.12607767
185	0x3da37d9c	0.079829425
186	0xbece6460	-0.40310955
187	0xbf2556ea	-0.64585745
188	0x3f328bc9	0.69744545
189	0x3f0eda09	0.55801445
190	0x3f201615	0.62533695
191	0xbf4cf357	-0.8005881
192	0x3f7da52e	0.9908017
193	0x3ea20092	0.3164106
194	0xbf141574	-0.57845235
195	0x3d81895e	0.06325029
196	0xbf1051aa	-0.5637461
197	0xbcd3f280	-0.025872469
198	0x3f0c886b	0.5489566
199	0xbf87280b	-1.0559095
200	0x3e2a5ebe	0.16637704
201	0x3f351269	0.70731217
202	0xbe8b39b4	-0.27192461
203	0xbec6aa9b	-0.38802037
204	0x3e2f5e36	0.17125782
205	0xbd1eb95f	-0.038751002
206	0xbda38642	-0.07984592
207	0x3dafaa85	0.08577446
208	0x3f352cd2	0.70771515
209	0xbe4cbeeb	-0.19994704
210	0xbe5fcdea	-0.21855894
211	0xbf16e9a1	-0.5895024
212	0xbfbd62c8	-1.4795771
213	0xbef28795	-0.47369066
214	0xbf18fbcb	-0.59759206
215	0x3dc176c4	0.09446481
216	0x3f17f3ef	0.5935659
217	0x3f33f0ae	0.70289123
218	0x3a75b4a1	0.0009372924
219	0xbe06a329	-0.13148178
220	0xbecc8358	-0.39943957
221	0x3f05662a	0.52109015
222	0x3f1f4e70	0.6222906
223	0x3ae21604	0.0017248993
224	0xbde44d61	-0.11147571
225	0x3fc64e95	1.5492731
226	0x3e80730b	0.2508777
227	0x3e93772c	0.28801858
228	0x3f0875f0	0.5330496
229	0xbe319a82	-0.17344096
230	0xbfa82f9f	-1.3139533
231	0x3f68c802	0.9093019
232	0xbf7fa2d8	-0.99857855
233	0x3ea37c6c	0.31930864
234	0x3bd69223	0.0065481826
235	0x3f115f7c	0.5678632
236	0xbf0eac94	-0.55732083
237	0x3ee92575	0.4553639
238	0x3dce54d2	0.10074772
239	0x402e53ef	2.723873
240	0x3f8b7c62	1.0897334
241	0xbebb9620	-0.36637974
242	0x3e1616ce	0.14657137
243	0x3f3a5d5d	0.7279871
244	0x3d87ab8e	0.06624518
245	0xbf0d43ae	-0.55181396
246	0xbd0a6749	-0.033789907
247	0x3f8720ed	1.0556923
248	0xbec19e9b	-0.3781632
249	0x3ec97d48	0.39353395
250	0x3f0cfe38	0.5507541
251	0xbeb11456	-0.34585828
252	0xbe8150d7	-0.25256988
253	0x3e8b1a84	0.27168667
254	0xbf4756c6	-0.7786678
255	0x3f2ad684	0.66733575

bias f4 [32]
0	0xbe84f19f	-0.25965592
1	0xbe042e52	-0.12908295
2	0xbcadfc90	-0.021238595
3	0xbe9cf7b7	-0.3065774
4	0x3d4e6d94	0.05039747
5	0xbe3a243b	-0.18177883
6	0xbdc35351	-0.09537376
7	0x3dcc4de8	0.09975797
8	0xbebf9e44	-0.37425435
9	0xbe29fae3	-0.16599612
10	0xbe31048f	-0.17286895
11	0x3d736f29	0.059432182
12	0xbea2343f	-0.31680486
13	0xbe97c5b1	-0.29643014
14	0x3dc1f2ca	0.094701365
15	0xbe332bfa	-0.17497244
16	0xbde3a086	-0.11114602
17	0xbc62b17a	-0.013836259
18	0x3d701de2	0.05862225
19	0xbdf15de2	-0.11785485
20	0xbe5e0397	-0.21681057
21	0x3d0192ca	0.03163413
22	0xbeb40735	-0.3516175
23	0xbeb2b1c4	-0.3490125
24	0xbe4defae	-0.20110962
25	0xbd8b62ab	-0.06805929
26	0x3e610869	0.21975864
27	0xbead9600	-0.33903503
28	0xbe257430	-0.16157603
29	0x3e00761d	0.12545057
30	0x3db2e7b5	0.08735601
31	0x3e12a665	0.14321287

weight f4 [12, 32]
0	0x3e5a15e7	0.21297418
1	0xbe87432a	-0.2641843
2	0x3e57ae33	0.21062545
3	0xbd84d6c7	-0.06486278
4	0xbe22ffc9	-0.15917887
5	0x3e74da17	0.2391132
6	0xbedd1349	-0.43178776
7	0x3ea16070	0.31518888
8	0xbebf7ece	-0.37401432
9	0x3e88b4f3	0.26700553
10	0x3ee162f1	0.440208
11	0x3e441695	0.1914924
12	0xbe8d631b	-0.27614674
13	0xbee66570	-0.44999266
14	0xbee37a4f	-0.44429252
15	0x3cab92e2	0.020944063
16	0x3d3aee7a	0.045637585
17	0xbed737ba	-0.42034703
18	0x3c18054e	0.0092786085
19	0xbebf0e59	-0.37315634
20	0x3ea6a94e	0.32551044
21	0xbd355838	-0.044273585
22	0x3e9a3924	0.3012172
23	0x3f041c1d	0.516054
24	0xbe6cbd65	-0.23119123
25	0x3e96b296	0.29433125
26	0xbe3da071	-0.18518235
27	0x3f23c301	0.6396943
28	0xbd29f897	-0.04149684
29	0xbec087c3	-0.37603578
30	0x3e6b341c	0.22969097
31	0x3ea5dc93	0.32394847
32	0xbeca20db	-0.39478192
33	0x3eb19290	0.3468213
34	0x3e4e7880	0.20163155
35	0xbe879308	-0.26479363
36	0x3dc28c41	0.094994076
37	0x3e50c7db	0.20388739
38	0x3dd9bddc	0.10631916
39	0x3e08e050	0.13366818
40	0xbdc16059	-0.09442205
41	0x3d6b4057	0.057434406
42	0x3e739792	0.23788288
43	0x3f0d4a22	0.5519124
44	0xbf009e9d	-0.50242025
45	0x3d8e9ce9	0.06963522
46	0xbb81900a	-0.0039539384
47	0xbce04560	-0.02737683
48	0x3da15817	0.0787813
49	0x3e8cfabf	0.27535054
50	0x3ed3146f	0.41226527
51	0xbee779ed	-0.4521021
52	0xbeb75a96	-0.358113
53	0x3f1bb0ac	0.60816455
54	0x3e25154e	0.16121408
55	0xbeff08e6	-0.49811476
56	0x3d91f275	0.07126323
57	0x3e8a3440	0.2699299
58	0x3d967c64	0.073479444
59	0xbd80eaee	-0.06294809
60	0xbdc98f12	-0.098417416
61	0x3e2831b1	0.16425206
62	0x3e0c16fb	0.13680641
63	0xbdd398f8	-0.10331911
64	0x3b70a53e	0.0036719586
65	0xbdc9e3d7	-0.0985791
66	0xbdd43b79	-0.10362906
67	0x3e440418	0.19142187
68	0xbd172fd9	-0.036910865
69	0xbe10133c	-0.14069837
70	0x3e848156	0.25879925
71	0xbe135a57	-0.1438993
72	0x3d0fe308	0.035128623
73	0x3c3d171e	0.011541156
74	0x3e08e37e	0.13368031
75	0xbc4051da	-0.011738265
76	0xbe85019c	-0.2597779
77	0xbe73c055	-0.23803838
78	0x3e68ddad	0.22740813
79	0xbcec8821	-0.028873505
80	0x3da3c029	0.07995636
81	0xbbf19162	-0.0073720673
82	0xbe70ada2	-0.23503736
83	0x3e73ca08	0.23807538
84	0x3df02fdd	0.11727879
85	0xbd827a22	-0.06370951
86	0x3ea38984	0.31940854
87	0xbcd30b92	-0.025762353
88	0xbe538e9f	-0.20659874
89	0x3bd3c174	0.0064622704
90	0x3e80ee26	0.25181693
91	0xbd282028	-0.04104629
92	0x3d92efb3	0.07174625
93	0xbec47a94	-0.3837477
94	0x3e522178	0.2052058
95	0xbd4a8774	-0.049445584
96	0xbe5520d5	-0.20813306
97	0x3ed3b16e	0.41346306
98	0x3e09c2c6	0.13453206
99	0x3d8b25cb	0.06794318
100	0x3d80d716	0.062910244
101	0xbe9e0f6a	-0.30871135
102	0xbf059eb1	-0.5219527
103	0x3eb1e6ae	0.34746307
104	0xbe8dcfdf	-0.27697656
105	0xbc84f0d1	-0.016228111
106	0x3ebbc01d	0.36670008
107	0xbe3aca69	-0.18241276
108	0xbebacdd4	-0.3648516
109	0x3dc05c9a	0.09392662
110	0x3e91ef5a	0.28502923
111	0x3e3813b8	0.17976272
112	0xbecfc88c	-0.40582693
113	0xbe0ab2cc	-0.13544768
114	0xbd9346a7	-0.0719121
115	0x3ef5869e	0.47954267
116	0x3e944dab	0.28965506
117	0xbe308be9	-0.17240871
118	0xbd21953c	-0.03944896
119	0xbd5c5a8d	-0.053797293
120	0x3c8a5ef2	0.016890977
121	0x3df6e989	0.12056262
122	0x3edd131d	0.43178645
123	0xbd9cfd64	-0.07665518
124	0x3e1159a8	0.14194357
125	0x3eea9f01	0.45824435
126	0xbe32c490	-0.17457795
127	0xbe5df739	-0.21676339
128	0xbe6c573d	-0.23080154
129	0xbe8793ca	-0.26479942
130	0xbf475428	-0.7786279
131	0xbd8ba7fc	-0.0681915
132	0xbde29154	-0.110628754
133	0xbd97dec8	-0.07415539
134	0xbe10a53d	-0.14125533
135	0xbe91e779	-0.28496912
136	0x3e8ea9fb	0.2786406
137	0xbea95ed4	-0.3308016
138	0xbdda4d67	-0.106592946
139	0x3e3f2b23	0.18668799
140	0xbf32cc48	-0.6984296
141	0x3dcff000	0.10153198
142	0xbe1f66b9	-0.1556653
143	0x3f81cc31	1.0140439
144	0x3e07c856	0.13260016
145	0x3eb2872d	0.34868756
146	0x3c40b94e	0.01176293
147	0xbe869124	-0.26282609
148	0xbe0ed381	-0.1394787
149	0x3d525ec6	0.051359914
150	0xbe2b510c	-0.16730136
151	0x3f01225a	0.5044304
152	0xbe9ad6a8	-0.30241895
153	0x3f0ac42f	0.542056
154	0xbdb03f8b	-0.0860587
155	0x3e4f939c	0.20271152
156	0x3e9a562d	0.30143872
157	0xbcc4e412	-0.024034534
158	0xbd51c544	-0.051213518
159	0xbe92bc27	-0.28659174
160	0x3e3ba7e5	0.18325765
161	0x3e3e40b4	0.1857937
162	0xbed58abe	-0.41707414
163	0xbdb1ece5	-0.08687762
164	0x3dabee4d	0.08395062
165	0xbcd31bd0	-0.025770098
166	0x3d43feae	0.047850303
167	0x3ef8804d	0.48535386
168	0xbcf87ad8	-0.030332014
169	0x3eff7df7	0.4990079
170	0xbdef5e60	-0.116879225
171	0x3e787e83	0.2426701
172	0xbe791d06	-0.24327478
173	0xbeb80451	-0.35940793
174	0x3d72a0a7	0.05923524
175	0x3daeff96	0.08544843
176	0xbd5e06d8	-0.054205745
177	0x3f2a0915	0.6642011
178	0x3f190488	0.5977254
179	0x3d9e16fa	0.07719226
180	0xbd1b855a	-0.03796897
181	0xbd4bdc6e	-0.049770765
182	0xbf53bef6	-0.8271326
183	0xbea8aa3a	-0.32942373
184	0xbe81c47b	-0.25345215
185	0xbcaee2b6	-0.021348339
186	0xbe137820	-0.14401293
187	0xbdbb6159	-0.09149427
188	0xbe452f16	-0.19256243
189	0xbf020872	-0.50794137
190	0xbe1fa629	-0.15590729
191	0x3c9cdd3b	0.01914846
192	0xbe18075c	-0.14846557
193	0x3ee1546a	0.44009715
194	0xbeabe8ef	-0.33576152
195	0x3cecfe0a	0.028929729
196	0xbe942a8a	-0.28938705
197	0xbb7e12ac	-0.0038768454
198	0x3f1d3227	0.6140465
199	0xbe0e1024	-0.13873345
200	0x3f212c5e	0.62958324
201	0x3e2ce86a	0.16885534
202	0xbea0c09c	-0.3139695
203	0xbf0524bd	-0.52009183
204	0xbe1ad8f2	-0.1512182
205	0x3d008f3c	0.0313866
206	0x3eae2a48	0.34016633
207	0xbd5660d1	-0.052338425
208	0xbe6f745c	-0.23384231
209	0xbe849721	-0.25896552
210	0x3e1abde8	0.15111506
211	0xbeb01b71	-0.34395936
212	0x3d84c252	0.06482376
213	0x3eb6e4d6	0.35721463
214	0x3daefcd7	0.08544319
215	0xbdefd1c3	-0.11709931
216	0x3e31ae65	0.17351682
217	0xbe8bed8d	-0.27329674
218	0xbe178b96	-0.14799342
219	0xbf174e0d	-0.5910347
220	0xbf0a2921	-0.5396901
221	0xbd8d76fe	-0.069074616
222	0x3e5d36b8	0.21602905
223	0xbd7f310d	-0.062302638
224	0x3e99f1bd	0.30067244
225	0xbf2235a6	-0.6336311
226	0xbe8a2b3f	-0.2698612
227	0xbd5b2c5e	-0.05350911
228	0x3eb2db38	0.34932876
229	0xbe00c61b	-0.12575571
230	0xbc0baf1a	-0.008525634
231	0xbd959d2a	-0.07305367
232	0x3e8b6276	0.27223557
233	0x3e9b8dcb	0.30381617
234	0xbd4d19f3	-0.050073575
235	0xbcafb696	-0.021449368
236	0x3ebbf9c3	0.3671399
237	0xbe1361ab	-0.14392726
238	0xbde41599	-0.11136932
239	0x3d9f1d0f	0.07769214
240	0xbe91fc98	-0.28513026
241	0xbe1d9f78	-0.15392864
242	0xbecd6ddc	-0.4012288
243	0x3e67305d	0.22577043
244	0x3e30fde4	0.17284352
245	0xbe8b97c4	-0.27264225
246	0x3e4dfee1	0.2011676
247	0x3d2c91c8	0.042131215
248	0x3ef69303	0.48159036
249	0x3e41be74	0.18920308
250	0x3e7479ff	0.23874663
251	0x3e89b10a	0.26892883
252	0xbd462e92	-0.048384257
253	0xbe22ad0e	-0.15886328
254	0xbe04334b	-0.12910192
255	0xbeff9f1e	-0.49926084

bias f4 [12]
0	0xbe36191f	-0.1778302
1	0x3e2eb203	0.17060094
2	0xbd86626c	-0.06561741
3	0x3ea037f5	0.31292692
4	0x3c924b1d	0.017858082
5	0xbc9d6534	-0.019213296
6	0xbecae329	-0.39626434
7	0xbda7fa41	-0.08202029
8	0x3da7bcd0	0.0819031
9	0x3f22ae90	0.6354761
10	0xbde2e9b9	-0.11079735
11	0x3dca1f71	0.09869278

weight_ih_l0 f4 [256, 47]
0	0xbede1438	-0.433748
1	0xbec9cefe	-0.39415735
2	0x3f379fb7	0.7172808
3	0x3fa5817f	1.2930144
4	0x3e196dde	0.14983317
5	0xbdd15219	-0.10220737
6	0x3ecd7e29	0.40135315
7	0x3edd64c1	0.43240932
8	0x3f52c85c	0.82336974
9	0x3f6fa7c5	0.9361537
10	0x3cc24059	0.023712324
11	0xbe2bd7d7	-0.16781555
12	0x3ebba76a	0.36651164
13	0xbf1fa192	-0.6235591
14	0xbe88da90	-0.2672925
15	0xbf55c49d	-0.83503133
16	0xbf1a4e50	-0.60275745
17	0xbe3085c9	-0.17238535
18	0xbf0cbba6	-0.5497383
19	0xbf7263ad	-0.94683343
20	0xbef39303	-0.475731
21	0xbe7b57bf	-0.24545191
22	0xbf129513	-0.5725872
23	0x3f27d836	0.65564287
24	0xbeb9b181	-0.36268237
25	0xbf41b185	-0.756615
26	0x3eea7ea6	0.4579975
27	0x3e6600f8	0.22461307
28	0xbc812641	-0.015765311
29	0x40249ea3	2.5721824
30	0x3f229c87	0.6352009
31	0xbf8f9ad2	-1.1219122
32	0xbcec5193	-0.028847491
33	0x3d1b6656	0.037939392
34	0xbddf9136	-0.10916369
35	0x3ca17165	0.019707391
36	0x3c640b31	0.013918684
37	0xbd82dc83	-0.063897155
38	0x3c5f48d4	0.013628203
39	0x3e0096bd	0.12557502
40	0x3dcab1ae	0.09897171
41	0xbdbf9e90	-0.09356415
42	0xbe60c6de	-0.21950862
43	0xbdfc0418	-0.12305468
44	0xbd1719cf	-0.036889847
45	0x3f2fa852	0.6861621
46	0x3d928eb3	0.07156124
47	0x3fddc584	1.7325902
48	0xbf0550d2	-0.52076447
49	0x3e2b3931	0.16721036
50	0xbe83bbca	-0.2572921
51	0xbfaf19b2	-1.3679717
52	0x3f3c903d	0.7365759
53	0xbecc475e	-0.398982
54	0x3f87808f	1.0586108
55	0x3e599887	0.21249591
56	0xbf746703	-0.95469683
57	0xbf54d78b	-0.8314139
58	0x3e910229	0.2832196
59	0xbe9f4d1f	-0.31113526
60	0x3f6724d0	0.90290546
61	0x3f66939e	0.90068996
62	0x3e89e4ff	0.26932523
63	0x3e93ab51	0.28841642
64	0x3e802d7c	0.25034702
65	0x3e22dab9	0.15903749
66	0x3f39a6ee	0.7252034
67	0xbe65d818	-0.22445714
68	0xbf487c6e	-0.78314865
69	0x3e5abd02	0.21361163
70	0x3df39ff3	0.11895742
71	0xbec913b9	-0.3927286
72	0x3f078e78	0.52951765
73	0xbf11baf2	-0.5692588
74	0xbfdfc8da	-1.748317
75	0xbf0b8690	-0.545022
76	0xbf0d5ca8	-0.5521951
77	0xbf4c4cfd	-0.79804975
78	0x3dcd8b57	0.100363426
79	0x3f6474a2	0.8924047
80	0xbf2d3c34	-0.6766999
81	0xbe8648cc	-0.26227415
82	0x3e305be0	0.17222548
83	0x3e81a220	0.25319004
84	0xbea50e1e	-0.32237333
85	0x3d35e0f9	0.044404004
86	0xbe8516d5	-0.25993982
87	0x3d9e96a5	0.07743577
88	0xbe20ae9c	-0.15691608
89	0xbefd405d	-0.49463168
90	0xbeb628ca	-0.35577995
91	0x3d3e8c00	0.046520233
92	0x3fa72127	1.3056992
93	0xbe9f9fac	-0.31176507
94	0xbd045fba	-0.032317854
95	0x3ebed787	0.3727381
96	0x3f64bf71	0.89354616
97	0xbdd82b9c	-0.10555193
98	0xbe8887ab	-0.26666006
99	0x3ea6e929	0.32599762
100	0xbf66cb38	-0.9015384
101	0xbe271441	-0.1631632
102	0xbf384336	-0.71977556
103	0xbec1fed6	-0.37889737
104	0x3d8693cd	0.065711595
105	0x3f8cf33a	1.1011727
106	0x3fdac68b	1.709184
107	0x3f7933b0	0.97344494
108	0xbf06753b	-0.5252263
109	0xbe43ba86	-0.19114122
110	0xbf6a0c68	-0.9142518
111	0xbf27bb09	-0.6551977
112	0xbea430ec	-0.32068574
113	0x3eaf392e	0.34223312
114	0xbe8f641c	-0.28006065
115	0x3fcca4dc	1.5987811
116	0xbfd83473	-1.6891006
117	0x3fbb219b	1.461963
118	0x3f77602f	0.9663114
119	0x3f2ebbc0	0.68255234
120	0xbece60fa	-0.40308362
121	0x3d9ee7b4	0.077590376
122	0x3fe3f5bb	1.7809366
123	0xbc03e1e7	-0.008049465
124	0xbdc5d8e8	-0.09660512
125	0x3f3e92ed	0.7444294
126	0xbf36dec7	-0.7143368
127	0x3e1fbb97	0.15598904
128	0x3c41af94	0.011821646
129	0xbd4f0098	-0.050537676
130	0xbedf1fcd	-0.4357895
131	0x3df3ea24	0.11909893
132	0xbcf4ad90	-0.029867917
133	0xbd8cdcf8	-0.06878084
134	0xbc58893d	-0.013216314
135	0x3dbc4303	0.09192469
136	0xbdf794ea	-0.1208895
137	0xbd476258	-0.048677772
138	0xbbdd8af9	-0.0067609516
139	0x3ea6c659	0.32573202
140	0x3e8eaff6	0.27868623
141	0xbfd976a2	-1.6989329
142	0x3e31d884	0.1736775
143	0x3e91419c	0.28370368
144	0xc01b010d	-2.4219391
145	0x3fdeefcf	1.7416934
146	0x3e50b7bc	0.20382589
147	0xbf4ca109	-0.7993322
148	0xbecc1b06	-0.39864367
149	0x3f45adb9	0.77218205
150	0x3e805a1f	0.25068757
151	0x3f0c7296	0.54862344
152	0xbf5a4875	-0.8526681
153	0x3f12c027	0.5732445
154	0x3c83ab89	0.016073005
155	0xbf1f5823	-0.6224386
156	0xc021c547	-2.5276659
157	0xbfbb2f67	-1.4623841
158	0x3f77c30c	0.9678199
159	0xbf48882d	-0.7833279
160	0x3fd25214	1.6431298
161	0x3f5319d5	0.8246129
162	0x3e8f4590	0.2798276
163	0x3ec80d9d	0.39072886
164	0xbf0d826e	-0.55277145
165	0xbec323a4	-0.3811313
166	0x3d086e23	0.03330816
167	0xbe48058d	-0.19533367
168	0xbf27244d	-0.65289766
169	0xbf580bfb	-0.8439328
170	0x3e4f3f46	0.2023898
171	0x3ec8c3ab	0.39211783
172	0xbe249ae6	-0.16074714
173	0x3f3392a7	0.7014565
174	0xbdc368a0	-0.0954144
175	0x3e6b44bb	0.22975437
176	0xbcbf84ab	-0.02337869
177	0xbda83358	-0.08212918
178	0x3daa2096	0.083069965
179	0xbd9e7796	-0.07737653
180	0xbd68e27d	-0.05685662
181	0xbd8fa765	-0.0701435
182	0xbd590994	-0.05298765
183	0xbdd11250	-0.10208571
184	0xbeba4312	-0.36379296
185	0x3d116e60	0.035505652
186	0x3ea2553a	0.31705648
187	0x3e3a6945	0.1820422
188	0x3ebadf47	0.36498472
189	0x3e43c512	0.19118145
190	0xbf1c3c08	-0.610291
191	0x3f5add9b	0.85494393
192	0xbe6233e6	-0.2209011
193	0x3d4d68c6	0.050148748
194	0xbe1ae48c	-0.15126246
195	0x3e2bf709	0.16793455
196	0xbfcf149a	-1.6178162
197	0xbfa1ed75	-1.2650591
198	0xbe4c9585	-0.19978912
199	0x3f890466	1.0704467
200	0x3f26ad56	0.6510824
201	0x3ea9792c	0.3310026
202	0x3b20f7c0	0.0024561733
203	0x402bbd98	2.683447
204	0x3f4c71be	0.79861057
205	0xbfee4e6b	-1.8617681
206	0xbc2eae4c	-0.010661673
207	0x3dceb3ec	0.10092911
208	0xbecb19a4	-0.39668
209	0xbe63137c	-0.22175401
210	0x3f803dd7	1.0018872
211	0xbfd33201	-1.6499635
212	0x3ecd2552	0.40067536
213	0xbede77f1	-0.43450883
214	0x3eca1241	0.39467052
215	0x3e9c2dd7	0.30503723
216	0xbf8fa95b	-1.1223558
217	0x3fccf50c	1.6012282
218	0x3f7fadef	0.99874777
219	0xbd2b961a	-0.041891195
220	0xbf51634e	-0.8179215
221	0xbdc1628e	-0.09442626
222	0x3e033ff0	0.12817359
223	0xbe310891	-0.17288424
224	0x3f092ff7	0.53588814
225	0x3e0af3bd	0.13569541
226	0x3d67fe1c	0.056638822
227	0x3e112bce	0.14176866
228	0xbe62fd68	-0.2216698
229	0xbd2bea09	-0.04197124
230	0xbc1c6d1d	-0.009547499
231	0xbe2ddc1a	-0.16978493
232	0x3d7bb69f	0.061453458
233	0xbe6f0806	-0.23342904
234	0x3f05dba8	0.52288294
235	0xbf307ca1	-0.6894017
236	0xbfed6e1c	-1.8549228
237	0x3fd02d42	1.6263812
238	0xc041656c	-3.0218153
239	0x3f646e08	0.89230394
240	0x3f33379b	0.7000672
241	0xbf03e002	-0.51513684
242	0x3e78263f	0.2423334
243	0xbf440c97	-0.7658171
244	0x3e4a3ca0	0.19749689
245	0x3fb5212b	1.4150747
246	0xbe8ab385	-0.27090088
247	0x3e5029d2	0.20328453
248	0x3f1f3f0c	0.62205577
249	0x3dc4e937	0.09614795
250	0xbf77c597	-0.96785873
251	0xbf866bcf	-1.050165
252	0x3f2ad298	0.6672759
253	0xbefb0dc7	-0.4903395
254	0xbe47d5f7	-0.19515215
255	0xbdace545	-0.08442167

weight_hh_l0 f4 [256, 64]
0	0xbd8fd464	-0.07022932
1	0x3fba8826	1.4572799
2	0xbd9239d2	-0.071399346
3	0x3dd9c6a2	0.10633589
4	0xbf8906ce	-1.0705202
5	0x3f023461	0.50861174
6	0x3ef99224	0.4874431
7	0x3dc62677	0.09675305
8	0x3d561375	0.05226465
9	0x3ea5eb65	0.32406154
10	0x3c5ac632	0.0133529175
11	0x3f2247fc	0.6339109
12	0xbed75262	-0.4205504
13	0xbe209045	-0.15680034
14	0x3dc09575	0.09403507
15	0xbf514a5f	-0.81754106
16	0xbbe37ef5	-0.0069426247
17	0xbea512ca	-0.32240897
18	0x3d057543	0.032582533
19	0xbf04835a	-0.51762927
20	0xbdaebe14	-0.08532348
21	0x3e07af0d	0.1325037
22	0xbf876dd8	-1.0580397
23	0x3dcbacbc	0.09945056
24	0xbfa5b0e1	-1.2944604
25	0x3f403f86	0.7509693
26	0xbeb5bec0	-0.35497093
27	0x3f530d99	0.82442623
28	0xbf4c53cb	-0.7981536
29	0xbf963e06	-1.1737678
30	0xbe6bf12a	-0.23041216
31	0x3d5f3586	0.054494403
32	0x3f34f539	0.7068668
33	0xbf5c1a01	-0.8597718
34	0xbf84bc26	-1.0369918
35	0xbf86b6b9	-1.0524513
36	0xbed0ec6b	-0.40805373
37	0xbeb35ee8	-0.35033345
38	0x3f12ed10	0.5739298
39	0xbfcbc8af	-1.5920619
40	0xbd204ff9	-0.039138768
41	0x3f30375f	0.6883449
42	0x3eb53755	0.35393777
43	0xbe4b9293	-0.19880132
44	0x3ec0f303	0.37685403
45	0x3d870f23	0.06594684
46	0x3ebf064a	0.37309486
47	0x3ddaa66f	0.10676276
48	0x3d97f9d3	0.07420697
49	0x3c64411c	0.013931539
50	0xbd64460d	-0.055730868
51	0xbf1e6458	-0.6187186
52	0x3de2d62c	0.11076006
53	0xbea9fdcb	-0.3320144
54	0x3de31d77	0.11089604
55	0x3d79ab86	0.060954593
56	0x3f8d36ef	1.1032389
57	0x3db9a3f7	0.09064477
58	0x3f51e475	0.8198922
59	0x3f3819e4	0.71914506
60	0x4000fbb5	2.015363
61	0xbf5ac823	-0.85461634
62	0x3e86b791	0.26311925
63	0x3e2e13b7	0.16999708
64	0x3ed2120d	0.41029397
65	0xbf0855cd	-0.5325592
66	0xbf0b7bc1	-0.5448571
67	0x3f1cb2ab	0.61210126
68	0x3dea973d	0.11454628
69	0xbf35ebb6	-0.7106279
70	0x3fd1e7d8	1.6398878
71	0xbd8bf577	-0.06833928
72	0x3f1c8466	0.61139524
73	0xbf286acc	-0.6578796
74	0xbf67904d	-0.9045456
75	0xbf6016bb	-0.87534684
76	0xbdcba597	-0.09943693
77	0xbf01cc11	-0.50702006
78	0x3f7619da	0.96133196
79	0x3f6584b8	0.8965564
80	0xbf24ba54	-0.64346814
81	0xbe96d1ad	-0.29456845
82	0xbe0de8be	-0.13858315
83	0x3f5121de	0.816923
84	0x3e0e7abe	0.1391401
85	0x3ee2b9ff	0.4428253
86	0xbf12a377	-0.5728068
87	0xbf8e00e3	-1.1094021
88	0x3f7e48f6	0.9933008
89	0xbf43ddf3	-0.7651054
90	0xbe388e9c	-0.18023151
91	0xbf58ef54	-0.84740186
92	0x3f83ad0a	1.0287182
93	0x3f240d0e	0.6408242
94	0x3e6a2ad1	0.22867896
95	0x3ebc84b5	0.36819997
96	0xbe39b676	-0.1813601
97	0xbec16339	-0.37771013
98	0x3d2e3267	0.042528536
99	0xbf06688a	-0.52503264
100	0xbfc83f65	-1.5644346
101	0xbe69e0a6	-0.22839603
102	0x3fc5bbbf	1.544792
103	0x3f87baf3	1.0603927
104	0x3d8349be	0.064105496
105	0xbe127553	-0.14302568
106	0xbf1df725	-0.6170524
107	0xbf85572b	-1.0417227
108	0x3faa80a9	1.3320514
109	0x3b8a94b6	0.0042291535
110	0x3ea4910c	0.32141912
111	0x3f7cb10f	0.9870767
112	0x3f9ba6c1	1.2160264
113	0x3f7ed75b	0.99547356
114	0xbf574d61	-0.84102446
115	0xc014aa65	-2.3229
116	0x3d31547f	0.043293472
117	0xbfa4340d	-1.2828385
118	0xbf10630c	-0.56401134
119	0x3ea1d8a3	0.31610593
120	0xbeaba2b0	-0.33522558
121	0x3fad17fd	1.3522946
122	0xbf073d9b	-0.5282838
123	0x3f44e5db	0.7691323
124	0xbfa2ba09	-1.2713023
125	0x3c4e3d8e	0.012587918
126	0xbf1c34df	-0.61018175
127	0x3ecf881e	0.40533537
128	0x3f1ce6c1	0.612896
129	0xbcef2c67	-0.029195977
130	0xbf7f52f7	-0.9973597
131	0x3da788e5	0.081804074
132	0xbe8cd185	-0.275036
133	0xbf9a3cae	-1.2049768
134	0xbe738524	-0.23781258
135	0xbf1d0eca	-0.6135069
136	0xbefeb99d	-0.49750987
137	0xbe8fdc21	-0.28097633
138	0x3e8df2d3	0.27724323
139	0x3cda73cc	0.026666544
140	0xbf27fea9	-0.65622956
141	0xbec863ca	-0.39138633
142	0x3e5936e6	0.21212348
143	0xbea0edc9	-0.31431416
144	0xbde33681	-0.1109438
145	0xbede96b6	-0.43474358
146	0x3f838e70	1.0277843
147	0x3f19c3e7	0.6006455
148	0x3e30d7e6	0.17269859
149	0x3e963b3b	0.29342064
150	0xbf95f08a	-1.1714032
151	0xbee79ade	-0.45235342
152	0xbd01a1c2	-0.031648405
153	0x3e3fde39	0.18737115
154	0x3f405d90	0.75142765
155	0x3e06c34f	0.13160442
156	0xbda2da68	-0.07951814
157	0x3f0901f8	0.5351863
158	0x3f470194	0.77736783
159	0xbd64a900	-0.055825233
160	0xbe3a595c	-0.1819815
161	0x3e364e6c	0.17803353
162	0x3ef7dd4a	0.48411018
163	0xbf250cdb	-0.6447274
164	0xbf1b6e8f	-0.60715574
165	0x3f5146cd	0.8174866
166	0xbf3eedd7	-0.74581665
167	0xbf4a8395	-0.7910703
168	0xbf681e8a	-0.906716
169	0xbeb11003	-0.34582528
170	0x3f852e44	1.0404744
171	0xbc32f233	-0.010922003
172	0xbc33cad7	-0.010973654
173	0x3e41faee	0.18943378
174	0x3fc06452	1.5030615
175	0x3f717a2f	0.9432706
176	0xbeb0fa1a	-0.34565812
177	0x3d0380e6	0.03210535
178	0x3f0cde6f	0.55026907
179	0x3f54e516	0.8316206
180	0xbeab6270	-0.3347354
181	0x3db6c4ec	0.089242786
182	0x3fa1d0df	1.2641867
183	0xbb069b34	-0.0020539286
184	0xbead2030	-0.3381362
185	0x3dd46070	0.103699565
186	0xbfd0da18	-1.6316557
187	0xbe469268	-0.19391787
188	0x3f119d86	0.56880987
189	0x3f252c01	0.6452027
190	0xbf9d5d7e	-1.2294157
191	0xbf0891be	-0.53347385
192	0xbf8e30d1	-1.1108648
193	0xbeabc9e1	-0.3355246
194	0xbf9d9ed8	-1.23141
195	0x3e926182	0.28590018
196	0x3e17d29d	0.14826436
197	0x3e3192d3	0.17341165
198	0x3f1c287f	0.6099929
199	0xbeda334c	-0.4261726
200	0xbd80e39b	-0.06293412
201	0xbeb0f4ab	-0.34561667
202	0xbd348322	-0.04407037
203	0x3f3f88c5	0.7481807
204	0xbf4658f0	-0.7747946
205	0xbbe53448	-0.006994758
206	0xbf319dfc	-0.6938169
207	0xbe8cbbdb	-0.27487072
208	0xbec08e14	-0.37608397
209	0xbeba0884	-0.36334622
210	0xbeea02f7	-0.45705387
211	0x3f4c84f8	0.79890394
212	0x400077b3	2.0073059
213	0xbee9e2d9	-0.45680884
214	0x3ecc10d2	0.39856583
215	0x3f0aadb7	0.5417132
216	0xbe55b2c2	-0.20868972
217	0xbf2c2a44	-0.6725199
218	0x3f94c65b	1.1623033
219	0xbe5b6881	-0.21426584
220	0xbd96f14a	-0.07370241
221	0x3f3b9652	0.73276246
222	0xbf5afb61	-0.85539824
223	0x3f5ce5c0	0.8628807
224	0x3f1f6042	0.6225625
225	0x3f758a80	0.9591446
226	0x3f35df60	0.7104397
227	0xbfe21cb7	-1.7665013
228	0xbbdfbea0	-0.006828144
229	0x3df8a7b6	0.12141363
230	0xbd700b25	-0.05860438
231	0x3d8098f3	0.06279173
232	0xbf2150bb	-0.6301381
233	0x3fb25403	1.3931888
234	0x3f712e52	0.94211304
235	0xbe6493ea	-0.2232205
236	0xbf90b50d	-1.1305252
237	0xbdf3c24a	-0.11902292
238	0x3f0016ce	0.500348
239	0xbf5d55f6	-0.8645929
240	0xbed66306	-0.41872424
241	0x3d900c9f	0.07033657
242	0xbd9b2233	-0.07574882
243	0xbe5c1b11	-0.214947
244	0xbe8d2e91	-0.2757459
245	0x3e591af8	0.21201694
246	0xbe0a2484	-0.13490492
247	0xbe51a985	-0.20474823
248	0x3e1458a1	0.14486934
249	0xbd29f737	-0.041495528
250	0xbf27cf56	-0.65550745
251	0x3e4d40b1	0.20044209
252	0x3f3f558a	0.747399
253	0xbf50c06f	-0.8154363
254	0x3f0b465b	0.5440423
255	0x3ebe1096	0.3712203

bias_ih_l0 f4 [256]
0	0x3ce10d16	0.02747206
1	0xbf2aec4b	-0.66766804
2	0xbeee8bac	-0.46590936
3	0xbddf677c	-0.1090841
4	0x3d629990	0.05532223
5	0xbf32a75b	-0.69786614
6	0xbf22ff89	-0.63671166
7	0xbed956b6	-0.42448968
8	0xbeb1f81a	-0.347596
9	0x3e4b221b	0.19837229
10	0xbeeb11ab	-0.45911917
11	0x3dc89160	0.09793353
12	0xbeb210bf	-0.347784
13	0xbdcf8a6b	-0.10133823
14	0xbe7f2d80	-0.249197
15	0xbdf24494	-0.118294865
16	0xbea43474	-0.3207127
17	0x3c2ae244	0.0104299225
18	0x3e86d774	0.26336253
19	0xbf1de788	-0.61681414
20	0xbeedc7d5	-0.46441522
21	0x3dcb89e3	0.09938409
22	0xbe96da83	-0.29463586
23	0xbf0f2c82	-0.5592729
24	0xbe6955ff	-0.22786711
25	0x3d4c858b	0.049932044
26	0xbe136e1c	-0.14397472
27	0xbe102227	-0.14075528
28	0x3e668fa1	0.22515728
29	0xbe6d4d24	-0.23173958
30	0xbe88f0ec	-0.2674631
31	0xbd998d75	-0.07497684
32	0xbf0fbb11	-0.56144816
33	0xbf5ecfd0	-0.87035847
34	0xbef39da3	-0.47581205
35	0xbeaef184	-0.34168637
36	0xbba2a676	-0.0049636913
37	0xbe523906	-0.20529565
38	0xbe8c2b84	-0.2737695
39	0xbf17ee68	-0.59348154
40	0xbf0d2022	-0.55127156
41	0xbf1f2694	-0.6216824
42	0xba18e57e	-0.0005832537
43	0x3dfb999f	0.1228516
44	0xbe2704ca	-0.1631042
45	0xbdf356b5	-0.118817724
46	0xbd88fa1b	-0.06688329
47	0xbe80605f	-0.25073525
48	0xbeb2aef0	-0.34899092
49	0x3d76484f	0.060127553
50	0x3e0e73c7	0.13911353
51	0xbeea910e	-0.45813793
52	0xbebadaa7	-0.36494943
53	0xbe159221	-0.14606525
54	0xbe2780ce	-0.16357729
55	0xbeb570ab	-0.3543752
56	0xbe9e9b8b	-0.30978045
57	0x3df248a1	0.11830259
58	0xbef3fe80	-0.47655106
59	0xbe689364	-0.22712475
60	0xbf346b15	-0.70475894
61	0xbe6c93fb	-0.23103325
62	0xbeb3b63e	-0.35099977
63	0xbde5b94e	-0.11216985
64	0x3d9e23e2	0.07721688
65	0xbf317f5a	-0.6933495
66	0xbeb5502f	-0.35412738
67	0xbf30c07f	-0.69043726
68	0xbf66df15	-0.90184146
69	0xbf9cdca6	-1.2254837
70	0xbeb814e8	-0.3595345
71	0x3cf013f3	0.029306388
72	0xbf111af1	-0.56681734
73	0xbf8c00e8	-1.0937777
74	0xbfb56fc4	-1.4174733
75	0xbea588cb	-0.32330927
76	0xbe351cd2	-0.17686775
77	0xbec389a1	-0.3819094
78	0xbe8e9ff3	-0.27856407
79	0xbe50a3b5	-0.2037495
80	0xbea67635	-0.3251206
81	0xbeedc288	-0.46437478
82	0xbf708f40	-0.9396858
83	0x3f0feaa6	0.5621742
84	0xbf1c306f	-0.61011404
85	0xbe8054d9	-0.25064734
86	0xbec8c45b	-0.39212307
87	0xbe4a1d8b	-0.19737832
88	0xbea63a73	-0.32466468
89	0xbf548506	-0.8301548
90	0xbef2029e	-0.47267622
91	0xbedfcee1	-0.43712524
92	0xbecc117e	-0.39857095
93	0xbf2eef25	-0.68333656
94	0xbde178da	-0.11009379
95	0xbf87f25d	-1.0620838
96	0xbebd3ca5	-0.3696033
97	0xbf52a3dc	-0.8228128
98	0xbf26acda	-0.651075
99	0xbefd279c	-0.49444282
100	0xbef9d6fc	-0.48796833
101	0xbe91acaf	-0.2845206
102	0x3e327c2d	0.17430182
103	0xbcb4b53d	-0.022059077
104	0xbf299a12	-0.6625072
105	0xbea75d60	-0.32688427
106	0xbf320468	-0.69537973
107	0xbf1ba302	-0.60795605
108	0xbe23311f	-0.15936707
109	0xbf682661	-0.9068356
110	0xbea8188e	-0.32831234
111	0xbf8dcb50	-1.1077671
112	0xbd28fda4	-0.041257516
113	0xbea74fd1	-0.32678083
114	0xbf71137e	-0.9417037
115	0x3ee756c6	0.4518339
116	0xbf3e75dc	-0.7439859
117	0xbecd3fad	-0.40087643
118	0xbebc6dc6	-0.368025
119	0xbe61be84	-0.22045332
120	0xbf1217df	-0.57067674
121	0xbf4fb956	-0.81142175
122	0xbf6175fc	-0.88070655
123	0xbf664a50	-0.8995714
124	0xbf282f03	-0.65696734
125	0xbe4e8e8d	-0.20171566
126	0xbe9334fa	-0.28751355
127	0xbf04ecba	-0.51923716
128	0xbebf6716	-0.37383336
129	0x3ea578b1	0.32318643
130	0x3d7b0366	0.061282538
131	0xbe0f5681	-0.13997842
132	0x3f07cf21	0.5305043
133	0xbafb22c0	-0.0019160137
134	0x3e045855	0.12924321
135	0xbd731894	-0.05934961
136	0x3e296690	0.1654303
137	0x3e78c335	0.24293216
138	0xbe2af616	-0.16695437
139	0x3d8c1337	0.068396024
140	0x3d8d44ff	0.068979256
141	0x3ee22491	0.44168523
142	0xbd573100	-0.052536964
143	0x3dc86213	0.09784331
144	0x3e1f4dcf	0.15557025
145	0xbc8ca8d1	-0.017170342
146	0xbe9deeeb	-0.30846342
147	0x3d95d0b2	0.07315196
148	0xbe72d644	-0.23714548
149	0x3ce115e8	0.027476266
150	0xbe1ef280	-0.15522194
151	0x3e97898d	0.2959713
152	0xbe8a4591	-0.270062
153	0xbe2135f7	-0.15743242
154	0x3ee4e2c6	0.44704264
155	0x3de670f4	0.11252013
156	0xbde550b9	-0.11197037
157	0x3e9558a1	0.2916918
158	0x3e84aea6	0.25914496
159	0xbe924482	-0.28567892
160	0x3e253d03	0.16136555
161	0xbe80e4f3	-0.25174674
162	0xbe866e77	-0.26256153
163	0x3e6e14a5	0.23250063
164	0x3ee2f2e3	0.44325933
165	0x3daad4ae	0.08341347
166	0x3d3925ea	0.045202173
167	0xbda8c702	-0.08241083
168	0x3d901c96	0.07036702
169	0x3e1f0c8b	0.15532129
170	0xbe2530ef	-0.16131948
171	0xbdb44c11	-0.08803571
172	0xbdf15117	-0.11783045
173	0x3ea36f55	0.31920877
174	0xbeaaafde	-0.333373
175	0xbea7b24e	-0.32753223
176	0xbd01ac73	-0.0316586
177	0xbf0f9374	-0.5608437
178	0x3d60efb1	0.054916088
179	0xbd6d5c04	-0.05794908
180	0x3e205e47	0.15660964
181	0xbe1be3b0	-0.15223575
182	0x3ebd23fd	0.3694152
183	0xbe6bbca7	-0.23021184
184	0xbd621632	-0.05519695
185	0xbe1a9319	-0.15095176
186	0xbe0ece3d	-0.13945861
187	0xbe90f922	-0.28315073
188	0x3edb34a5	0.42813602
189	0x3e2de22c	0.16980809
190	0x3e255596	0.1614593
191	0xbdcebb48	-0.10094315
192	0xbf08701a	-0.53296053
193	0xbedf81c1	-0.43653682
194	0xbd1e6e29	-0.038679276
195	0xbe66885e	-0.22512957
196	0xbe9c5a33	-0.30537567
197	0x3d945fd0	0.07244837
198	0xbe4cb20f	-0.19989799
199	0x3e9f7f6c	0.31151903
200	0xbe932c3e	-0.28744692
201	0x3eb7659d	0.35819712
202	0xbd0d8e9e	-0.03455984
203	0x3ec3c66b	0.38237318
204	0xbf26f611	-0.6521922
205	0xbd98089b	-0.07423516
206	0x3d4605d7	0.048345413
207	0xbcfab367	-0.030603124
208	0xbe840a9e	-0.2578935
209	0x3e9916c3	0.29900178
210	0xbeabf34c	-0.33584058
211	0xbd929d9d	-0.071589686
212	0xbf7e820e	-0.994172
213	0xbead2d68	-0.33823705
214	0xbd4dac0b	-0.0502129
215	0xbed34a41	-0.4126759
216	0xbe290747	-0.16506682
217	0x3e5c61b0	0.2152164
218	0x3d806281	0.06268788
219	0x3e37c1ef	0.17945074
220	0xbe3e5d80	-0.18590355
221	0xbead9554	-0.3390299
222	0xbf0085c9	-0.5020414
223	0xbe7ed5fd	-0.24886318
224	0x3dde04ed	0.10840783
225	0x3e4a7b5c	0.1977362
226	0xbe2b36b6	-0.1672009
227	0xbe327322	-0.17426732
228	0x3dbbf852	0.09178223
229	0xbeca5b5b	-0.39522824
230	0xbdcd47bb	-0.10023447
231	0xbdb4e728	-0.08833152
232	0xbcad688f	-0.021168021
233	0xbf263398	-0.64922476
234	0xbdfe5a63	-0.12419584
235	0xbd6ce377	-0.057834115
236	0x3e4d0570	0.20021605
237	0xbecf7c8f	-0.40524718
238	0xbefe1df8	-0.4963224
239	0xbe95ddf8	-0.2927091
240	0x3ce33f03	0.027740007
241	0xbea292d4	-0.31752646
242	0xbe9a70ec	-0.30164278
243	0x3c8485c8	0.016177073
244	0xbc98fae4	-0.018674321
245	0xbd46c583	-0.048528206
246	0xbeb0ef80	-0.34557724
247	0xbec290ed	-0.38001195
248	0xbedc4e29	-0.4302838
249	0xbe83d6b2	-0.25749737
250	0xbee322f4	-0.44362605
251	0xbe703685	-0.23458298
252	0xbeec22a0	-0.46120167
253	0xbf3d2971	-0.7389136
254	0xbe3605c4	-0.17775637
255	0xbd8289a4	-0.06373909

bias_hh_l0 f4 [256]
0	0xbcece3a5	-0.028917143
1	0xbf2a264e	-0.664647
2	0xbeeb3b65	-0.45943752
3	0xbe1ebe50	-0.15502286
4	0xbca44ed2	-0.020057116
5	0xbf14da00	-0.5814514
6	0xbf0eb402	-0.5574342
7	0xbe9b96c0	-0.3038845
8	0xbecd2bb4	-0.40072405
9	0x3e189dc9	0.1490394
10	0xbeaba08d	-0.33520928
11	0x3dabc7f7	0.0838775
12	0xbe94c832	-0.29058987
13	0xbe392508	-0.18080533
14	0xbddfd84a	-0.10929926
15	0xbd7a3105	-0.061081905
16	0xbebe4e33	-0.37169036
17	0x3e0ebb34	0.139386
18	0x3e5478f3	0.20749263
19	0xbf22ccbb	-0.63593644
20	0xbec35611	-0.381516
21	0x3dbc45e3	0.09193017
22	0xbe767542	-0.24068168
23	0xbf07a214	-0.52981687
24	0xbe1cd969	-0.1531731
25	0x39f7af3a	0.00047242065
26	0xbe56a9e3	-0.20963244
27	0xbe1964b3	-0.1497982
28	0x3e9424de	0.28934377
29	0xbe19f579	-0.15035047
30	0xbed835d5	-0.4222857
31	0xbdc09836	-0.09404032
32	0xbf2c42df	-0.6728954
33	0xbf2c5aab	-0.6732585
34	0xbedf2a72	-0.4358707
35	0xbe49f3e9	-0.1972195
36	0xbd8b3afc	-0.0679836
37	0xbeb86a49	-0.3601859
38	0xbe85ba8d	-0.2611889
39	0xbf3485fb	-0.7051694
40	0xbee37aa4	-0.44429505
41	0xbee2760d	-0.4423069
42	0xbe4178c9	-0.18893732
43	0x3d699ce5	0.057034392
44	0xbe19fa22	-0.15036824
45	0xbe7dc516	-0.24782214
46	0xbdec61ea	-0.11542113
47	0xbe96a41a	-0.29422075
48	0xbef14c36	-0.47128457
49	0x3e0090ae	0.12555191
50	0x3e97c30e	0.29641002
51	0xbf111846	-0.56677663
52	0xbecc1da9	-0.3986638
53	0xbdde5883	-0.10856726
54	0xbde26928	-0.11055213
55	0xbe54a57f	-0.20766257
56	0xbee13481	-0.4398537
57	0x3cd5018d	0.026001716
58	0xbf1e8f20	-0.6193714
59	0xbeb1a284	-0.34694302
60	0xbf3d69ed	-0.73989755
61	0xbe6a2ca5	-0.22868593
62	0xbe822cfe	-0.2542495
63	0xbde815e3	-0.113322996
64	0xbd010c7f	-0.031506058
65	0xbf258fb5	-0.64672405
66	0xbe9b10bf	-0.30286214
67	0xbf427e15	-0.75973636
68	0xbf3324d0	-0.69978046
69	0xbf7e370e	-0.99302757
70	0xbec79442	-0.389803
71	0xbe158d5d	-0.14604707
72	0xbee0d1aa	-0.4390996
73	0xbf82f32d	-1.0230461
74	0xbf9a5bff	-1.2059325
75	0xbe940d10	-0.28916216
76	0xbec28fff	-0.38000485
77	0xbf1a6586	-0.6031116
78	0xbddfd21b	-0.10928746
79	0xbe8be246	-0.2732107
80	0xbed98a3e	-0.42488283
81	0xbef401ce	-0.47657627
82	0xbf7491fa	-0.9553524
83	0x3f0644cf	0.52448744
84	0xbf2810bb	-0.6565053
85	0xbea0d53c	-0.31412685
86	0xbe9b9097	-0.3038375
87	0xbd6f18ef	-0.058373388
88	0xbe36cba0	-0.17851114
89	0xbf488d9c	-0.7834108
90	0xbf091b50	-0.535573
91	0xbede21d5	-0.43385187
92	0xbea81571	-0.32828858
93	0xbf2fbc58	-0.68646765
94	0xbd7e8051	-0.06213409
95	0xbf54a072	-0.8305732
96	0xbed3b612	-0.41349846
97	0xbf743d5f	-0.95406145
98	0xbf201270	-0.62528133
99	0xbf2530b5	-0.64527446
100	0xbebe2552	-0.37137848
101	0xbe9ee563	-0.31034383
102	0x3d432f95	0.0476528
103	0x3d964b8e	0.0733863
104	0xbf10dda8	-0.5658822
105	0xbe853a50	-0.2602105
106	0xbf34a8b0	-0.70569897
107	0xbef2dd0f	-0.4743428
108	0xbe039012	-0.12847927
109	0xbf580376	-0.8438028
110	0xbe8bb0eb	-0.27283415
111	0xbf9fd7ce	-1.2487733
112	0xbd149ea3	-0.0362841
113	0xbeed3677	-0.46330616
114	0xbf7f774c	-0.9979141
115	0x3ed2c096	0.41162556
116	0xbf4e94b2	-0.8069564
117	0xbec680a5	-0.38770023
118	0xbe5538ef	-0.208225
119	0xbee3f809	-0.44525173
120	0xbf0736f2	-0.52818215
121	0xbf3d4861	-0.73938566
122	0xbf25d283	-0.6477434
123	0xbf786399	-0.97026974
124	0xbf26e00a	-0.65185606
125	0xbe43f30c	-0.19135684
126	0xbe7fb0ae	-0.24969742
127	0xbf0d39b9	-0.551662
128	0xbeaa0508	-0.33206964
129	0x3f0a154c	0.53938746
130	0x3caeac6f	0.021322457
131	0xbe287c0e	-0.16453573
132	0x3f3b1962	0.73085606
133	0xbe4ef405	-0.20210274
134	0x3e4a776b	0.19772117
135	0x3d7d305b	0.061813693
136	0xbc782284	-0.015144948
137	0x3dad8e27	0.08474379
138	0xbde8b081	-0.113617904
139	0xbd421aa6	-0.047388695
140	0x3e76796b	0.24069755
141	0x3ea73413	0.32656917
142	0xbe2e7176	-0.1703547
143	0xbddacb0f	-0.106832616
144	0x3e5284ed	0.2055852
145	0x3d886ed3	0.06661763
146	0xbe5e26bd	-0.21694465
147	0x3c994f2c	0.01871451
148	0xbe3f2bd8	-0.18669069
149	0xbd10f105	-0.035386104
150	0xbb9bc876	-0.0047541214
151	0x3ebd4780	0.36968613
152	0xbe888efc	-0.26671588
153	0xbe98d0c3	-0.29846773
154	0x3e84041c	0.25784385
155	0x3dfa9100	0.12234688
156	0x3b9edee0	0.004848346
157	0x3ea807e6	0.32818526
158	0x3e19f211	0.15033747
159	0xbec08666	-0.37602538
160	0xbcf37a9d	-0.029721553
161	0xbe886045	-0.26635948
162	0xbe995d6a	-0.29954082
163	0x3d64899c	0.055795297
164	0x3ea4f916	0.32221287
165	0x3d765b61	0.06014574
166	0x3a68fa89	0.00088874303
167	0xbded64c9	-0.11591489
168	0xbd61f6b1	-0.055166904
169	0x3e2d9363	0.16950755
170	0xbd463c09	-0.048397098
171	0xbdc58cb1	-0.096459754
172	0xbdcbada4	-0.09945229
173	0x3e9cf81e	0.30658048
174	0xbea9fecd	-0.3320221
175	0xbeb0baa4	-0.34517395
176	0x3cfbb17e	0.030724283
177	0xbf19de3c	-0.6010473
178	0xbc5d11a2	-0.0134929735
179	0xbe2717da	-0.16317692
180	0x3e202d2f	0.15642236
181	0x3cc9701f	0.024589596
182	0x3e6c2a65	0.23063047
183	0xbe7d1622	-0.24715474
184	0x3d69298b	0.056924384
185	0xbe09b868	-0.13449252
186	0xbc356f7f	-0.011073946
187	0xbe2b7a73	-0.1674593
188	0x3f0a6866	0.5406555
189	0xbd1eef0e	-0.0388022
190	0x3d9d1cf1	0.07671536
191	0x3d8597df	0.06523108
192	0xbec35aa9	-0.38155106
193	0xbeca04be	-0.39456743
194	0x3c4d6c31	0.012538002
195	0xbe5b1cb7	-0.21397673
196	0xbe74767b	-0.23873322
197	0x3d98235f	0.074286215
198	0xbdcd7679	-0.100323625
199	0x3e8f92e6	0.28041762
200	0xbea73149	-0.3265479
201	0x3ebef5d2	0.3729692
202	0x3d3fb11a	0.046799757
203	0x3ece4da9	0.40293625
204	0xbef6b417	-0.48184273
205	0xbe50dc60	-0.20396566
206	0x3e14a0e1	0.14514495
207	0xbe0bcb8f	-0.1365187
208	0xbe910e86	-0.28331393
209	0x3e97356b	0.29532942
210	0xbe4f1ca3	-0.20225768
211	0x3e028efb	0.12749855
212	0xbf49da28	-0.78848505
213	0xbeefce3a	-0.46837026
214	0xbdba8fad	-0.09109435
215	0xbf162c71	-0.5866156
216	0xbe4c61f9	-0.19959249
217	0x3d56e22e	0.052461796
218	0xbd315c5d	-0.043300975
219	0x3dedad39	0.11605305
220	0xbe7807b3	-0.24221687
221	0xbead32d4	-0.3382784
222	0xbf0e1622	-0.5550252
223	0xbe9b2560	-0.30301952
224	0x3e98de8e	0.29857296
225	0x3e0c6c82	0.13713267
226	0xbe8ad964	-0.2711898
227	0xbd738604	-0.05945398
228	0x3dcf99de	0.1013677
229	0xbeb9b5d3	-0.36271533
230	0x3deda7ea	0.11604293
231	0xbdda9dc0	-0.1067462
232	0xbcea6029	-0.028610306
233	0xbf28a1ff	-0.65872186
234	0xbea9c962	-0.33161455
235	0xbdae5cfd	-0.0851383
236	0x3e50b71f	0.20382355
237	0xbe8bc716	-0.27300328
238	0xbebc2cd4	-0.3675295
239	0xbe319905	-0.17343529
240	0xbc01e6b4	-0.007928539
241	0xbec9a99f	-0.39387223
242	0xbdefd1da	-0.11709948
243	0xbd423ef6	-0.047423325
244	0xbd3e2159	-0.04641852
245	0x3d41c30a	0.047305144
246	0xbea9a43c	-0.33133113
247	0xbecf15c4	-0.40446293
248	0xbf0e4a2a	-0.55581915
249	0xbeacb27d	-0.33729926
250	0xbf098685	-0.53720886
251	0xbeb80718	-0.35942912
252	0xbef01b76	-0.4689595
253	0xbf2e7b61	-0.6815701
254	0xbe27f4cd	-0.16401978
255	0xbd0ac6fc	-0.033881173
