h1_2_full_DR_policy_lstm.pt (torch, 145745 bytes, 10 tensors)

hidden_state f4 [1, 1, 64]
0.0 0.0 0.0 0.0 0.0 0.0 0.0 0.0
0.0 0.0 0.0 0.0 0.0 0.0 0.0 0.0
0.0 0.0 0.0 0.0 0.0 0.0 0.0 0.0
0.0 0.0 0.0 0.0 0.0 0.0 0.0 0.0
0.0 0.0 0.0 0.0 0.0 0.0 0.0 0.0
0.0 0.0 0.0 0.0 0.0 0.0 0.0 0.0
0.0 0.0 0.0 0.0 0.0 0.0 0.0 0.0
0.0 0.0 0.0 0.0 0.0 0.0 0.0 0.0
00000000: 0000 0000 0000 0000 0000 0000 0000 0000
00000010: 0000 0000 0000 0000 0000 0000 0000 0000
00000020: 0000 0000 0000 0000 0000 0000 0000 0000
00000030: 0000 0000 0000 0000 0000 0000 0000 0000
00000040: 0000 0000 0000 0000 0000 0000 0000 0000
00000050: 0000 0000 0000 0000 0000 0000 0000 0000
00000060: 0000 0000 0000 0000 0000 0000 0000 0000
00000070: 0000 0000 0000 0000 0000 0000 0000 0000
00000080: 0000 0000 0000 0000 0000 0000 0000 0000
00000090: 0000 0000 0000 0000 0000 0000 0000 0000
000000a0: 0000 0000 0000 0000 0000 0000 0000 0000
000000b0: 0000 0000 0000 0000 0000 0000 0000 0000
000000c0: 0000 0000 0000 0000 0000 0000 0000 0000
000000d0: 0000 0000 0000 0000 0000 0000 0000 0000
000000e0: 0000 0000 0000 0000 0000 0000 0000 0000
000000f0: 0000 0000 0000 0000 0000 0000 0000 0000

cell_state f4 [1, 1, 64]
0.0 0.0 0.0 0.0 0.0 0.0 0.0 0.0
0.0 0.0 0.0 0.0 0.0 0.0 0.0 0.0
0.0 0.0 0.0 0.0 0.0 0.0 0.0 0.0
0.0 0.0 0.0 0.0 0.0 0.0 0.0 0.0
0.0 0.0 0.0 0.0 0.0 0.0 0.0 0.0
0.0 0.0 0.0 0.0 0.0 0.0 0.0 0.0
0.0 0.0 0.0 0.0 0.0 0.0 0.0 0.0
0.0 0.0 0.0 0.0 0.0 0.0 0.0 0.0
00000000: 0000 0000 0000 0000 0000 0000 0000 0000
00000010: 0000 0000 0000 0000 0000 0000 0000 0000
00000020: 0000 0000 0000 0000 0000 0000 0000 0000
00000030: 0000 0000 0000 0000 0000 0000 0000 0000
00000040: 0000 0000 0000 0000 0000 0000 0000 0000
00000050: 0000 0000 0000 0000 0000 0000 0000 0000
00000060: 0000 0000 0000 0000 0000 0000 0000 0000
00000070: 0000 0000 0000 0000 0000 0000 0000 0000
00000080: 0000 0000 0000 0000 0000 0000 0000 0000
00000090: 0000 0000 0000 0000 0000 0000 0000 0000
000000a0: 0000 0000 0000 0000 0000 0000 0000 0000
000000b0: 0000 0000 0000 0000 0000 0000 0000 0000
000000c0: 0000 0000 0000 0000 0000 0000 0000 0000
000000d0: 0000 0000 0000 0000 0000 0000 0000 0000
000000e0: 0000 0000 0000 0000 0000 0000 0000 0000
000000f0: 0000 0000 0000 0000 0000 0000 0000 0000

weight f4 [32, 64]
-0.739059 0.233674 0.4115534 -0.06198121 -0.29027766 0.087544695 -0.059922673 -0.3246202
0.6241456 -0.1300261 -0.18439376 -0.097570874 1.0301007 -0.5378881 0.18190011 0.1595868
0.259842 0.24449933 -0.54630077 0.01101724 0.36196414 0.12214938 0.31918103 -0.16071616
0.4432128 -0.08014741 0.09300811 -0.07025886 0.24446568 0.16806868 -0.30498436 -0.08293942
0.251658 0.06968782 -0.57550967 -0.12535797 0.0039209016 0.07194182 -0.31389892 0.5121943
0.3339968 0.07692385 0.2093229 -0.11757839 -0.32810465 0.17328271 0.11767362 0.15186997
0.71770287 0.017247569 -0.4534511 0.197474 0.022794161 -0.6526944 0.85366976 0.47388795
0.037773985 0.2576024 -0.34139034 0.108000614 0.14646973 -0.17090908 0.3400501 0.6223885
-0.39996862 0.09901972 -0.3265245 0.60119104 -0.41649196 0.5204159 -0.08364759 0.10615098
0.5995968 0.71638066 -0.17104946 -0.021381559 0.028132351 -0.109912306 -0.02890156 0.132308
0.15165071 -0.2969565 0.25491494 -0.122499965 0.34507316 -0.18638086 0.5929178 -0.14696446
0.50413066 0.11404905 -0.69347465 0.27719995 0.22449186 -0.57505316 0.21941689 -0.07271414
-0.016461812 0.3701979 -0.039995212 -0.3668198 0.58799326 0.5324732 -0.30982795 -0.83085936
-0.040710587 0.06065048 0.07308867 -0.21280919 0.57456106 0.9722479 -0.030606765 0.21975638
-0.20968147 -0.22150753 0.07970788 -0.23552813 0.02654868 -0.3916774 0.11931498 0.24156225
-0.19664583 -0.021904763 0.09593851 -0.017041482 -0.08232551 0.6928415 -0.4237273 0.17134185
-0.29513767 -0.025595723 -0.75604224 -0.39987174 0.024315583 -0.081113905 -0.11490564 -0.3938369
0.16558428 0.8820386 -0.19832706 0.18901262 -0.5444164 -0.38803282 -0.22920549 -0.27033103
-0.5744446 -0.112996206 -0.3028925 0.112266846 0.43312338 -0.2115976 0.091033705 -0.36774686
0.40895906 0.5240444 -0.7722283 -0.23779286 -0.22716646 0.4541754 0.3320882 -0.12473421
-0.19599622 0.5720742 0.28581864 0.5056493 0.15589873 -0.30240348 0.5852823 0.024739593
0.24314384 0.003512809 -0.017968886 0.43287885 -0.14775665 -0.1371339 -0.35782823 -0.33681828
0.020284045 0.13411409 -0.47793263 0.15712601 -0.29458067 0.15658823 -0.57793736 0.52489233
0.3598626 -0.33217138 -0.61436033 0.03684746 0.10543302 -0.5361959 -0.45646527 -0.5003961
0.40267003 0.3104374 -0.15063432 0.39994064 0.057885442 0.48288617 0.349388 -0.15667246
0.20805398 -0.006715087 -0.791045 0.34659168 0.5130127 0.13401343 0.21038361 -0.22375293
0.09319815 0.37653103 0.2862748 -0.15184394 -0.10393517 0.5760737 -0.61324 0.42015973
0.4440144 -0.13612325 -0.28804386 -0.6000409 0.0039501386 0.13888855 -0.09063861 -0.14633015
-0.2429871 0.07673789 -0.2995503 0.23668166 0.036184996 0.504446 0.02237784 0.077657476
-0.21785893 0.039831884 -0.1981398 0.17835066 0.63997954 -0.28684258 -0.15695715 -0.024609074
0.57090676 0.19719774 0.47532243 -0.90316856 -0.034676045 0.23103976 -0.552239 -0.45056188
-0.16406247 -0.20406075 0.03531565 -0.25364667 -0.06684494 -0.33651933 0.5253883 -0.46560705
00000000: f832 3dbf 3d48 6f3e 21b7 d23e 02e0 7dbd
00000010: 469f 94be a24a b33d 7a71 75bd 9e34 a6be
00000020: 02c8 1f3f 9025 05be b8d1 3cbe 3dd3 c7bd
00000030: 57da 833f 09b3 09bf 0644 3a3e b96a 233e
00000040: 030a 853e 085e 7a3e 5eda 0bbf a781 343c
00000050: 5d53 b93e 7429 fa3d b26b a33e c792 24be
00000060: caec e23e 5324 a4bd 097b be3d e1e3 8fbd
00000070: 3655 7a3e 321a 2c3e e926 9cbe 25dc a9bd
00000080: 51d9 803e 7db8 8e3d 9a54 13bf d75d 00be
00000090: e87a 803b 3c56 933d 5cb7 a0be 2a1f 033f
000000a0: a101 ab3e 408a 9d3d be58 563e f0cc f0bd
000000b0: 55fd a7be 0671 313e defe f03d cd83 1b3e
000000c0: 60bb 373f c64a 8d3c be2a e8be a036 4a3e
000000d0: d2ba ba3c fb16 27bf 1a8a 5a3f 71a1 f23e
000000e0: e5b8 1a3d 76e4 833e b7ca aebe 6d2f dd3d
000000f0: 29fc 153e ca02 2fbe 0c1b ae3e da54 1f3f
00000100: b0c8 ccbe daca ca3d 382e a7be a8e7 193f
00000110: 6f3e d5be fa39 053f 6d4f abbd af65 d93d
00000120: 2d7f 193f b964 373f 9727 2fbe 6128 afbc
00000130: d175 e63c b419 e1bd f7c2 ecbc c07b 073e
00000140: 534a 1b3e af0a 98be 3684 823e 43e1 fabd
00000150: 6ead b03e a0da 3ebe 76c9 173f da7d 16be
00000160: b50e 013f 8c92 e93d 8e87 31bf 27ed 8d3e
00000170: 32e1 653e af36 13bf d2ae 603e 27eb 94bd
00000180: ecda 86bc 948a bd3e 05d2 23bd cecf bbbe
00000190: ba86 163f 2a50 083f c5a1 9ebe 33b3 54bf
000001a0: 25c0 26bd a36c 783d 83af 953d a7ea 59be
000001b0: 6f16 133f 3de5 783f 0abb fabc d107 613e
000001c0: bdb6 56be dfd2 62be e33d a33d 492e 71be
000001d0: 9e7c d93c f189 c8be 6a5b f43d 185c 773e
000001e0: 865d 49be 9e71 b3bc 697b c43d 949a 8bbc
000001f0: 479a a8bd 0f5e 313f c9f2 d8be 3d74 2f3e
00000200: 491c 97be 1fae d1bc fc8b 41bf fdbb ccbe
00000210: 7931 c73c 0c1f a6bd a653 ebbd fda4 c9be
00000220: ed8e 293e 48cd 613f 4016 4bbe 868c 413e
00000230: e05e 0bbf 3dac c6be d8b4 6abe d468 8abe
00000240: cd0e 13bf 8e6a e7bd ba14 9bbe 29ec e53d
00000250: 59c2 dd3e 0bad 58be e16f ba3d 5149 bcbe
00000260: 1563 d13e c627 063f c1b0 45bf f97f 73be
00000270: 539e 68be ae89 e83e 7707 aa3e a674 ffbd
00000280: 3cb3 48be 7473 123f d256 923e 3c72 013f
00000290: eba3 1f3e a1d4 9abe 10d5 153f b0aa ca3c
000002a0: b3fa 783e 2837 663b 7c33 93bc 4ca2 dd3e
000002b0: 854d 17be d46c 0cbe 4335 b7be 7273 acbe
000002c0: ba2a a63c 3455 093e 96b3 f4be a4e5 203e
000002d0: 47d3 96be aa58 203e b4f3 13bf 585f 063f
000002e0: e93f b83e 5e12 aabe b846 1dbf 5ded 163d
000002f0: 44ed d73d 2244 09bf d1b5 e9be f519 00bf
00000300: c42a ce3e a7f1 9e3e e23f 1abe 05c5 cc3e
00000310: 4919 6d3d db3c f73e fce2 b23e bf6e 20be
00000320: 1a0c 553e 3c0a dcbb ed81 4abf 7774 b13e
00000330: cd54 033f d13a 093e cd6e 573e 7d1f 65be
00000340: acde be3d adc8 c03e 9c92 923e fa7c 1bbe
00000350: f6db d4bd 9179 133f 4cfd 1cbf 2d1f d73e
00000360: db55 e33e e563 0bbe 7c7a 93be 489c 19bf
00000370: 2a70 813b cd38 0e3e bca0 b9bd 92d7 15be
00000380: 9cd1 78be c128 9d3d a85e 99be ad5c 723e
00000390: b836 143d 6023 013f bb51 b73c e20a 9f3d
000003a0: 6916 5fbe c226 233d 29e5 4abe 8ea1 363e
000003b0: b3d5 233f 08dd 92be 60b9 20be f898 c9bc
000003c0: f226 123f 34ee 493e 765d f33e 0e36 67bf
000003d0: 7808 0ebd b095 6c3e 895f 0dbf 0cb0 e6be
000003e0: feff 27be 4df5 50be 25a7 103d fadd 81be
000003f0: 00e6 88bd 434c acbe d97f 063f 0c64 eebe

bias f4 [32]
-0.15221433 -0.20552364 -0.15300786 0.03165863 0.057700817 0.119807065 -0.099424526 -0.23338287
-0.098492056 -0.21138228 0.0896271 -0.1286013 0.08759582 -0.10047654 0.10239811 0.033881616
0.07854087 -0.16839246 0.048376516 -0.0038347878 0.056511816 -0.19211403 0.24985784 -0.16267996
-0.18600902 -0.028868675 -0.30601653 -0.2159069 -0.24222511 0.083036184 -0.11222425 0.0044546695
00000000: 13de 1bbe ca74 52be 18ae 1cbe 7bac 013d
00000010: b157 6c3d 685d f53d 169f cbbd ebfb 6ebe
00000020: 34b6 c9bd 9974 58be 6a8e b73d 0fb0 03be
00000030: 7065 b33d a5c6 cdbd 1ab6 d13d 73c7 0a3d
00000040: 09da a03d 136f 2cbe 7426 463d 1051 7bbb
00000050: ef78 673d 8ab9 44be bcda 7f3e 9395 26be
00000060: 2679 3ebe 007e ecbc 33ae 9cbe b316 5dbe
00000070: dc09 78be e00e aa3d d4d5 e5bd 7af8 913b

weight f4 [12, 32]
-0.01285758 -0.20920822 0.05880979 -0.08225323 0.017461926 0.023100136 -0.1492049 0.086596824
-0.1140972 0.11711588 0.14352466 0.12056977 0.0064924937 -0.19826792 0.0141266165 -0.12283156
-0.01692047 -0.50642353 0.12883736 -0.060318362 -0.05315241 0.08995139 0.029748347 0.036721457
0.08846141 0.4314228 0.025162809 0.007603275 0.06496741 -0.070663825 -0.1160994 0.1257094
0.04780915 -0.027978506 0.031692304 -0.16227332 0.250146 -0.0931516 -0.3636947 -0.041981783
0.045521695 0.16210848 0.3508236 0.12570016 -0.13108236 -0.33487025 0.050169304 -0.012467161
0.083784245 0.55882657 -0.32205427 -0.5638225 0.013536668 0.31128916 0.2970451 -0.4838111
-0.11518039 0.13982564 -0.29740143 -0.06555801 -0.21288079 0.5399273 0.09862033 -0.30156848
0.14134255 -0.012752352 -0.18498644 0.27269644 -0.15417138 -0.23894876 0.101093754 -0.46174842
-0.19893646 -0.13141096 0.55573905 0.014161592 0.03872093 -0.48284304 -0.06152176 0.24640489
-0.32149902 -0.0060559814 0.1134864 0.22182336 0.22476982 -0.50658524 0.31891367 -0.5416777
0.11255085 0.19865467 -0.41696846 -0.4604281 1.1003515 -0.33339754 -0.19227621 -0.17355789
-0.10262482 -0.17550941 0.30360746 -0.06671437 0.10866459 0.08944941 -0.4318656 0.11260953
0.029181128 -0.2048025 0.17798673 -0.34295642 0.41723666 0.05778984 0.3708939 0.25338653
0.37078038 -0.0037160774 0.2820543 0.41374964 -0.0401756 0.010178809 -0.088964626 0.0031400272
-0.22935057 -0.11045304 -0.20731008 0.121773936 0.22156237 0.0057706577 0.16103591 -0.03681482
-1.0115501 -0.29582992 -0.3124617 0.5521329 0.4089906 -0.053723983 -0.4811189 -0.035655357
-0.20377192 -0.2726535 0.14579457 -0.8556949 -0.22206853 0.35171956 -0.2639349 0.29449078
-0.51508695 0.33246732 -0.17687969 -0.27948323 1.5682168 0.073309086 -0.16504574 0.902276
-0.18183304 0.775506 -0.41700616 0.5538681 0.24163052 0.6523304 0.2918343 -0.16080889
-0.7467442 0.08046088 -0.29965565 0.7045265 0.5771098 -0.6162712 0.11393829 0.24765928
0.07633696 -0.18851839 0.25038534 0.13997763 -0.097874515 0.13325699 -0.24992763 -1.3125619
-0.081960514 0.25271842 0.3546793 0.39868015 -0.32926735 -0.27878088 0.27654338 -0.413875
0.1083714 -0.28793633 -0.6075312 0.50737363 0.100410014 0.24328701 -0.27568808 -0.17207707
-0.10629247 0.18358223 -0.28798744 -0.13113496 -0.081101805 0.10081086 0.17399646 0.072686255
0.17460307 0.0038102306 0.017564934 0.000949259 -0.01847131 0.043562945 0.10234245 0.105513334
-0.09880403 0.18292286 0.37333182 -0.061467774 0.055748284 0.14105472 0.093805894 0.031058058
-0.14338349 -0.21117339 -0.068905726 0.026324935 -0.0089135235 -0.035480686 0.08873689 -0.0071502286
-0.029862564 -0.22450623 -0.05996076 -0.45137635 -0.049686145 -0.22057943 -0.32139453 -0.2336043
0.48899993 -0.037046846 -0.2792653 -0.14071876 0.270472 0.0537291 -0.22419786 0.019235011
-0.79455763 -0.28950492 -0.18817794 0.22732092 -0.29880688 0.19335537 0.20167218 -0.010132718
0.4305422 -0.042982493 0.40807804 0.6016647 -0.030922854 -0.26051533 -0.22366692 -0.23815732
00000000: 99a8 52bc ae3a 56be 89e2 703d 6274 a8bd
00000010: 500c 8f3c 7f3c bd3c 2bc9 18be ad59 b13d
00000020: cbab e9bd 73da ef3d 21f8 123e 49ed f63d
00000030: fcbe d43b bf06 4bbe 5373 673c 1d8f fbbd
00000040: cc9c 8abc f9a4 01bf f1ed 033e 6310 77bd
00000050: 57b6 59bd 6f38 b83d ceb2 f33c 3d69 163d
00000060: 412b b53d 73e3 dc3e 3c22 ce3c e524 f93b
00000070: a20d 853d 32b8 90bd 86c5 edbd f7b9 003e
00000080: 87d3 433d 2e33 e5bc cacf 013d fa2a 26be
00000090: 2313 803e 44c6 bebd 3136 babe 17f5 2bbd
000000a0: f574 3a3d c4ff 253e 279f b33e 8bb7 003e
000000b0: 743a 06be 1d74 abbe 547e 4d3d 1043 4cbc
000000c0: 1397 ab3d 420f 0f3f 4ce4 a4be ac56 10bf
000000d0: e7c8 5d3c 4b61 9f3e 4c16 983e 17b6 f7be
000000e0: b2e3 ebbd 742e 0f3e 0045 98be 4743 86bd
000000f0: 6cfd 59be ad38 0a3f 75f9 c93d 2f67 9abe
00000100: 1abc 103e 3eef 50bc 166d 3dbe de9e 8b3e
00000110: 1adf 1dbe fcae 74be 3e0a cf3d 4a6a ecbe
00000120: 00b6 4bbe 9890 06be ea44 0e3f 0606 683c
00000130: d799 1e3d 3437 f7be 3efe 7bbd 9051 7c3e
00000140: 859b a4be 4171 c6bb 8f6b e83d aa25 633e
00000150: 0f2a 663e 92af 01bf a748 a33e 64ab 0abf
00000160: 0f81 e63d 216c 4b3e e47c d5be 3bbd ebbe
00000170: 51d8 8c3f 15b3 aabe 0ee4 44be 29b9 31be
00000180: f62c d2bd bdb8 33be 7072 9b3e 8ba1 88bd
00000190: 8a8b de3d 4131 b73d 7d1d ddbe d39f e63d
000001a0: 430d ef3c bfb7 51be 2742 363e fc97 afbe
000001b0: 0ba0 d53e 0ab5 6c3d cee5 bd3e e1bb 813e
000001c0: edd6 bd3e 6f89 73bb 6c69 903e fed6 d33e
000001d0: 2c8f 24bd 05c5 263c 1633 b6bd eac8 4d3b
000001e0: e0da 6abe 3435 e2bd 1849 54be 9d64 f93d
000001f0: 3fe1 623e c917 bd3b 99e6 243e 23cb 16bd
00000200: 797a 81bf 0577 97be fbfa 9fbe 9558 0d3f
00000210: 3767 d13e ae0d 5cbd 3755 f6be 5a0b 12bd
00000220: 96a9 50be 3d99 8bbe 2c4b 153e d20e 5bbf
00000230: ef65 63be 9614 b43e 7a22 87be 7fc7 963e
00000240: bddc 03bf 2839 aa3e f31f 35be 6d18 8fbe
00000250: 54bb c83f 1323 963d c001 29be 8ffb 663f
00000260: 7132 3abe 9087 463f d581 d5be 4dca 0d3f
00000270: fe6d 773e 20ff 263f 4e6b 953e 16ab 24be
00000280: a12a 3fbf adc8 a43d 776c 99be d95b 343f
00000290: 78bd 133f f3c3 1dbf 7a58 e93d 659a 7d3e
000002a0: 8d56 9c3d f70a 41be 8232 803e 4c56 0f3e
000002b0: 6f72 c8bd 8574 083e 07ed 7fbe 0702 a8bf
000002c0: eada a7bd 4f64 813e 8698 b53e ce1f cc3e
000002d0: bb95 a8be 5ebc 8ebe 1897 8d3e 6de7 d3be
000002e0: d3f1 dd3d 646c 93be 2a87 1bbf 3de3 013f
000002f0: c4a3 cd3d 3b20 793e fd26 8dbe f934 30be
00000300: deaf d9bd fbfc 3b3e 1773 93be 3e48 06be
00000310: b418 a6bd ed75 ce3d 212c 323e 88dc 943d
00000320: 26cb 323e 10b5 793b 56e4 8f3c b1d7 783a
00000330: 2551 97bc 0f6f 323d eb98 d13d 6017 d83d
00000340: c459 cabd 2150 3b3e 5925 bf3e a2c5 7bbd
00000350: 5058 643d a670 103e 4e1d c03d 786d fe3c
00000360: 1fd3 12be d63d 58be 721e 8dbd 64a7 d73c
00000370: 070a 12bc 3254 11bd b0bb b53d 774c eabb
00000380: 56a2 f4bc f6e4 65be 6a99 75bd cd1a e7be
00000390: b383 4bbd 93df 61be d38d a4be f735 6fbe
000003a0: 335e fa3e 6fbe 17bd ddfb 8ebe 9418 10be
000003b0: 4e7b 8a3e 0b13 5c3d 2094 65be be92 9d3c
000003c0: 2168 4bbf fd39 94be b8b1 40be d1c6 683e
000003d0: 37fd 98be f3fe 453e 2783 4e3e b303 26bc
000003e0: 0770 dc3e 690e 30bd 9bef d03e b306 1a3f
000003f0: ed51 fdbc 4462 85be f108 65be 83df 73be

bias f4 [12]
-0.0032605736 -0.12727638 0.3666057 0.061938748 0.25798726 -0.22716668 -0.08228574 -0.10290648
-0.30617815 -0.027243566 -0.108657606 0.16385126
00000000: 59af 55bb bd54 02be beb3 bb3e 7cb3 7d3d
00000010: e816 843e 629e 68be 6d85 a8bd a2c0 d2bd
00000020: 62c3 9cbe e62d dfbc e187 debd a0c8 273e

weight_ih_l0 f4 [256, 47]
-0.81465274 0.16387276 0.5797478 -0.5757373 1.6974102 0.2390818 -0.068757966 -0.42797235
-1.1186519 0.69134206 -0.016874144 -1.9148997 0.5111141 2.6630452 -0.18346272 0.22159044
-1.0095311 -1.8853525 -1.26299 0.30715415 0.13922115 0.5611849 0.18761897 -0.069831826
-0.27333194 1.3179362 0.2365496 0.6934078 -1.2161093 -0.25282836 -0.5126605 -0.5959538
0.59789115 0.11528907 0.24633776 0.19260426 0.3136376 -0.15512103 -0.06771621 0.43160784
-0.14062904 0.08045121 0.1002215 0.10866806 0.11671433 0.23115559 -0.09765383 2.1176903
0.39327937 1.1656888 -1.289873 -0.40713412 0.08199416 -0.23203841 0.15385993 -1.7777528
2.371279 -0.25590658 -0.3455139 0.21288778 -0.84032464 -0.53629243 -0.6746851 -1.1791463
1.9835144 -0.43013865 -0.28436664 0.059325926 -0.24738835 -0.67570835 -0.36980104 -0.2043665
-0.49773595 -0.42922053 0.9244448 -1.7575577 -0.21648705 -0.9629064 -0.1732712 -0.49182743
-0.3151686 -0.13787082 0.07175841 0.21867663 0.058372602 -0.10067192 -0.14232607 0.15129237
-0.074023984 -0.19743621 0.06756863 -0.077043265 -0.033204384 -0.03722991 1.4323479 -0.57346237
0.17932789 -0.98476046 -1.5106645 0.5049656 0.06105094 0.5449774 0.101631775 0.37935632
-0.15801862 1.2715224 -0.0072825616 0.5597369 0.26449472 0.12924784 -0.33365065 0.08424312
-0.28412867 0.10037508 -0.51855314 1.2646341 0.22729543 0.8995376 1.3822856 -0.70659417
0.20239608 0.12941131 -0.20884086 -0.14696898 -0.09550497 -0.5644248 -0.6727039 -0.15962277
0.18512401 -0.06945008 -0.11282994 -2.9028674e-06 -0.11875239 0.194864 -0.019934893 -0.021410553
0.046714384 0.03532805 0.15298858 0.011765757 0.5529853 -1.7498188 -0.6512066 -1.9763695
1.3797879 2.0144503 0.9256641 -0.52911156 0.17198473 -0.25457582 -1.0737653 1.2923201
0.98091507 0.85394853 -0.4624119 -0.8485943 0.8153541 -0.8560992 0.54620945 0.2441275
1.1583906 -0.9635382 -1.0326586 0.7041476 -0.63275474 -0.48182356 -0.019189151 -0.11279865
-0.52783304 -0.9756979 -0.9125763 0.17285906 0.21297182 0.33216995 -0.20281361 0.054385476
-0.3267756 0.46890813 -0.013417131 -0.051453583 0.0059334803 0.30379182 -0.2500429 0.12762713
0.0732695 -0.103507645 -0.2218373 -0.3124662 1.4204173 0.59566057 -0.5115092 1.6237704
-1.5066128 0.48733616 -0.05739948 -0.099757016 0.6378059 -0.38633975 0.34621757 -0.7988567
0.32439327 0.20772381 0.22672604 -0.051944662 -0.17455707 1.5291561 -0.5178404 0.17498024
0.1299416 -0.16148965 0.19268376 2.7757266 0.29136634 -0.030467343 0.3772596 0.30957177
0.6488814 -1.4136353 0.2026208 0.48048228 0.12234941 -0.12618609 0.096560284 0.03368819
0.08964153 -0.018246742 0.022925662 -0.1264656 0.080751166 0.058532707 0.072786175 -0.015482109
-0.0045567304 0.036973555 -0.5262501 0.37379456 0.021853365 -0.18464842 -0.84119415 -0.46165696
0.22152725 -0.031318095 0.07007851 0.6060365 0.18002608 0.17517073 -0.80636907 0.36257118
0.31470576 -0.17410138 -0.28428084 -2.5683148 -0.45472243 -0.27424145 0.14315261 -0.45455748
00000000: 158d 50bf 43ce 273e 5a6a 143f 8563 13bf
00000010: bd44 d93f dcd1 743e fad0 8cbd 311f dbbe
00000020: fc2f 8fbf cbfb 303f a53b 8abc 6f1b f5bf
00000030: 60d8 023f 556f 2a40 a7dd 3bbe 9be8 623e
00000040: 5138 81bf 3b53 f1bf a8a9 a1bf 4f43 9d3e
00000050: fd8f 0e3e d0a9 0f3f 301f 403e fd03 8fbd
00000060: 2af2 8bbe 22b2 a83f 0f3a 723e 2c83 313f
00000070: 78a9 9bbf b872 81be b83d 03bf 6e90 18bf
00000080: 650f 193f ad1c ec3d f73f 7c3e 0d3a 453e
00000090: 1c95 a03e 0cd8 1ebe ccae 8abd b4fb dc3e
000000a0: 0f01 10be 9bc3 a43d ee40 cd3d 5c8d de3d
000000b0: ec07 ef3d 0db4 6c3e bbfe c7bd 3d88 0740
000000c0: ea5b c93e 4a35 953f 8f1a a5bf e273 d0be
000000d0: 8eec a73d 7a9b 6dbe 758d 1d3e 678d e3bf
000000e0: 09c3 1740 3006 83be 33e7 b0be 41ff 593e
000000f0: 841f 57bf 764a 09bf 2ab8 2cbf 44ee 96bf
00000100: cde3 fd3f 223b dcbe 8198 91be beff 723d
00000110: 5f53 7dbe 39fb 2cbf 9056 bdbe 7445 51be
00000120: 3fd7 febe cbc2 dbbe 6aa8 6c3f a7f7 e0bf
00000130: c8ae 5dbe 0981 76bf 016e 31be ced0 fbbe
00000140: c75d a1be 022e 0dbe 13f6 923d c4ec 5f3e
00000150: 1c18 6f3d 142d cebd edbd 11be 63ec 1a3e
00000160: e399 97bd b82c 4abe 6c61 8a3d dcc8 9dbd
00000170: 5201 08bd 647e 18bd 2d57 b73f 6ece 12bf
00000180: bba1 373e 4319 7cbf 745d c1bf 6d45 013f
00000190: 8d10 7a3d a483 0b3f 5224 d03d fe3a c23e
000001a0: a2cf 21be 3fc1 a23f 8ea2 eebb eb4a 0f3f
000001b0: da6b 873e 8c59 043e 42d4 aabe a887 ac3d
000001c0: 5079 91be 7391 cd3d e6bf 04bf 88df a13f
000001d0: 22c0 683e 1948 663f bcee b03f 5be3 34bf
000001e0: eb40 4f3e 6684 043e 61da 55be 097f 16be
000001f0: 1c98 c3bd 257e 10bf 5336 2cbf 2774 23be
00000200: 2691 3d3e d83b 8ebd 6213 e7bd e2ce 42b6
00000210: 7434 f3bd 6e8a 473e 804e a3bc 2f65 afbc
00000220: 9557 3f3d 25b4 103d 0aa9 1c3e 29c5 403c
00000230: 7290 0d3f 10fa dfbf 7ab5 26bf adf9 fcbf
00000240: e49c b03f c1ec 0040 53f8 6c3f db73 07bf
00000250: c41c 303e c357 82be 2471 89bf bf6a a53f
00000260: 401d 7b3f 5f9c 5a3f 41c1 ecbe 7a3d 59bf
00000270: 0cbb 503f 5129 5bbf 62d4 0b3f 8ffc 793e
00000280: 2546 943f 71aa 76bf 282e 84bf 0443 343f
00000290: 37fc 21bf 94b1 f6be 9132 9dbc fb02 e7bd
000002a0: 1120 07bf 56c7 79bf 9a9e 69bf f701 313e
000002b0: 4915 5a3e 2e12 aa3e 5fae 4fbe 4ec3 5e3d
000002c0: 224f a7be ba14 f03e 87d3 5bbc fec0 52bd
000002d0: a46d c23b 9a8a 9b3e 9f05 80be b0b0 023e
000002e0: 520e 963d d1fb d3bd 5129 63be 92fb 9fbe
000002f0: 3cd0 b53f 367d 183f 44f2 02bf b5d7 cf3f
00000300: b0d8 c0bf 2084 f93e b81b 6bbd 684d ccbd
00000310: 3f47 233f 53ce c5be 6e43 b13e df81 4cbf
00000320: e016 a63e 8db5 543e df2a 683e edc3 54bd
00000330: 17bf 32be 63bb c33f 3091 04bf 052e 333e
00000340: 690f 053e 8b5d 25be e44e 453e 81a5 3140
00000350: f82d 953e a696 f9bc 2c28 c13e 3180 9e3e
00000360: 171d 263f 00f2 b4bf d47b 4f3e c601 f63e
00000370: 5492 fa3d ed36 01be 66c1 c53d a1fc 093d
00000380: fa95 b73d 317a 95bc 99ce bb3c 3380 01be
00000390: de60 a53d febf 6f3d eb10 953d aca8 7dbc
000003a0: a050 95bb 9571 173d 54b8 06bf 0062 bf3e
000003b0: d405 b33c 7a14 3dbe 8058 57bf 4d5e ecbe
000003c0: 0ad8 623e 6747 00bd 5285 8f3d 3525 1b3f
000003d0: c258 383e f55f 333e 346e 4ebf eea2 b93e
000003e0: 1d21 a13e a247 32be 428d 91be 455f 24c0
000003f0: 61d1 e8be 6069 8cbe 9996 123e c2bb e8be

weight_hh_l0 f4 [256, 64]
-0.4584143 0.36868185 1.2169873 -0.64386696 -0.54866487 0.07407508 0.5408732 0.29613787
-0.04562899 -0.47703424 1.356371 0.0033293955 0.32889453 0.40202036 -0.8606082 -0.12805945
0.14161141 0.43089032 -0.7509604 -0.12035886 0.8204576 -0.22304948 0.46128204 -0.94516957
0.087369926 -0.21145667 0.25735423 -0.07121164 0.3360985 -0.38408518 -0.052552205 -0.3194375
0.04113059 0.29582816 -0.018728565 -0.9346374 -0.17440702 -0.43286943 -0.21075112 -0.38225195
-0.23517655 0.40230358 0.3511632 -1.7040521 -0.45594996 0.42546168 -0.29872197 0.31998602
0.21427143 -0.7636047 -0.051305614 0.37658268 0.7530627 0.00079041265 2.0441284 1.1529038
1.1391982 0.07117952 -0.14003754 -1.1065634 -0.17140979 0.08751251 0.4831805 -0.46385372
-0.16380121 -0.5791733 0.17899309 -0.73539895 0.10860752 -0.44941255 -0.69765455 1.2036768
0.088446245 0.64761066 0.8760036 -0.39966497 -0.6642782 0.86727136 1.1248645 0.0028745509
-0.82647014 0.82122576 0.03937406 0.5434877 0.03764808 -0.40770513 -0.4361839 -0.073041886
0.78114384 0.034257002 -0.61433595 0.21198623 0.44706625 0.043226678 0.26101828 -0.52273333
-0.49022958 0.471807 -0.46120983 -0.3646762 -0.15965779 0.6467551 -0.7182093 -0.43055272
-1.6033145 -1.6359966 0.13856047 0.67894083 -0.9003465 0.07673242 -0.070438534 -0.28383145
-0.49371797 0.064520635 0.42797312 -0.33606333 -0.24416412 -0.467897 0.47937086 -0.42234206
-0.84337044 -0.18832453 -0.31316325 0.23036633 -0.11365864 0.28094903 0.17447925 -0.18604784
-0.17935699 -0.70469606 -0.34187064 -0.32037953 0.73560846 0.004608215 0.35821548 -0.02576269
-0.45713234 0.0364998 -0.30189392 -0.053908955 -0.03166501 0.4688678 -1.4937572 -0.37250823
0.8680659 0.1001469 0.13048938 0.089133464 0.19493316 0.1983722 0.43686652 -0.5916154
-0.47720757 0.42384046 0.88000584 -0.21203132 -0.4210725 0.011236013 0.12885202 0.50261056
-0.4617375 0.20790845 0.9054593 0.08088044 0.7785328 0.45854428 0.090903595 -0.22393303
-0.139414 1.7471057 0.17194995 0.036250565 0.4921993 -0.09057456 0.24393216 -0.31492153
0.7683335 0.7784846 -0.9319454 0.48573044 -0.29161537 0.2343716 -0.5282063 -0.5520291
-0.9720231 -0.09301616 -0.12784605 -0.35791492 -0.020041464 -0.16014439 -0.49406403 -0.64792454
0.36774942 -0.32480934 -0.49977034 -0.8423509 0.7602117 -0.048178654 1.036241 0.2675141
0.28084466 0.68450016 0.0063697533 0.26860628 -0.7082801 -0.4459482 -0.9445901 -0.7101959
-0.015928837 0.10628704 -0.081312425 -0.03809022 0.030802857 -0.46180683 -0.6466898 -1.1049349
0.07622477 0.4987532 1.1070969 0.33339247 -0.62790316 -0.2447514 1.1102637 0.49871385
-0.8032557 0.9056583 1.2462796 0.56021166 0.85889006 -0.26510003 0.11416938 0.65420544
-0.56683916 -0.11437595 -0.70144176 1.4622498 -0.3414652 1.19861 0.90312105 -0.73814225
-0.108979754 -0.3048041 -1.1591932 -0.27240673 -0.7442002 0.17025118 -1.7705609 -1.0839847
-0.9496802 0.845674 0.7469617 -0.29406103 -1.0891206 0.20475537 0.24587297 -0.71758676
00000000: 47b5 eabe dec3 bc3e 3dc6 9b3f 77d4 24bf
00000010: 4d75 0cbf adb4 973d ab76 0a3f 629f 973e
00000020: 77e5 3abd d53d f4be 919d ad3f fd31 5a3b
00000030: dd64 a83e 9dd5 cd3e d250 5cbf 0422 03be
00000040: 9502 113e a89d dc3e f13e 40bf b57e f6bd
00000050: 8209 523f 1567 64be 292d ec3e a2f6 71bf
00000060: 01ef b23d 1988 58be efc3 833e 69d7 91bd
00000070: 1a15 ac3e d0a6 c4be fb40 57bd 508d a3be
00000080: 8d78 283d ca76 973e a66c 99bc 6644 6fbf
00000090: c197 32be 10a1 ddbe 24cf 57be 87b6 c3be
000000a0: 1fd2 70be bcfa cd3e aacb b33e 611e dabf
000000b0: 4672 e9be 1dd6 d93e 16f2 98be 35d5 a33e
000000c0: f869 5b3e 997b 43bf d625 52bd 72cf c03e
000000d0: b8c8 403f b233 4f3a 00d3 0240 5a92 933f
000000e0: 3fd1 913f 91c6 913d 0066 0fbe dfa3 8dbf
000000f0: 0c86 2fbe c239 b33d 6f63 f73e 3c7e edbe
00000100: 81bb 27be b444 14bf f749 373e 1b43 3cbf
00000110: 9f6d de3d 6719 e6be 7d99 32bf 1512 9a3f
00000120: 4e23 b53d d0c9 253f c641 603f e3a0 ccbe
00000130: 230e 2abf 7f05 5e3f 8ffb 8f3f f662 3c3b
00000140: 8c93 53bf da3b 523f b246 213d 0322 0b3f
00000150: e034 1a3d babe d0be 7f53 dfbe fc96 95bd
00000160: 0bf9 473f 1251 0c3d 1f45 1dbf eb12 593e
00000170: dee5 e43e 750e 313d 30a4 853e dad1 05bf
00000180: 5fff fabe b090 f13e b223 ecbe d7b6 babe
00000190: 557d 23be be91 253f 91dc 37bf 6871 dcbe
000001a0: 6939 cdbf 5668 d1bf cce2 0d3e 11cf 2d3f
000001b0: 1c7d 66bf e325 9d3d 1442 90bd 5b52 91be
000001c0: 9ac8 fcbe 6523 843d 4b1f db3e 7e10 acbe
000001d0: 2906 7abe 3290 efbe 1970 f53e 383d d8be
000001e0: 20e7 57bf 25d8 40be ef56 a0be 27e5 6b3e
000001f0: dcc5 e8bd 8dd8 8f3e b0aa 323e 5383 3ebe
00000200: 5ca9 37be f666 34bf ab09 afbe c908 a4be
00000210: d650 3c3f 8200 973b 0568 b73e 470c d3bc
00000220: 400d eabe d080 153d d791 9abe a3cf 5cbd
00000230: 2bb3 01bd 710f f03e 7033 bfbf 66b9 bebe
00000240: 9139 5e3f d119 cd3d 029f 053e 9b8b b63d
00000250: 8f9c 473e 1522 4b3e f8ac df3e 1b74 17bf
00000260: 8d54 f4be 9e01 d93e 1048 613f bd1e 59be
00000270: d196 d7be 4117 383c c9f1 033e 16ab 003f
00000280: dc68 ecbe f4e5 543e 2ecc 673f a5a4 a53d
00000290: ed4d 473f 51c6 ea3e aa2b ba3d b34e 65be
000002a0: 8bc2 0ebe 29a1 df3f a613 303e 797b 143d
000002b0: 8c01 fc3e 287f b9bd 5ac9 793e 653d a1be
000002c0: 81b1 443f c44a 473f f993 6ebf a9b1 f83e
000002d0: 9c4e 95be 1cff 6f3e 8738 07bf c751 0dbf
000002e0: 82d6 78bf 427f bebd 13ea 02be a040 b7be
000002f0: ff2d a4bc e4fc 23be f6f5 fcbe 62de 25bf
00000300: a749 bc3e 694d a6be e6e1 ffbe 4fa4 57bf
00000310: 3c9d 423f fb56 45bd 8ca3 843f 9cf7 883e
00000320: dfca 8f3e 673b 2f3f 5db9 d03b c386 893e
00000330: d851 35bf 5353 e4be a8d0 71bf 66cf 35bf
00000340: 317d 82bc 05ad d93d 2187 a6bd 7e04 1cbd
00000350: 4656 fc3c f271 ecbe 768d 25bf 826e 8dbf
00000360: bb1b 9c3d 945c ff3e 5ab5 8d3f 6bb2 aa3e
00000370: 43be 20bf 1ca0 7abe 1f1d 8e3f 6c57 ff3e
00000380: 2aa2 4dbf 39d9 673f 1786 9f3f 086a 0f3f
00000390: 38e0 5b3f 31bb 87be a3d1 e93d 027a 273f
000003a0: 5f1c 11bf f03d eabd b091 33bf 002b bb3f
000003b0: 87d4 aebe 0d6c 993f f132 673f e4f6 3cbf
000003c0: c730 dfbd 480f 9cbe 7160 94bf e578 8bbe
000003d0: e883 3ebf 5356 2e3e bda1 e2bf 03c0 8abf
000003e0: 3e1e 73bf 177e 583f e238 3f3f 2b8f 96be
000003f0: 4e68 8bbf 64ab 513e 20c6 7b3e c4b3 37bf

bias_ih_l0 f4 [256]
-0.106119566 -0.016501315 -0.56750125 -0.61366504 -0.44689795 -0.41419664 -0.42760715 -0.4500532
-0.16225147 -0.6951223 -0.19437777 -0.19415876 0.021257402 -0.5480893 -0.44574207 -0.60295093
-0.06272508 -0.59443754 -0.15302074 -0.46847892 -0.3615287 -0.3455144 -0.22481233 -0.41819876
-0.5646118 -0.29714066 -0.04726288 -0.4200045 -0.50921893 -0.11736 -0.4684614 -0.15899093
-0.3152685 -0.2156056 -0.52847975 -0.51404953 -0.36613438 -0.13590477 -0.2859151 -0.29626685
-0.1704826 -0.40272227 -0.16562118 -0.27744472 -0.039584436 -0.11607972 -0.15511063 0.120088086
0.0203561 -0.40339515 -0.017370917 -0.3532235 -0.338043 0.31494915 -0.20436378 -0.5116558
-0.30796263 -0.28157848 -0.16026549 -0.42504454 0.051562477 -0.07103217 -0.7558427 -0.1337858
-0.5622879 -0.53240407 0.2330119 -0.8765412 0.5773056 -0.29059392 -0.026949666 -0.34364453
0.13089551 -0.6555186 -0.7843695 -0.45328522 -0.46907377 0.15953183 -0.89158773 -0.06053121
-0.932109 0.4334396 -0.15613492 -0.25783822 -0.009005394 0.038820565 -0.5050921 -0.6183252
-0.00861682 0.017038217 -0.6491331 -0.058649015 0.28717744 -0.182676 0.65440995 0.2930777
0.009786469 -0.35002416 0.063787855 0.30581564 -0.42771107 -0.5539821 -0.16044298 -0.28212982
0.0058183563 0.098834455 0.27009687 -0.41804233 -0.0898591 -0.25374165 -0.16573681 0.06944561
-0.13080509 0.07184072 -0.72613156 0.060662244 0.0048898347 -0.20089702 -0.749694 0.12982376
-0.42663792 -0.11461256 -0.27801403 0.27777925 -0.31328171 0.021655481 0.085611396 -0.61856276
-0.34371352 -0.1754889 -0.21183577 0.026207853 -0.18978502 -0.043423932 -0.13135985 -0.046283793
0.04167633 0.19613451 -0.034990784 -0.048441302 -0.34909508 0.23199002 -0.21311471 0.2041522
-0.64817214 -0.17649783 -0.27839932 0.03210691 0.06802148 -0.14922155 -0.14357033 -0.28968874
0.09808968 -0.08368977 -0.015023217 -0.08648053 0.24375364 0.110033154 -0.018079845 -0.0833747
-0.07627712 -0.17373799 -0.24129978 0.06584278 -0.02857481 0.11974923 0.09328972 0.032932587
-0.5788758 0.00014088761 0.4273404 -0.33600348 -0.43348554 0.062014125 0.14958489 -0.33395767
-0.35884964 -0.2112706 0.42394757 0.12093237 -0.07483747 -0.21941686 0.21214749 0.007851788
-0.022316357 0.021157762 -0.118021 -0.01278224 -0.12352301 0.19203925 0.1757556 -0.0807018
-0.29681072 0.3123069 -0.11905373 -0.39415663 -0.31367174 0.7771902 0.43814865 -0.10282472
-0.120402984 -0.579521 -0.2459146 -0.17918697 -0.23759411 -0.27768475 -0.38602647 0.23157142
-0.22535028 -0.39962116 -0.044556692 -0.21228409 -0.46944416 -0.34282374 -0.5021359 -0.18148226
0.17181031 0.16014042 0.22433326 -0.019820508 -0.10751724 -0.5204747 0.0066518574 0.78347147
-0.26268962 -0.29336712 -0.09951272 -0.022749934 -0.41217303 -0.16948025 -0.26681054 -0.30895954
-0.24561721 -0.20527127 -0.5485291 -0.1685142 -0.1364005 -0.5678259 0.39866734 -0.28584245
-0.3647016 -0.16414814 -0.24834199 0.037597805 0.10342542 -0.04733372 -0.32631978 -0.15117538
-0.32152808 0.059324194 -0.22006318 0.19024587 0.07186963 0.46247414 -0.19676606 -0.10385358
00000000: 3755 d9bd c42d 87bc c347 11bf 2719 1dbf
00000010: cfcf e4be 9511 d4be 53ef dabe 5f6d e6be
00000020: 4025 26be 89f3 31bf f70a 47be 8ed1 46be
00000030: 0124 ae3c 954f 0cbf 4e38 e4be fe5a 1abf
00000040: 0276 80bd 0f2d 18bf 78b1 1cbe 78dc efbe
00000050: 4a1a b9be 43e7 b0be 3435 66be 261e d6be
00000060: 668a 10bf d222 98be b996 41bd d40a d7be
00000070: 2c5c 02bf 715a f0bd 2cda efbe 85ce 22be
00000080: df6a a1be b7c7 5cbe 734a 07bf c098 03bf
00000090: f775 bbbe 9f2a 0bbe 7763 92be 4ab0 97be
000000a0: fe92 2ebe 9d31 cebe 9998 29be 3c0d 8ebe
000000b0: 4a23 22bd 34bb edbd 52d5 1ebe bef0 f53d
000000c0: d6c1 a63c cf89 cebe 744d 8ebc b6d9 b4be
000000d0: f913 adbe 0441 a13e bd44 51be e0fb 02bf
000000e0: 47ad 9dbe 0e2b 90be a31c 24be 709f d9be
000000f0: 2d33 533d 5079 91bd e87e 41bf 25ff 08be
00000100: 1af2 0fbf a24b 08bf ac9a 6e3e 0165 60bf
00000110: 4dca 133f bac8 94be 8cc5 dcbc 2df2 afbe
00000120: 7909 063e 11d0 27bf 71cc 48bf 0015 e8be
00000130: 702a f0be 505c 233e 183f 64bf 93ef 77bd
00000140: b29e 6ebf cceb dd3e d5e1 1fbe 5f03 84be
00000150: 5c8b 13bc 5002 1f3d b74d 01bf 8f4a 1ebf
00000160: 902d 0dbc bb93 8b3c 962d 26bf f339 70bd
00000170: ec08 933e 6b0f 3bbe 6987 273f 480e 963e
00000180: 6d57 203c 5e36 b3be 35a3 823d de93 9c3e
00000190: f2fc dabe c5d1 0dbf 2a4b 24be 5273 90be
000001a0: e9a7 be3b b869 ca3d 234a 8a3e a509 d6be
000001b0: 0c08 b8bd 6dea 81be e9b6 29be 8039 8e3d
000001c0: c5f1 05be 3a21 933d c2e3 39bf f978 783d
000001d0: e83a a03b f3b7 4dbe f2eb 3fbf 85f0 043e
000001e0: 4970 dabe fdb9 eabd db57 8ebe 1539 8e3e
000001f0: 7666 a0be d666 b13c 0755 af3d 215a 1ebf
00000200: 38fb afbe 5db3 33be 7aeb 58be dab1 d63c
00000210: 0157 42be 4bdd 31bd 3283 06be 1394 3dbd
00000220: cdb4 2a3d 7cd7 483e 7f52 0fbd 636a 46bd
00000230: 97bc b2be cb8e 6d3e be3a 5abe 460d 513e
00000240: 9cee 25bf d9bb 34be 5b8a 8ebe 8982 033d
00000250: d94e 8b3d 89cd 18be 1a04 13be 1552 94be
00000260: 3ee3 c83d 8b65 abbd f023 76bc b41c b1bd
00000270: 8e9a 793e 1059 e13d 2f1c 94bc 5bc0 aabd
00000280: 2e37 9cbd 5fe8 31be 4a17 77be 94d8 863d
00000290: b815 eabc 163f f53d ae0e bf3d 52e4 063d
000002a0: 3431 14bf 3bbb 1339 5ccc da3e a608 acbe
000002b0: d1f1 ddbe 8602 7e3d c82c 193e 80fc aabe
000002c0: 24bb b7be 5257 58be a80f d93e 64ab f73d
000002d0: 6344 99bd d0ae 60be 313d 593e c9a4 003c
000002e0: cbd0 b6bc 0b53 ad3c feb4 f1bd 9a6c 51bc
000002f0: a2f9 fcbd f0a5 443e 47f9 333e fc46 a5bd
00000300: 93f7 97be b1e6 9f3e 71d2 f3bd e6ce c9be
00000310: 9599 a0be f0f5 463f 0555 e03e c495 d2bd
00000320: d795 f6bd 7d5b 14bf 09d1 7bbe ca7c 37be
00000330: df4b 73be b22c 8ebe 43a5 c5be 0f21 6d3e
00000340: 39c2 66be 259b ccbe 1481 36bd 0061 59be
00000350: fc5a f0be 9886 afbe fa8b 00bf 7cd6 39be
00000360: 0bef 2f3e dafb 233e 9eb7 653e 9e5e a2bc
00000370: 0032 dcbd d43d 05bf d3f7 d93b 9691 483f
00000380: 417f 86be 3734 96be 53cd cbbd 125e babc
00000390: 5808 d3be 3b8c 2dbe 649b 88be f22f 9ebe
000003a0: 1483 7bbe a232 52be 676c 0cbf fd8e 2cbe
000003b0: 93ac 0bbe 0a5d 11bf 201e cc3e f159 92be
000003c0: 2bba babe 7316 28be 5d4d 7ebe 2800 1a3d
000003d0: b5d0 d33d 01e1 41bd 6313 a7be b8cd 1abe
000003e0: 549f a4be edfd 723d 3e58 61be d0cf 423e
000003f0: 6230 933d 69c9 ec3e 0b7d 49be 30b1 d4bd

bias_hh_l0 f4 [256]
-0.16250594 -0.013479602 -0.56102896 -0.6596035 -0.52228326 -0.29778594 -0.34833103 -0.3294477
-0.21537639 -0.74446046 -0.070470795 -0.208214 0.07844996 -0.62756115 -0.3058437 -0.5457359
-0.113700464 -0.46548685 -0.20889154 -0.48759952 -0.27862406 -0.3529681 -0.17085423 -0.3887368
-0.4899193 -0.34660178 -0.11291921 -0.42904714 -0.44502807 -0.035972755 -0.62328225 -0.17805336
-0.426714 -0.01849889 -0.48853898 -0.3695836 -0.42915568 -0.2907903 -0.27333543 -0.40795347
-0.063510455 -0.22334284 -0.35397384 -0.34326267 -0.026848914 -0.24507779 -0.20364882 0.07660093
-0.101939745 -0.33796966 0.1399323 -0.46185383 -0.3717561 0.35244742 -0.15133959 -0.36494538
-0.43803665 -0.37387607 -0.30308542 -0.544855 0.016425434 -0.068685435 -0.659092 -0.1349389
-0.67100906 -0.48578402 0.2842789 -0.9458361 0.7793662 -0.05812958 -0.05721934 -0.5190028
0.258613 -0.5847796 -0.5728189 -0.419139 -0.6722152 -0.061667353 -0.72230583 -0.129993
-1.0318763 0.42123783 -0.1718017 -0.295524 -0.05539483 -0.024658607 -0.41680437 -0.47932082
0.1375323 0.063782685 -0.712028 -0.055376 0.35746056 -0.18580756 0.7023689 0.5245901
-0.034109686 -0.48127228 0.08957715 0.15498339 -0.3111197 -0.57980764 -0.2870963 -0.18668064
0.10244441 0.16550563 0.2597794 -0.28441942 -0.05897013 -0.19070812 -0.1102567 -0.07156144
-0.1258303 -0.06468485 -0.78234506 0.020453446 -0.05807657 -0.18772134 -0.5898967 -0.09497475
-0.3841442 -0.042574894 -0.045045745 0.20707996 -0.30817035 0.032014217 0.12342668 -0.6509863
-0.30195084 0.040707666 -0.2517958 0.0016516974 0.01056769 -0.24360909 -0.062882446 0.07488013
-0.13889875 0.037946593 0.018343404 -0.16422644 -0.1773762 0.116878346 -0.3309374 -0.0005256175
-0.5981582 -0.09271002 -0.18688071 -0.02233001 0.11847045 -0.2120825 0.0068957643 -0.21597426
0.10143619 -0.22472677 -0.20422193 -0.07665421 0.3605755 0.14652999 -0.12688617 -0.17371872
-0.2673621 -0.18835208 -0.27827865 -0.11086287 -0.14962268 0.09648087 0.04897745 -0.0005711488
-0.7044096 0.014327119 0.5402677 -0.34442744 -0.4151084 0.049385566 0.15093571 -0.35159913
-0.2964661 -0.25147328 0.35553944 0.015703706 -0.07502459 -0.042593144 0.07336521 -0.009091302
0.089803286 0.037617207 0.010362209 0.10290931 -0.011007179 -0.01656739 0.09101055 0.085472725
-0.14540498 0.35427442 -0.067834355 -0.38300464 -0.24702753 0.7790281 0.5377193 -0.13392513
-0.15950294 -0.56474775 -0.16455615 -0.15862249 -0.067247614 -0.40741605 -0.28923032 0.12565699
-0.25076616 -0.4032927 0.08902822 -0.013195796 -0.26375479 -0.47295687 -0.54301614 -0.35542214
0.13728446 -0.0026149475 0.11834308 -0.08321779 -0.16383117 -0.519723 -0.04633608 0.7293173
-0.07252168 -0.353971 -0.20349914 0.09206518 -0.40258875 -0.13696812 -0.050534267 -0.32737347
-0.25305864 -0.21476728 -0.75595325 -0.1958172 -0.13279286 -0.43558767 0.52745384 -0.16656992
-0.40036967 -0.24049143 -0.06379313 -0.026000872 0.075682245 0.04850253 -0.3120754 -0.17562348
-0.44705808 -0.020477317 -0.31364164 0.0654071 0.06411187 0.5198175 -0.18302828 -0.07399594
00000000: f567 26be 8cd9 5cbc 989f 0fbf c6db 28bf
00000010: 5bb4 05bf 6677 98be 7258 b2be 5ead a8be
00000020: a18b 5cbe f694 3ebf fe52 90bd 0d36 55be
00000030: 5faa a03d d9a7 20bf 8c97 9cbe 59b5 0bbf
00000040: cadb e8bd 4b54 eebe aae7 55be a5a6 f9be
00000050: d0a7 8ebe 3cb8 b4be 69f4 2ebe 8308 c7be
00000060: b4d6 fabe ca75 b1be 3042 e7bd 11ac dbbe
00000070: b8da e3be 2b58 13bd 6d8f 1fbf 9f53 36be
00000080: 427a dabe fc8a 97bc c821 fabe 103a bdbe
00000090: 4bba dbbe 77e2 94be 9ff2 8bbe 47df d0be
000000a0: c511 82bd fcb3 64be 0f3c b5be 20c0 afbe
000000b0: 41f2 dbbc acf5 7abe 5189 50be f3e0 9c3d
000000c0: c9c5 d0bd 5c0a adbe 6a4a 0f3e 1b78 ecbe
000000d0: d156 bebe fd73 b43e c4f8 1abe 1fda babe
000000e0: 5746 e0be af6c bfbe 032e 9bbe 9e7b 0bbf
000000f0: a28e 863c f3aa 8cbd 41ba 28bf 6c2d 0abe
00000100: 40c7 2bbf afb8 f8be 018d 913e 5122 72bf
00000110: 8b84 473f 4819 6ebd d45e 6abd 5edd 04bf
00000120: ec68 843e 1eb4 15bf 42a4 12bf 6399 d6be
00000130: 4c16 2cbf e896 7cbd 09e9 38bf e31c 05be
00000140: 8614 84bf 7cac d73e c9ec 2fbe ec4e 97be
00000150: b0e5 62bd d900 cabc 6267 d5be 8a69 f5be
00000160: 44d5 0c3e 7fa0 823d 7847 36bf f2d1 62bd
00000170: 1205 b73e 5644 3ebe 73ce 333f 894b 063f
00000180: 99b6 0bbd 5269 f6be 3a74 b73d f7b3 1e3e
00000190: 154b 9fbe 466e 14bf 49fe 92be 3629 3fbe
000001a0: 60ce d13d 4f7a 293e ce01 853e 6c9f 91be
000001b0: aa8a 71bd fd48 43be 44ce e1bd ce8e 92bd
000001c0: a8d9 00be 7e79 84bd c447 48bf fc8d a73c
000001d0: b3e1 6dbd 063a 40be 7803 17bf 1f82 c2bd
000001e0: 8cae c4be 0363 2ebd e381 38bd c50c 543e
000001f0: 81c8 9dbe 5721 033d 21c7 fc3d 0aa7 26bf
00000200: 4d99 9abe 15bd 263d 61eb 80be c57d d83a
00000210: 1b24 2d3c a974 79be 83c8 80bd c15a 993d
00000220: 793b 0ebe e36d 1b3d e844 963c fa2a 28be
00000230: 1ba2 35be ea5d ef3d a070 a9be 98c9 09ba
00000240: e520 19bf c0de bdbd a85d 3fbe 6ded b6bc
00000250: a3a0 f23d 282c 59be ddf5 e13b 5b28 5dbe
00000260: c7bd cf3d c61e 66be 8e1f 51be e2fc 9cbd
00000270: 5a9d b83e f50b 163e 73ee 01be 52e3 31be
00000280: afe3 88be 5edf 40be 8a7a 8ebe 130c e3bd
00000290: b036 19be c397 c53d 949c 483d 26b9 15ba
000002a0: 3054 34bf 4bbc 6a3c fc4e 0a3f cb58 b0be
000002b0: 1789 d4be 8548 4a3d e48e 1a3e cd04 b4be
000002c0: 68ca 97be 1bc1 80be 4409 b63e 0fa5 803c
000002d0: 7ea6 99bd 2676 2ebd 8040 963d aff3 14bc
000002e0: c9ea b73d 8014 1a3d 41c6 293c 1ec2 d23d
000002f0: 7457 34bc 56b8 87bc bd63 ba3d 530c af3d
00000300: 0be5 14be 7563 b53e bdec 8abd 2f19 c4be
00000310: c9f4 7cbe 636e 473f f9a7 093f ab23 09be
00000320: bd54 23be 4f93 10bf 6881 28be ef6d 22be
00000330: 1eb9 89bd d698 d0be ff15 94be 3aac 003e
00000340: 6c64 80be 617c cebe 6d54 b63d 2e33 58bc
00000350: de0a 87be 6727 f2be 1b03 0bbf e4f9 b5be
00000360: 4c94 0c3e 8a5f 2bbb db5d f23d 176e aabd
00000370: 5cc3 27be 910c 05bf e7ca 3dbd 8ab4 3a3f
00000380: 3f86 94bd b03b b5be 1462 50be ab8c bc3d
00000390: 1d20 cebe 5f41 0cbe 05fd 4ebd 7f9d a7be
000003a0: e790 81be f4eb 5bbe 2786 41bf 4e84 48be
000003b0: dafa 07be 5905 dfbe 3707 073f 4e91 2abe
000003c0: 41fd ccbe 6343 76be f9a5 82bd c8ff d4bc
000003d0: 4bff 9a3d 97aa 463d 59c8 9fbe a4d6 33be
000003e0: cce4 e4be 0cc0 a7bc a395 a0be 28f4 853d
000003f0: 164d 833d c212 053f c46b 3bbe 2f8b 97bd
