h1_2_no_DR_policy_lstm.pt (torch, 145745 bytes, 10 tensors)

hidden_state f4 [1, 1, 64]
0	0x00000000	0.0
1	0x00000000	0.0
2	0x00000000	0.0
3	0x00000000	0.0
4	0x00000000	0.0
5	0x00000000	0.0
6	0x00000000	0.0
7	0x00000000	0.0
8	0x00000000	0.0
9	0x00000000	0.0
10	0x00000000	0.0
11	0x00000000	0.0
12	0x00000000	0.0
13	0x00000000	0.0
14	0x00000000	0.0
15	0x00000000	0.0
16	0x00000000	0.0
17	0x00000000	0.0
18	0x00000000	0.0
19	0x00000000	0.0
20	0x00000000	0.0
21	0x00000000	0.0
22	0x00000000	0.0
23	0x00000000	0.0
24	0x00000000	0.0
25	0x00000000	0.0
26	0x00000000	0.0
27	0x00000000	0.0
28	0x00000000	0.0
29	0x00000000	0.0
30	0x00000000	0.0
31	0x00000000	0.0
32	0x00000000	0.0
33	0x00000000	0.0
34	0x00000000	0.0
35	0x00000000	0.0
36	0x00000000	0.0
37	0x00000000	0.0
38	0x00000000	0.0
39	0x00000000	0.0
40	0x00000000	0.0
41	0x00000000	0.0
42	0x00000000	0.0
43	0x00000000	0.0
44	0x00000000	0.0
45	0x00000000	0.0
46	0x00000000	0.0
47	0x00000000	0.0
48	0x00000000	0.0
49	0x00000000	0.0
50	0x00000000	0.0
51	0x00000000	0.0
52	0x00000000	0.0
53	0x00000000	0.0
54	0x00000000	0.0
55	0x00000000	0.0
56	0x00000000	0.0
57	0x00000000	0.0
58	0x00000000	0.0
59	0x00000000	0.0
60	0x00000000	0.0
61	0x00000000	0.0
62	0x00000000	0.0
63	0x00000000	0.0

cell_state f4 [1, 1, 64]
0	0x00000000	0.0
1	0x00000000	0.0
2	0x00000000	0.0
3	0x00000000	0.0
4	0x00000000	0.0
5	0x00000000	0.0
6	0x00000000	0.0
7	0x00000000	0.0
8	0x00000000	0.0
9	0x00000000	0.0
10	0x00000000	0.0
11	0x00000000	0.0
12	0x00000000	0.0
13	0x00000000	0.0
14	0x00000000	0.0
15	0x00000000	0.0
16	0x00000000	0.0
17	0x00000000	0.0
18	0x00000000	0.0
19	0x00000000	0.0
20	0x00000000	0.0
21	0x00000000	0.0
22	0x00000000	0.0
23	0x00000000	0.0
24	0x00000000	0.0
25	0x00000000	0.0
26	0x00000000	0.0
27	0x00000000	0.0
28	0x00000000	0.0
29	0x00000000	0.0
30	0x00000000	0.0
31	0x00000000	0.0
32	0x00000000	0.0
33	0x00000000	0.0
34	0x00000000	0.0
35	0x00000000	0.0
36	0x00000000	0.0
37	0x00000000	0.0
38	0x00000000	0.0
39	0x00000000	0.0
40	0x00000000	0.0
41	0x00000000	0.0
42	0x00000000	0.0
43	0x00000000	0.0
44	0x00000000	0.0
45	0x00000000	0.0
46	0x00000000	0.0
47	0x00000000	0.0
48	0x00000000	0.0
49	0x00000000	0.0
50	0x00000000	0.0
51	0x00000000	0.0
52	0x00000000	0.0
53	0x00000000	0.0
54	0x00000000	0.0
55	0x00000000	0.0
56	0x00000000	0.0
57	0x00000000	0.0
58	0x00000000	0.0
59	0x00000000	0.0
60	0x00000000	0.0
61	0x00000000	0.0
62	0x00000000	0.0
63	0x00000000	0.0

weight f4 [32, 64]
0	0x3f2bd1e6	0.67117155
1	0x3e56abde	0.20964
2	0x3e8d9c1c	0.27658165
3	0x3ecb1835	0.39666906
4	0x3e39dfc6	0.18151769
5	0x3e1c2c7c	0.15251344
6	0xbd40212e	-0.046906643
7	0x3f0ab63b	0.5418431
8	0x3f07e38f	0.530816
9	0xbf0d40b0	-0.5517683
10	0x3e710a22	0.23539022
11	0x3e333682	0.17501262
12	0x3eaf283c	0.34210384
13	0x3eb6f7d9	0.35735968
14	0xbe387e4f	-0.18016933
15	0xbd957946	-0.07298522
16	0x3eef916b	0.46790633
17	0xbd404c71	-0.0469479
18	0xbea070d9	-0.31336096
19	0xbe110387	-0.14161502
20	0x3e32f103	0.17474751
21	0xbd80fa83	-0.06297781
22	0x3a852fcb	0.0010161338
23	0xbe72de1b	-0.23717539
24	0x3eb90d4d	0.3614296
25	0xbe551c3b	-0.2081155
26	0x3ed310dc	0.412238
27	0x3e7a8621	0.24465229
28	0xbe1c97ac	-0.15292233
29	0x3e05d1cb	0.13068311
30	0x3ea7e40f	0.32791182
31	0x3e6e0c65	0.23246916
32	0xbde0e8b7	-0.10981887
33	0xbe8fbfaf	-0.2807593
34	0xbf054653	-0.5206043
35	0xbeec6fc7	-0.4617903
36	0x3ec2c469	0.38040474
37	0xbf0b023f	-0.543003
38	0x3d44c491	0.048039023
39	0xbcb58da5	-0.022162268
40	0x3e4c231f	0.19935273
41	0x3dcddbc9	0.10051686
42	0xbf12c42e	-0.57330596
43	0xbdb0515d	-0.08609269
44	0xbdd0f92f	-0.10203778
45	0x3e861186	0.26185244
46	0x3e558e47	0.20855056
47	0x3f57e675	0.84336025
48	0xbb137358	-0.002249917
49	0x3e538270	0.20655227
50	0x3ea54572	0.32279545
51	0xbef2bdae	-0.4741034
52	0x3ec06f35	0.37584844
53	0x3e9f80a0	0.3115282
54	0x3eb13352	0.34609467
55	0x3deb6a26	0.114948556
56	0x3f183905	0.59462005
57	0xbdae8cc5	-0.085229434
58	0x3e8de2cb	0.27712092
59	0x3e7ffd75	0.2499903
60	0xbdbcc7b4	-0.09217778
61	0x3eedfc5b	0.46481594
62	0x3db9e6a8	0.09077197
63	0xbe0e5344	-0.13898951
64	0xbf1aa22d	-0.6040371
65	0xbddb40ae	-0.10705696
66	0xbedb1316	-0.42788
67	0xbc80bbfb	-0.015714636
68	0xbe61cffd	-0.22051997
69	0xbd0cc5f6	-0.034368478
70	0x3f00f52f	0.5037412
71	0xbf1f9c7b	-0.62348145
72	0x3e9e9d23	0.3097926
73	0x3f1f92e5	0.6233352
74	0x3e020fc6	0.1270133
75	0xbe98a950	-0.29816675
76	0xbe380527	-0.17970715
77	0x3e4d15f5	0.20027907
78	0x3b81ce96	0.0039613945
79	0xbe1eade2	-0.15496019
80	0xbda3395a	-0.07969923
81	0xbe06f533	-0.13179474
82	0xbeaaf569	-0.33390358
83	0xbd36021c	-0.044435605
84	0xbe891da5	-0.2678043
85	0x3cafba26	0.021451067
86	0xbee2b2a8	-0.4427693
87	0xbe50b503	-0.2038155
88	0xbe7d4b1e	-0.24735686
89	0x3c9ba8a3	0.01900131
90	0xbe578eb4	-0.2105053
91	0x3d9d84c8	0.07691342
92	0x3ece504b	0.40295634
93	0x3e498292	0.19678715
94	0x3db10dae	0.08645187
95	0xbea9fd4c	-0.33201063
96	0x3ea96f28	0.33092618
97	0xbf0b972d	-0.5452755
98	0x3edc841b	0.43069538
99	0xbf0f67df	-0.5601787
100	0x3ee3253f	0.44364354
101	0x3ecb3050	0.39685297
102	0x3e9307f6	0.2871701
103	0xbc644f9f	-0.013934999
104	0xbdbece70	-0.093167186
105	0xbee7ab71	-0.45247987
106	0x3f27c4a9	0.65534455
107	0xbd620812	-0.055183478
108	0x3e5b424c	0.21412009
109	0x3e7f8247	0.2495204
110	0x3d7837bc	0.060600027
111	0x3eaf5905	0.34247604
112	0x3efe0eb4	0.49620593
113	0xbec177c1	-0.37786677
114	0xbe41a0b9	-0.18908967
115	0xbde61b6c	-0.11235699
116	0xbea96833	-0.3308731
117	0x3f318ede	0.69358623
118	0x3d24677d	0.040137757
119	0x3dee033d	0.116217114
120	0xbe4beb4b	-0.19913976
121	0x3c8ae89c	0.01695662
122	0xbd20eca6	-0.039288186
123	0x3d3ebb5f	0.04656541
124	0x3e53ba20	0.2067647
125	0xbf01e02e	-0.50732696
126	0xbe1d1b7d	-0.15342517
127	0xbe5ce376	-0.21571144
128	0x3f369f5e	0.71336925
129	0xbdeff69d	-0.117169596
130	0xbe86e83c	-0.26349056
131	0x3f444e46	0.76681936
132	0x3f4f8dba	0.8107563
133	0x3e15cc7d	0.14628787
134	0x3f35a44b	0.70953816
135	0xbe055462	-0.1302047
136	0x3ecea16c	0.4035753
137	0x3e32a0f1	0.17444207
138	0x3dc60aa0	0.09669995
139	0xbf284bb7	-0.6574053
140	0xbe070fd2	-0.13189629
141	0xbef0948f	-0.4698834
142	0x3cbd0de5	0.023077914
143	0xbddadac3	-0.10686257
144	0x3f3bcc97	0.73359054
145	0x3cacba4f	0.021084933
146	0x3e2f40b0	0.1711452
147	0xbed70a8d	-0.42000237
148	0x3e0f3fd1	0.13989188
149	0x3e2c4cb2	0.16826132
150	0xbe1d2477	-0.15345941
151	0xbd334c83	-0.04377414
152	0xbef5ca1f	-0.4800577
153	0xbf62f7fb	-0.8865964
154	0xbe9257f9	-0.28582743
155	0xbe2a1258	-0.1660856
156	0x3e7704b6	0.24122891
157	0xbe2c0c0b	-0.16801469
158	0xbf316642	-0.6929666
159	0xbe65b45f	-0.22432087
160	0xbe51514f	-0.20441173
161	0xbd13bd40	-0.036069155
162	0x3edc2541	0.42997172
163	0xbf16492f	-0.5870542
164	0x3da13b0e	0.07872592
165	0x3f86cccb	1.0531248
166	0x3d512646	0.05106189
167	0xbe969cc7	-0.29416487
168	0xbf04f548	-0.5193677
169	0xbe685612	-0.22689083
170	0xbf843975	-1.0330034
171	0xbe8e05ac	-0.27738702
172	0x3f1b2116	0.6059736
173	0xbcf0aa3e	-0.029378053
174	0x3e513f44	0.2043429
175	0x3e8e7dd8	0.27830386
176	0xbeac2d58	-0.33628345
177	0x3d8705df	0.06592917
178	0x3e811afc	0.252159
179	0xbe92cc7f	-0.28671643
180	0xbdc22d08	-0.09481245
181	0x3f0ebc92	0.55756485
182	0x3d8b8989	0.06813342
183	0xbe8f7044	-0.2801534
184	0x3ed757ed	0.4205927
185	0x3ed57a25	0.4169475
186	0xbc44ce3e	-0.012012063
187	0xbe005b56	-0.12534842
188	0xbdb01904	-0.08598521
189	0xbdc030af	-0.09384286
190	0xbe20288f	-0.15640472
191	0xbd81ffc1	-0.06347609
192	0x3ecbe83d	0.3982562
193	0x3d487191	0.04893643
194	0x3f268bbe	0.6505698
195	0xbde00d5d	-0.10940049
196	0x3f28c645	0.65927535
197	0x3ea95df7	0.33079502
198	0x3e202507	0.15639125
199	0x3ebe3423	0.37149152
200	0xbe2a4d9e	-0.16631171
201	0x3ea7c574	0.32767832
202	0x3ef71c19	0.48263624
203	0x3e090272	0.13379839
204	0x3caf5b5a	0.021405865
205	0xbea7ec34	-0.32797396
206	0x3f3633fe	0.71173084
207	0xbea00f7d	-0.31261817
208	0xbe3852ac	-0.18000287
209	0xbf068449	-0.525456
210	0x3dc8916d	0.09793363
211	0x3f00c5cd	0.5030182
212	0xbe7e79e1	-0.2485118
213	0x3de88375	0.113531984
214	0xbe8a2e52	-0.26988465
215	0x3e6ec419	0.23316993
216	0x3e567714	0.20943862
217	0x3e50fcb7	0.20408903
218	0x3d3eed66	0.04661312
219	0xbf1c3d5f	-0.61031145
220	0x3db2249d	0.0869839
221	0x3ee52ded	0.447616
222	0xbec737f9	-0.3890989
223	0xbe90a8a9	-0.28253677
224	0x3f1d9fca	0.61571944
225	0x3e23d11c	0.15997738
226	0xbe42e591	-0.19032885
227	0x3f145a04	0.5794985
228	0x3d9145f6	0.07093422
229	0x3ea908cf	0.33014533
230	0xbf4c20de	-0.7973765
231	0xbf29777b	-0.6619794
232	0xbf02ff10	-0.51170444
233	0xbe2500d4	-0.16113597
234	0xbef03a15	-0.46919313
235	0xbe0810dd	-0.13287683
236	0x3e2ad9ee	0.16684696
237	0x3ebacfa9	0.36486557
238	0x3ef68779	0.48150232
239	0x3caff682	0.021479849
240	0x3d0880e1	0.033326034
241	0xbe7c3393	-0.24629049
242	0x3d5c0a55	0.05372079
243	0xbe4979f0	-0.19675422
244	0xbe6909d2	-0.22757652
245	0xbed2f142	-0.4119969
246	0x3eebd839	0.46063402
247	0x3eb8113d	0.35950652
248	0x3e06a193	0.13147573
249	0x3f39c38f	0.72564024
250	0x3da70038	0.081543386
251	0xbd529b62	-0.051417716
252	0x3ec5ad8a	0.38608962
253	0xbeccbcbe	-0.3998775
254	0x3db5b4d6	0.08872382
255	0x3f10a6cc	0.5650451

bias f4 [32]
0	0xbe28da46	-0.16489515
1	0x3d509a4a	0.05092839
2	0x3e14a6b3	0.14516716
3	0x3c660afa	0.014040703
4	0x3bbb7016	0.005720149
5	0xbe1bbfa3	-0.15209822
6	0x3e13c284	0.1442967
7	0x3b1f241a	0.0024282993
8	0xbdf40a1b	-0.1191599
9	0x3d8f7d65	0.07006339
10	0x3d872a3b	0.06599852
11	0xbdb64606	-0.08900075
12	0xbdc2ab3d	-0.09505317
13	0xbc899545	-0.01679481
14	0xbdbfe67c	-0.09370133
15	0x3d0f01b0	0.03491372
16	0xbe4a6327	-0.19764386
17	0xbe2d0eb5	-0.16900142
18	0x3cade288	0.021226183
19	0x3df94633	0.121715926
20	0xbe0aa550	-0.13539624
21	0xbe174a80	-0.14774513
22	0x3dc6eef7	0.09713548
23	0x3ccc8f2a	0.02497061
24	0xbe4c387c	-0.19943422
25	0xbc0586e9	-0.008149841
26	0xbe9e231f	-0.3088617
27	0x3e37f5f1	0.17964913
28	0xbcf389f2	-0.029728863
29	0x3e2c9373	0.16853122
30	0xbe129817	-0.1431583
31	0xbd3a7b14	-0.045527533

weight f4 [12, 32]
0	0xbc78bfae	-0.015182419
1	0x3d62af3c	0.055342898
2	0xbd2d40d3	-0.04229815
3	0x3e32ddd9	0.1746744
4	0xbdcd3318	-0.10019511
5	0xbccd2573	-0.025042271
6	0x3da35af9	0.07976336
7	0xbe174d3f	-0.14775561
8	0x3d80d250	0.06290114
9	0xbe1d7cd8	-0.15379655
10	0xbe03353b	-0.12813275
11	0xbdf8e9de	-0.121539816
12	0xbe2a3f1b	-0.16625635
13	0x3eb0affa	0.3450926
14	0x3cfefa1b	0.031125119
15	0xbe3b128b	-0.18268792
16	0x3e9e77fe	0.30950922
17	0x3e49d9e0	0.19712019
18	0xbdbc3e04	-0.09191516
19	0xbd78d5da	-0.06075082
20	0xbd19e8e0	-0.037575603
21	0xbdd37c0b	-0.10326394
22	0x3d110f99	0.035415266
23	0x3bc1cb0d	0.005914098
24	0x3d09c638	0.0336363
25	0x3e01ffb0	0.12695193
26	0x3e05dc12	0.13072231
27	0xbd3eaa17	-0.04654893
28	0x3d0d8019	0.03454599
29	0x3ce30136	0.027710538
30	0xbcafd19e	-0.021462258
31	0xbe1f1ccd	-0.1553833
32	0x3c22226c	0.009895902
33	0xbe5af963	-0.21384196
34	0xbded81f8	-0.11597055
35	0xbef9bc2c	-0.48776376
36	0x3e39d701	0.18148424
37	0xbcdad294	-0.02671174
38	0x3e65af9c	0.22430271
39	0xbefca2f1	-0.49343064
40	0x3ddee343	0.108831905
41	0x3da83cf5	0.08214752
42	0x3e9a9314	0.30190337
43	0x3e507a81	0.20359232
44	0x3d87825b	0.0661666
45	0x3d70c844	0.05878474
46	0x3e28b91f	0.16476868
47	0xbeb97334	-0.36220706
48	0xbe41b296	-0.18915781
49	0x3d8e5979	0.06950659
50	0xbe849d40	-0.25901222
51	0xbea03ad2	-0.31294876
52	0xbdb25f3b	-0.0870957
53	0xbe1dc55a	-0.15407315
54	0xbd6f22a0	-0.05838263
55	0x3d739d67	0.059476282
56	0x3d952558	0.072825134
57	0xbf1ad720	-0.60484505
58	0x3dd818af	0.10551583
59	0xbe67ae1a	-0.22625008
60	0xbb7c9e07	-0.003854634
61	0xbac35748	-0.0014903331
62	0x3eb4425b	0.35206875
63	0xbe170aac	-0.14750165
64	0xbedcc091	-0.43115667
65	0x3dfddf7d	0.12396143
66	0x3dbb613e	0.09149407
67	0x3f1fb605	0.62387115
68	0x3d9a7b00	0.07542992
69	0x3ee310b7	0.4434869
70	0x3f135918	0.5755782
71	0xbe7581d9	-0.23975314
72	0xbdf4a6fb	-0.119459115
73	0x3e74d85f	0.23910664
74	0x3e9f2ac2	0.3108731
75	0x3e383a4c	0.17990988
76	0xbe2187a4	-0.15774399
77	0x3e46be98	0.19408643
78	0x3e503048	0.20330918
79	0xbe94b69a	-0.29045564
80	0xbf050c8a	-0.5197226
81	0xbdc567f3	-0.09638967
82	0x3d93cdcc	0.07216987
83	0x3dd2cb08	0.102926314
84	0xbe99d181	-0.3004265
85	0xbdb8f037	-0.09030192
86	0x3dd851a1	0.105624445
87	0x3e8f093f	0.27936742
88	0xbf1d3ab6	-0.6141771
89	0x3cac5647	0.021037234
90	0xbe3f3114	-0.18671066
91	0x3e205670	0.15657973
92	0x3eb2288e	0.34796566
93	0xbea1435c	-0.31496704
94	0xbe80c6da	-0.25151712
95	0x3d15e2d4	0.036593273
96	0x3c2b252d	0.010445875
97	0x3e0fb75e	0.14034793
98	0x3d1c547b	0.038166504
99	0x3d186e44	0.037214532
100	0xbdae244d	-0.085030176
101	0xbe12620d	-0.14295216
102	0x3db960c8	0.09051663
103	0x3eb9c4ff	0.3628311
104	0xbd9482fd	-0.072515465
105	0xbe02f1ec	-0.12787598
106	0x3d05eca3	0.032696377
107	0xbe2c15ea	-0.16805235
108	0x3c8be286	0.017075788
109	0xbebd3723	-0.36956128
110	0x3c964e8b	0.018348
111	0xbcf4b1ba	-0.029869903
112	0xbd89d673	-0.06730356
113	0xbd9217c8	-0.07133442
114	0xbecb36b0	-0.3969016
115	0xbec09ef9	-0.37621287
116	0x3da7f117	0.08200281
117	0x3ece0471	0.40237764
118	0x3ef9a241	0.48756602
119	0x3daac859	0.083389945
120	0x3e498156	0.19678244
121	0xbe4babba	-0.19889727
122	0x3e22ef0d	0.15911503
123	0xbc2b47c6	-0.010454124
124	0x3e6b7892	0.22995213
125	0x3c60701c	0.013698604
126	0xbec12515	-0.37723604
127	0xbe0c8d92	-0.1372588
128	0x3ee33565	0.44376674
129	0x3e66c804	0.22537237
130	0xbd501dad	-0.05080955
131	0xbdad56a5	-0.08463792
132	0x3f484942	0.7823678
133	0x3e880228	0.26564145
134	0xbd37453f	-0.044743773
135	0xbd979582	-0.07401563
136	0x3f6131dd	0.8796671
137	0x3d9b1d73	0.07573976
138	0xbf9126f3	-1.1340011
139	0x3f96b8ed	1.1775185
140	0xbf19adea	-0.60030997
141	0xbf2c2599	-0.6724487
142	0x3f40dfcb	0.7534148
143	0x3e1ef3a2	0.15522626
144	0xbe38f0e3	-0.18060641
145	0xbd373659	-0.044729564
146	0xbf50a052	-0.8149463
147	0xbe361a84	-0.17783552
148	0x3dc60536	0.09668963
149	0xbf4380de	-0.7636851
150	0x3eda1195	0.4259154
151	0xbc9ddf9e	-0.019271668
152	0xbd414d10	-0.047192633
153	0x3f1612f8	0.58622694
154	0xbdb0686b	-0.08613666
155	0xbe28b846	-0.16476545
156	0x3ede6bfb	0.43441758
157	0xbd841ae7	-0.06450444
158	0xbd8956d0	-0.06706011
159	0x3e83342a	0.25625736
160	0x3f0c7a99	0.5487457
161	0xbd7a7c2d	-0.06115358
162	0x3e88f183	0.2674676
163	0x3e53f709	0.20699705
164	0x3e8c64b5	0.27420583
165	0xbed1a2ba	-0.40944463
166	0x3f34d1df	0.7063274
167	0x3e8175a0	0.25285053
168	0xbf985bcd	-1.1903015
169	0x3b90e60e	0.004421956
170	0xbd88800f	-0.0666505
171	0x3ecfb91a	0.4057091
172	0x3f1b1c6d	0.6059025
173	0x3e8c2f90	0.27380037
174	0x3f131086	0.5744709
175	0x3ea7cf10	0.32775164
176	0xbeb8b8ef	-0.36078593
177	0x3d8b023d	0.06787536
178	0x3e1a8a1e	0.1509175
179	0xbeb3b2df	-0.35097405
180	0xbf22e3e1	-0.63628966
181	0xbe56829e	-0.20948264
182	0xbe92c6c0	-0.2866726
183	0xbe013c81	-0.12620737
184	0x3d82aaf1	0.06380261
185	0x3f0a5cf3	0.5404808
186	0x3ea5bbf3	0.32369956
187	0xbe304947	-0.17215453
188	0xbe1088c7	-0.14114676
189	0xbe4a04fb	-0.19728462
190	0xbb0ec0a0	-0.0021782294
191	0xbeda4696	-0.42631978
192	0x3d9767b9	0.073928304
193	0x3d278fa2	0.040908463
194	0x3d46a517	0.048497286
195	0xbd719b9f	-0.058986302
196	0xbce8e708	-0.028430477
197	0xbbc6104c	-0.006044423
198	0xbd5399c8	-0.05166033
199	0xbe5deff2	-0.21673563
200	0x3cd146ce	0.025546458
201	0x3d31ebc5	0.043437738
202	0x3d0dcd86	0.03461983
203	0x3d8107e1	0.06300331
204	0x3cc3596e	0.023846354
205	0xbe15bee6	-0.14623603
206	0xbddb4b42	-0.10707714
207	0x3e2e350b	0.17012422
208	0x3d14f378	0.036365002
209	0xbeec1c47	-0.46115324
210	0x3d16358f	0.03667217
211	0x3e0af729	0.13570847
212	0x3cf177bc	0.02947604
213	0x3e65f1e4	0.22455555
214	0xbd90283c	-0.07038924
215	0xbd7bd854	-0.061485603
216	0xbd06e812	-0.032936163
217	0x3dacfdb3	0.08446827
218	0x3da68266	0.0813034
219	0xbe071bba	-0.1319417
220	0x3e6a4210	0.22876763
221	0xbd9c27cf	-0.076247804
222	0x3e1afbf7	0.1513518
223	0xbd0129e6	-0.031534098
224	0xbe7392b0	-0.23786426
225	0x3e0ae887	0.13565265
226	0x3e477827	0.19479428
227	0xbc2083c3	-0.009797039
228	0xbe9a0048	-0.3007834
229	0xbdb825c4	-0.08991578
230	0xbe03d1c2	-0.12872985
231	0x3d9b7e5a	0.07592459
232	0xbf0656f1	-0.5247641
233	0xbd6406b7	-0.055670466
234	0x3df88e48	0.12136513
235	0x3e67036e	0.22559902
236	0xbea9b132	-0.33143002
237	0x3e63f59a	0.22261658
238	0x3e323f84	0.17407042
239	0x3e291071	0.16510178
240	0x3e030c44	0.12797648
241	0x38a36fbc	7.793258e-05
242	0xbe8a4fed	-0.27014104
243	0x3ec1e73c	0.3787173
244	0x3d21b4b0	0.039478958
245	0xbe6eff2a	-0.23339525
246	0xbdd6f1d6	-0.10495345
247	0xbe9e554f	-0.3092446
248	0xbdc06524	-0.09394291
249	0xbeb07898	-0.34467006
250	0xbe94759f	-0.28995988
251	0xbef043ab	-0.46926627
252	0x3e76500d	0.24053974
253	0x3db49038	0.0881657
254	0xbdf356c9	-0.11881787
255	0x3eea2562	0.45731646

bias f4 [12]
0	0x3c88caf6	0.016698342
1	0xbe1e6c2c	-0.15470952
2	0x3e9308b3	0.28717574
3	0x3df9c67b	0.1219606
4	0xbc2991c1	-0.010349692
5	0x3e81a1e2	0.2531882
6	0xbd3522fb	-0.044222813
7	0xbe906f70	-0.2821002
8	0xbec03b0c	-0.3754505
9	0x3b655f36	0.0034999377
10	0x3cba32e2	0.022729341
11	0xbde9eb05	-0.114217795

weight_ih_l0 f4 [256, 47]
0	0xbe374cf3	-0.17900448
1	0xbe56b488	-0.20967305
2	0x3f4c1f6f	0.79735464
3	0xbf7ba7a4	-0.98302674
4	0xc0020df3	-2.0321014
5	0x3e29daa9	0.16587318
6	0xbecf2f62	-0.40465838
7	0x3e005e36	0.12535939
8	0xbebad2e5	-0.36489025
9	0xbf029357	-0.5100607
10	0x3f385e57	0.7201895
11	0x3e906859	0.2820461
12	0xbf0c3888	-0.5477376
13	0x3f3d3399	0.73906857
14	0x3edeb663	0.43498525
15	0x3f6c9dc4	0.9242823
16	0xbfb1c621	-1.3888589
17	0x3f7f8eaa	0.99827063
18	0x3e4e56d6	0.20150313
19	0x3f2cee16	0.6755079
20	0x3ea1636f	0.31521174
21	0x3b3dfc8a	0.0028989636
22	0xbe8209dd	-0.2539815
23	0x3f8fef5b	1.124492
24	0x3d91438b	0.07092961
25	0xbdbebfa8	-0.09313899
26	0xbed9a1f2	-0.42506367
27	0xbfa24ecb	-1.2680296
28	0x3f0ddebf	0.5541801
29	0x40003a07	2.0035417
30	0x3f81c108	1.0137033
31	0xbfaf012b	-1.3672231
32	0x3e7274b2	0.23677328
33	0xbe4828ef	-0.19546865
34	0x3c722942	0.014780344
35	0x3e591794	0.212004
36	0x3dc752d6	0.097325966
37	0x3cfabfee	0.030609097
38	0x3d974bfe	0.07387541
39	0xbe0375fc	-0.12837976
40	0x3dbafb3d	0.09129951
41	0x3cd355eb	0.025797805
42	0xbe3baa73	-0.1832674
43	0x3dca9e70	0.09893501
44	0xbc5b43e1	-0.013382883
45	0x3d106916	0.035256468
46	0x3c468072	0.012115585
47	0x3e4fe810	0.20303369
48	0xbe6bdddb	-0.2303385
49	0x3dd4d48e	0.10392104
50	0xbf65e1c6	-0.8979763
51	0x3fa27ad1	1.269373
52	0x3ed5abda	0.41732675
53	0xbd852f1c	-0.06503126
54	0xbdf67adc	-0.12035152
55	0x3e7ad169	0.24493946
56	0x3efce1dd	0.4939107
57	0x3e6c6964	0.23087078
58	0xbceba958	-0.028767273
59	0xbec0d44c	-0.3766197
60	0x3bc9a1b9	0.006153312
61	0xbe1498e4	-0.14511448
62	0xbf0effd8	-0.55859137
63	0xbf7919b0	-0.9730482
64	0x3f198e99	0.5998321
65	0x3ed6968f	0.41911742
66	0xbeee22a1	-0.46510795
67	0xbed52957	-0.41633102
68	0xbef4e376	-0.4782979
69	0xbea20cf8	-0.3165052
70	0x4021ef60	2.5302353
71	0xbf7c8547	-0.98640865
72	0x3d2d8acf	0.042368706
73	0x3ead906f	0.33899257
74	0x39c62d57	0.00037799284
75	0xbf1b3b7d	-0.60637647
76	0xbf8b7306	-1.0894477
77	0xbf240b8f	-0.64080137
78	0xbed645e9	-0.41850212
79	0x3d3d0d06	0.046155
80	0x3d8c746c	0.06858143
81	0xbb6fa34b	-0.0036565836
82	0x3ca8ba6f	0.020596711
83	0xbdde2224	-0.108463556
84	0x3b8b6f00	0.0042551756
85	0xbca083f0	-0.019594163
86	0x3e115f76	0.14196572
87	0x3dd119db	0.1021001
88	0x3df6b0cb	0.12045439
89	0xbdcaa1f6	-0.09894173
90	0x3db24dad	0.08706222
91	0xbd0bc924	-0.03412737
92	0xbcaf9a7f	-0.021435974
93	0xbd8476df	-0.06467985
94	0x3fbac098	1.4590025
95	0xbf6735a2	-0.9031621
96	0x3f0edc09	0.55804497
97	0xc00fa7f8	-2.244627
98	0xbf75000c	-0.95703197
99	0x3e7380bd	0.23779579
100	0xbcab466e	-0.020907607
101	0xbe9eebca	-0.31039268
102	0x3d221e15	0.03957947
103	0x3d7f1aa5	0.06228127
104	0xbca6fe5c	-0.02038496
105	0x3e237f07	0.15966426
106	0xbf8c9e1c	-1.0985751
107	0x3f0f5f84	0.5600512
108	0xbf55559e	-0.83333766
109	0xbebcf34b	-0.36904368
110	0x3e565b2f	0.20933221
111	0x3eb33cf4	0.3500744
112	0xbe275d95	-0.16344292
113	0x3e174c05	0.14775093
114	0xbf3ec0a7	-0.74512714
115	0x3e05f0a9	0.13080086
116	0xbf91a679	-1.1378928
117	0x3f0e6c27	0.5563378
118	0xbd1eda25	-0.038782258
119	0xbebd7266	-0.37001342
120	0xbde18b25	-0.11012868
121	0x3eed7d59	0.46384695
122	0xc00b631f	-2.1779249
123	0x3f1d0fac	0.6135204
124	0xbe979177	-0.29603168
125	0xbed6ea4c	-0.4197563
126	0xbe4b49bf	-0.1985235
127	0xbe4ceec6	-0.2001296
128	0xbe99c71f	-0.3003473
129	0xbe5c655c	-0.2152304
130	0x3ea75b61	0.32686904
131	0xbd3f5d68	-0.04671994
132	0x3d22697b	0.039651375
133	0x3f143565	0.57893974
134	0xbe98b1a7	-0.29823038
135	0xbd33b9d7	-0.043878403
136	0x3e47d410	0.19514489
137	0x3e005f07	0.1253625
138	0x3dd83908	0.10557753
139	0x3e9dd72d	0.3082823
140	0xbfc2a8d1	-1.5207769
141	0x3f86ef9a	1.054187
142	0x3f0f0572	0.55867684
143	0x3f201c35	0.6254304
144	0x4015c342	2.3400426
145	0xbfff6476	-1.9952533
146	0x3e9efcbc	0.31052196
147	0x3e93ac3a	0.28842336
148	0xbdd5cb36	-0.1043915
149	0xbf073d65	-0.52828056
150	0x3fb9a335	1.4502932
151	0xbded7dca	-0.11596258
152	0xbea10d1a	-0.31455308
153	0xbe80791a	-0.25092393
154	0xba374b98	-0.00069921603
155	0xbc88196e	-0.016613688
156	0x3cd66e5a	0.026175667
157	0x3f3d82ef	0.74027914
158	0x3ded3ee0	0.11584258
159	0x3efd5bfb	0.49484238
160	0xbe8a6a0a	-0.27034026
161	0x3ea7fe51	0.32811216
162	0xbf4efa64	-0.80850816
163	0xbff88923	-1.9416851
164	0x3f4d3ef7	0.801742
165	0xbab27fa5	-0.0013618363
166	0x3f48fcfb	0.7851102
167	0xbd0d3717	-0.034476366
168	0x3f5bffbc	0.85937095
169	0x4079902c	3.8994246
170	0x3f39ae91	0.7253199
171	0x3ff392b4	1.9029145
172	0x3d24a92a	0.04020039
173	0x3d3e80d7	0.04650959
174	0xbcc7bec1	-0.02438295
175	0xbd75cf29	-0.060012016
176	0x3d87a8d1	0.06623996
177	0xbd0ca56d	-0.03433745
178	0x3d64fc41	0.05590463
179	0x3d631484	0.055439487
180	0xbeb2363d	-0.34807006
181	0x3c55fe80	0.013061166
182	0xbdbbcaf3	-0.09169569
183	0xbd25821c	-0.040407285
184	0xbdb97073	-0.09054651
185	0xbcf3e76c	-0.029773436
186	0x3f01eb2e	0.5074948
187	0xbcfec9be	-0.031102058
188	0xbfe2a06d	-1.7705208
189	0xbfcb8132	-1.5898802
190	0x3d97ea26	0.07417707
191	0xbfe5d37d	-1.7955166
192	0xbfdb2eff	-1.7123717
193	0xbd8ae575	-0.06782047
194	0x3e318541	0.17335989
195	0xbe8965b6	-0.26835412
196	0x3f7e0842	0.9923135
197	0xbdce7f38	-0.10082859
198	0xbfa20640	-1.2658157
199	0x3dcc81bb	0.099856816
200	0xbf539c7c	-0.8266065
201	0x3d9eec33	0.07759895
202	0x3efcb08a	0.4935344
203	0xbf04897d	-0.5177229
204	0xbf502013	-0.8129894
205	0x3fc70d82	1.5550997
206	0x3fd32c5b	1.6497911
207	0x3ea55a3b	0.32295403
208	0x3f34f002	0.7067872
209	0x3ea1ed0b	0.31626162
210	0x3ec43a08	0.38325524
211	0x3f8af0c9	1.0854732
212	0x3f281008	0.6564946
213	0x3e53076a	0.20608297
214	0x3bafa0b3	0.005359733
215	0x3eabd766	0.33562773
216	0xbf906a78	-1.1282492
217	0x3f8b07d4	1.0861764
218	0x3ffe5479	1.9869529
219	0xc028c873	-2.6372344
220	0x3d431d3c	0.047635302
221	0x3ccd7417	0.02507977
222	0x3e4eba78	0.2018832
223	0xbe4f6bf1	-0.2025602
224	0x3e323105	0.17401512
225	0xbcbe5fd2	-0.02323905
226	0xbe445d79	-0.19176282
227	0xbe2dc86f	-0.1697099
228	0x3ea587d9	0.32330206
229	0xbdbff559	-0.09372968
230	0xbf52968c	-0.82260966
231	0x3ea91964	0.33027184
232	0x3ca766c6	0.020434748
233	0xbe8647c4	-0.26226628
234	0x3e479fa9	0.194945
235	0xbdad3195	-0.08456723
236	0x3eef8b9f	0.4678621
237	0xbe81867e	-0.25297922
238	0xbeed6ced	-0.46372166
239	0xbedf91c0	-0.43665886
240	0x3f198ee0	0.59983635
241	0x3c9648d9	0.018345283
242	0xbe2804d4	-0.16408092
243	0x3e20b815	0.15695222
244	0xbf4c5c47	-0.79828304
245	0x3e86a7c2	0.26299864
246	0x3f6a0074	0.9140694
247	0x3e8dd7a9	0.27703598
248	0x3f37f952	0.7186481
249	0xbf1811c1	-0.5940209
250	0x3f0e7098	0.55640554
251	0x3bd1c0fc	0.0064011794
252	0x3fa17a47	1.2615441
253	0x3b8ae5c2	0.004238815
254	0xbe0f7eda	-0.14013234
255	0xbf96fb73	-1.1795486

weight_hh_l0 f4 [256, 64]
0	0xbe839f62	-0.25707537
1	0x3f1205b3	0.57039946
2	0xbedbe586	-0.4294855
3	0x3e8f7291	0.28017095
4	0x3c059686	0.008153563
5	0xbddf2a7f	-0.10896777
6	0xbe4b93fc	-0.1988067
7	0xbe4bd273	-0.19904499
8	0x3c553d5f	0.01301512
9	0x3f8d7ed2	1.1054327
10	0x3e3c1c0d	0.18370076
11	0xbef8a2b2	-0.48561627
12	0x3ea006c8	0.31255174
13	0x3fce0489	1.6095134
14	0xbcd7e5f9	-0.026354777
15	0xbf3a7fb6	-0.7285112
16	0xbee15bfb	-0.44015488
17	0x3ec9fb43	0.3944951
18	0xbda28886	-0.07936196
19	0x3f21fb92	0.6327449
20	0x3d9dd26b	0.0770615
21	0x3d159add	0.036524642
22	0xbe315f4a	-0.17321506
23	0x3ed01d8a	0.40647537
24	0xbe35c6dc	-0.1775164
25	0xbe8fbf02	-0.28075415
26	0x3e8e6b31	0.27816156
27	0x3e3a435d	0.1818976
28	0xbd5b996b	-0.053613108
29	0xbe289017	-0.16461216
30	0xbd8dd81a	-0.06925984
31	0x3ed02124	0.40650284
32	0x3f181595	0.5940793
33	0xbe29cd20	-0.16582155
34	0x3eca1f10	0.39476824
35	0xbf52875a	-0.8223778
36	0xbe092991	-0.13394763
37	0x3f148707	0.58018535
38	0x3f486836	0.78284013
39	0x3dc85671	0.097821124
40	0x3fa5b33c	1.2945323
41	0x3e94212f	0.28931567
42	0x3eabdb0a	0.3356555
43	0x3f10bbea	0.56536734
44	0xbebef398	-0.37295222
45	0xbe14e63a	-0.1454095
46	0xbea3391f	-0.31879517
47	0x3e37af71	0.1793802
48	0x3f214405	0.62994415
49	0x3cb74584	0.022372015
50	0x3d0ff819	0.035148714
51	0xbcdd8936	-0.027042966
52	0xbee29804	-0.44256604
53	0x3d5d03cf	0.05395871
54	0x3eaad377	0.3336446
55	0xbf16dd9f	-0.58931917
56	0x3e9621e5	0.29322734
57	0xbe2d9545	-0.16951473
58	0x3e9f226c	0.3108095
59	0xbefd466c	-0.4946779
60	0x3ee98106	0.4560625
61	0xbdd10660	-0.10206294
62	0xbf878eef	-1.0590495
63	0xbdb32cdb	-0.0874879
64	0xbeb2b504	-0.3490373
65	0xbf017555	-0.5056966
66	0xbe9289e0	-0.28620815
67	0x3ef2f714	0.4745413
68	0xbe814c29	-0.25253418
69	0x3e0a0b75	0.13480933
70	0xbe614deb	-0.2200238
71	0x3e4b3dc1	0.19847776
72	0x3e4275f4	0.18990308
73	0x3f22a243	0.6352884
74	0xbe59e272	-0.21277788
75	0xbf0207ea	-0.50793326
76	0xbe62b1eb	-0.22138183
77	0xbdfb862a	-0.12281449
78	0xbef03b24	-0.4692012
79	0xbef4306a	-0.47693187
80	0x3e9bf2a0	0.30458546
81	0x3d253a2a	0.040338673
82	0xbfbd5041	-1.4790117
83	0xbefe3fdd	-0.496581
84	0x3e78ddb5	0.24303325
85	0x3e0134de	0.12617823
86	0xbe472843	-0.19448952
87	0xbe24a7fb	-0.16079704
88	0xbe229423	-0.15876822
89	0xbe455051	-0.1926892
90	0xbeb63666	-0.35588378
91	0x3ddbf62a	0.107403114
92	0xbd4fa801	-0.05069733
93	0x3e0e8458	0.13917673
94	0xbf3c96c1	-0.7366753
95	0x3da90840	0.08253527
96	0xbea2e854	-0.31817877
97	0x3e733b3c	0.23753065
98	0x3bb40f54	0.0054949913
99	0x3d099b04	0.0335951
100	0x3e6b63a2	0.22987226
101	0x3d86d880	0.06584263
102	0x3f08ccb5	0.5343736
103	0x3f309a0f	0.68985075
104	0x3da30acd	0.079610445
105	0x3dd9a2b6	0.10626738
106	0x3e41dd76	0.18932137
107	0xbd735205	-0.05940439
108	0x3df93efb	0.12170216
109	0x3e392a7f	0.18082617
110	0xbe21390e	-0.15744421
111	0x3f3a661b	0.7281205
112	0x3dde958c	0.108683676
113	0xbe952637	-0.29130718
114	0xbf01cdcb	-0.5070464
115	0xbf155538	-0.5833316
116	0x3f25f703	0.64830035
117	0xbf1f24ff	-0.62165827
118	0xbdddb9db	-0.10826465
119	0xbf1e2af2	-0.6178428
120	0x3eb41136	0.3516938
121	0xbf14a156	-0.5805868
122	0x3d79e952	0.061013527
123	0xbea4b1da	-0.3216694
124	0xbe9cbcce	-0.30612797
125	0x3f42ac53	0.76044196
126	0x3e53131e	0.20612761
127	0x3ea64fd8	0.3248279
128	0x3f5b7dff	0.8573913
129	0xbe63585c	-0.22201675
130	0xbf80b94f	-1.0056552
131	0x3ed6e99a	0.419751
132	0xbe41ae90	-0.18914247
133	0xbf4ced50	-0.8004961
134	0x3ee2f7d2	0.44329697
135	0x3d6759a9	0.05648199
136	0x3c734add	0.014849392
137	0x3f790bd8	0.972837
138	0x3eef1c78	0.46701407
139	0x3e8b5655	0.27214304
140	0xbfcaacd1	-1.5833989
141	0xbe5d732a	-0.21625963
142	0xbf602558	-0.8755698
143	0x3f02fb70	0.51164913
144	0x3de80d91	0.113307126
145	0xbf80f8f9	-1.007598
146	0x3f1b2625	0.6060508
147	0xbf8217a5	-1.0163466
148	0xbfa66f98	-1.3002806
149	0x3c6cb335	0.014447023
150	0xbd575c61	-0.052578334
151	0xbf0ef51d	-0.55842763
152	0x3e3c07ef	0.18362401
153	0x3e8fa0f9	0.280525
154	0xbe139738	-0.14413154
155	0x3f84a1bc	1.0361857
156	0x3e318c10	0.17338586
157	0xbdb7c52c	-0.089731544
158	0xbf036007	-0.513184
159	0x3f4a4ad2	0.79020417
160	0x3e0cbb02	0.13743213
161	0xbe766b9d	-0.24064489
162	0x3f1bd981	0.6087876
163	0xbd96fafc	-0.0737209
164	0x3e5b812a	0.21435991
165	0x3f66fb15	0.9022687
166	0xbf38b12c	-0.7214534
167	0xbee1d7d0	-0.44109964
168	0xbcd08dc5	-0.025458226
169	0xbceaf55e	-0.028681453
170	0xbf99d5d7	-1.2018384
171	0xbcc8862c	-0.02447804
172	0xbd417f9a	-0.04724083
173	0x3fa718b4	1.3054414
174	0xbde0e8e3	-0.109819196
175	0xbed3ecb6	-0.41391534
176	0x3f9b7693	1.2145561
177	0xbef98392	-0.48733193
178	0xbca705ab	-0.020388445
179	0x3e61dd27	0.22057019
180	0xbe22da58	-0.15903604
181	0x3f114ca8	0.56757593
182	0xbf043f29	-0.51658875
183	0x3f35b334	0.7097657
184	0x3e3eb2db	0.18622915
185	0x3f2b7761	0.6697903
186	0xbfa54557	-1.2911786
187	0xbf434b86	-0.76287115
188	0xbe21c3b1	-0.15797307
189	0x3cf5bd66	0.029997539
190	0xbf3cb48b	-0.73712987
191	0x3f79be82	0.97556317
192	0x3ea235c4	0.31681645
193	0xbe6a6df3	-0.22893505
194	0x3ece0453	0.40237674
195	0xbe189c12	-0.14903286
196	0xbdd578a1	-0.10423399
197	0xbf015576	-0.5052103
198	0x3e88cd44	0.26719105
199	0x3ee7d994	0.45283186
200	0x3e09264c	0.13393515
201	0xbe3b4e30	-0.18291545
202	0x3ece9881	0.40350726
203	0xbe43b1b3	-0.19110756
204	0x3e65869f	0.22414635
205	0x3d96f98c	0.07371816
206	0xbf8cda1f	-1.1004065
207	0xbed9675a	-0.42461663
208	0xbf1fa7a3	-0.6236517
209	0x3e8ca2ab	0.27467856
210	0xbe03da05	-0.12876137
211	0xbcc0df9a	-0.023544122
212	0xbeff72df	-0.49892327
213	0x3f25de36	0.6479219
214	0x3f10fedf	0.566389
215	0xbdee99a1	-0.11650396
216	0xbf003db0	-0.5009413
217	0x3df541b6	0.11975424
218	0xbf092626	-0.53573835
219	0x3ec1e03f	0.378664
220	0xbd410463	-0.047123324
221	0x3e104808	0.14089978
222	0x3e54093f	0.20706652
223	0xbe7f3702	-0.24923328
224	0xbe1c92fb	-0.15290444
225	0xbf2af615	-0.6678174
226	0xbe051f0c	-0.13000125
227	0xbd20ec60	-0.039287925
228	0xbe131b93	-0.14365987
229	0xbe1facba	-0.15593234
230	0x3f231b1c	0.6371324
231	0xbee63ec2	-0.44969755
232	0xbe955bf9	-0.29171732
233	0x3f00226d	0.5005253
234	0xbf7a78cb	-0.97840565
235	0x3e18e13d	0.14929672
236	0xbeb9742d	-0.36221448
237	0xbd81cf61	-0.063383825
238	0x3e9aa544	0.30204213
239	0xbd5bc9fe	-0.05365943
240	0x3e5fff71	0.21874787
241	0x3e1a2cdc	0.15056175
242	0x3e649574	0.22322637
243	0xbf0bdea2	-0.54636586
244	0x3e8ce89e	0.27521223
245	0x3dbf03c3	0.09326889
246	0xbead2d81	-0.3382378
247	0x3ec2a578	0.38016868
248	0x3f08833c	0.5332525
249	0x3f280fcc	0.65649104
250	0x3f889da3	1.0673107
251	0xbe901b15	-0.28145662
252	0xbebb53a9	-0.36587265
253	0x3fbb79f3	1.4646591
254	0xbf329920	-0.697649
255	0x3e90a0b1	0.28247598

bias_ih_l0 f4 [256]
0	0xbeb41fde	-0.35180563
1	0xbee1f5d2	-0.4413286
2	0xbdcc1067	-0.09964066
3	0xbeb8b2eb	-0.36074004
4	0xbdb23e99	-0.08703346
5	0xbf23dbae	-0.6400708
6	0xbebcd166	-0.36878508
7	0xbabe978a	-0.0014541012
8	0x3d15fcc9	0.036618028
9	0x3eca979b	0.3956879
10	0xbeec458e	-0.46146816
11	0xbd576a55	-0.05259164
12	0xbee30676	-0.44340867
13	0xbe9a42f6	-0.30129212
14	0xbef4ba69	-0.4779847
15	0xbd71c5f1	-0.059026662
16	0xbdaa49a1	-0.08314825
17	0xbd8be91a	-0.0683157
18	0xbf264b2e	-0.64958465
19	0xbea2cca9	-0.31796768
20	0xbf45303f	-0.7702674
21	0xbee01562	-0.43766314
22	0xbf1979eb	-0.5995166
23	0xbe3a9329	-0.182202
24	0xbdc6769a	-0.0969059
25	0xbe5b374d	-0.21407814
26	0xbe2b7c6b	-0.1674668
27	0x3e491893	0.1963828
28	0x3ea56482	0.32303244
29	0xbe9b6b55	-0.30355325
30	0x3e308ae5	0.17240484
31	0xbc0887ed	-0.0083331885
32	0xbecf4eee	-0.40489906
33	0xbe83dd8f	-0.25754973
34	0x3da6cb86	0.08144288
35	0xbe7e583f	-0.2483835
36	0xbecc28e0	-0.39874935
37	0xbeecbc2e	-0.4623732
38	0xbe47eb34	-0.19523317
39	0xbe7dbd85	-0.24779327
40	0xbe007ad9	-0.12546863
41	0xbf1f005f	-0.6210994
42	0xbed2ad08	-0.41147637
43	0xbed512d3	-0.41615924
44	0xbe2ddb4f	-0.16978191
45	0xbd4c6b9e	-0.04990732
46	0xbe4c4d69	-0.19951405
47	0xbdeb063c	-0.114757985
48	0x3c219c5c	0.009863939
49	0xbebc3f5b	-0.36767086
50	0xbc7f56c2	-0.0155846495
51	0xbf08b4ee	-0.53401077
52	0xbe943b35	-0.2895142
53	0xbd5c37aa	-0.053764023
54	0xbd6d8d03	-0.057995807
55	0xbe8a114c	-0.2696632
56	0xbea57139	-0.32312945
57	0xbf07821a	-0.52932894
58	0xbe58633a	-0.21131602
59	0xbe058292	-0.1303809
60	0xbef4af0f	-0.4778981
61	0xbeecc935	-0.4624726
62	0xbef2b8bd	-0.4740657
63	0xbe28ee07	-0.1649705
64	0xbf3994f8	-0.72492933
65	0x3e23a37c	0.15980333
66	0x3c776507	0.01509977
67	0xbe673b27	-0.22581159
68	0xbeda9c7e	-0.4269752
69	0x3ed03329	0.40664032
70	0xbd48e161	-0.049043063
71	0xbedca55e	-0.43094915
72	0xbf177a8d	-0.5917137
73	0xbf25d0a3	-0.6477148
74	0x3cea006d	0.028564656
75	0xbe316a47	-0.17325698
76	0xbeecdd0a	-0.4626239
77	0xbe70c0d7	-0.23511063
78	0xbd277b84	-0.040889278
79	0xbf25fee1	-0.6484204
80	0xbd6fddfe	-0.058561318
81	0x3da66601	0.081249245
82	0xbeb7b267	-0.35878298
83	0xbe425e41	-0.18981268
84	0xbe3c4fa9	-0.18389763
85	0x3c9924a7	0.018694235
86	0xbe7872c8	-0.24262536
87	0xbebe9cb6	-0.37228936
88	0xbf109ea0	-0.5649204
89	0xbf061a0a	-0.5238348
90	0xbf16986c	-0.5882633
91	0xbf67e56b	-0.9058444
92	0xbf107dcd	-0.56441957
93	0xbd054773	-0.032538842
94	0xbcd43a03	-0.025906568
95	0xbe3cab03	-0.18424611
96	0xbd3e09cd	-0.046396066
97	0xbdd37a6c	-0.103260845
98	0xbf1502a5	-0.5820716
99	0xbe6a4038	-0.2287606
100	0xbf11a608	-0.5689397
101	0xbf48ebeb	-0.7848498
102	0x3c788c78	0.015170209
103	0xbf2ade6f	-0.66745657
104	0xbe92d213	-0.286759
105	0xbdd3a310	-0.10333836
106	0x3db316ca	0.08744581
107	0xbed7e646	-0.42167872
108	0xbee57591	-0.4481626
109	0xbf5abc83	-0.85443896
110	0xbf37175f	-0.71520036
111	0xbf7f4f75	-0.99730617
112	0xbecdb0b1	-0.40173867
113	0x3e4893b5	0.19587596
114	0xbeaca974	-0.33723032
115	0x3eebb246	0.4603445
116	0xbf1271a6	-0.57204664
117	0xbf962c89	-1.1732341
118	0xbebb3aab	-0.36568198
119	0xbe5c22f5	-0.2149771
120	0xbe2d8e20	-0.16948748
121	0xbf16d256	-0.589147
122	0xbdd2393e	-0.10264824
123	0xbd80d5ea	-0.06290801
124	0xbeb050f4	-0.34436762
125	0xbe84c527	-0.25931665
126	0xbe91865d	-0.28422824
127	0xbeb5023f	-0.35353276
128	0x3db4ffdc	0.08837864
129	0xbe57637d	-0.21034046
130	0x3dca41ba	0.098758176
131	0xbd6f3f2d	-0.05840986
132	0x3d07c1b2	0.033143707
133	0x3bad9dbe	0.0052983453
134	0xbb1b89b4	-0.00237332
135	0xbef9bdf2	-0.4877773
136	0x3dcfa276	0.10138409
137	0x3e1b7977	0.15183054
138	0xbc0160bd	-0.007896599
139	0x3e08c0f8	0.13354862
140	0x3e0f9485	0.140215
141	0xbdf56323	-0.119817995
142	0xbe5cd7aa	-0.21566644
143	0x3e795380	0.24348259
144	0x3eb09a94	0.34492934
145	0x3e39b8c7	0.18136893
146	0x3e7c5525	0.24641855
147	0xbd757f45	-0.059935827
148	0x3dc214bb	0.0947661
149	0x3e6e415b	0.23267119
150	0x3d8cab7e	0.06868647
151	0x3e85fee2	0.26171023
152	0xbd44b951	-0.048028294
153	0x3d499fd6	0.049224697
154	0x3d05ff6a	0.032714285
155	0x3d0ce3a5	0.034396786
156	0x3db1b6f3	0.08677473
157	0x3c997bd8	0.018735811
158	0xbdcd768b	-0.10032376
159	0x3dcbc778	0.09950155
160	0xbdd5a76b	-0.10432323
161	0x3e2477c2	0.16061309
162	0xbd7c6c9c	-0.061627015
163	0xbd64819d	-0.05578767
164	0x3e8f41c6	0.2797987
165	0x3d2be73e	0.041968577
166	0x3e9a9420	0.30191135
167	0x3da191ec	0.078891605
168	0xbdd2678d	-0.10273657
169	0xbcdebb5f	-0.027188955
170	0x3d52eba0	0.05149424
171	0x3e478a19	0.19486274
172	0xbdb25ba8	-0.08708888
173	0x3e2d0f2b	0.16900317
174	0xbe0517ef	-0.12997411
175	0xbe0175be	-0.12642571
176	0xbe9391f5	-0.28822294
177	0xbdd76d33	-0.10518875
178	0xbeb83bcb	-0.35983118
179	0x3d996215	0.07489411
180	0xbe969d8f	-0.29417083
181	0x3d8d76b9	0.0690741
182	0xbd805e13	-0.06267943
183	0x3dc031c8	0.09384495
184	0xbd53c013	-0.051696848
185	0x3ceb74ef	0.028742282
186	0xbd18dee6	-0.037321948
187	0x3e3ad17b	0.18243973
188	0xbe59c0be	-0.21264932
189	0xbe7593ae	-0.23982117
190	0x3cb77919	0.022396611
191	0xbe261175	-0.16217597
192	0x3e6a55cb	0.2288429
193	0x3f3b442c	0.731509
194	0xbf15bf73	-0.58495253
195	0xbe3fd03d	-0.1873178
196	0x3ebf9c20	0.374238
197	0xbe95d3db	-0.29263195
198	0x3e5b68ba	0.21426669
199	0xbed1011a	-0.40821153
200	0xbde0558b	-0.10953816
201	0xbe9f09cb	-0.3106216
202	0xbe7590a9	-0.23980965
203	0xbe3c9768	-0.18417132
204	0xbe9efb2a	-0.31050998
205	0xbe0a11a1	-0.13483287
206	0xbe523b9c	-0.20530552
207	0xbe99ba70	-0.30025053
208	0xbe1e787b	-0.15475647
209	0x3ebdbd10	0.37058306
210	0xbf3509e8	-0.7071824
211	0xbe062775	-0.13100989
212	0xbe7f7f9e	-0.24951026
213	0xbec9dcb6	-0.39426202
214	0xbe0f42f8	-0.1399039
215	0x3e4a8f2a	0.19781175
216	0xbe6e1ab7	-0.23252378
217	0xbdd52695	-0.104077496
218	0xbe67dcc8	-0.22642815
219	0xbe484e7d	-0.19561191
220	0x3f417e9b	0.7558381
221	0x3e0f6db4	0.14006692
222	0xbeb14d07	-0.3462908
223	0x3ecaba20	0.39595127
224	0x3e9c0602	0.30473334
225	0xbf0628be	-0.5240592
226	0x3e1ccd23	0.15312628
227	0xbe91c77c	-0.28472507
228	0xbeda6913	-0.4265829
229	0xbe667798	-0.22506559
230	0xbe946047	-0.28979704
231	0xbf0c8260	-0.54886436
232	0xbe1fff4e	-0.15624735
233	0xbd04b5ae	-0.032399826
234	0xbd0eb35d	-0.034839023
235	0x3d8573e9	0.06516249
236	0xbee3bdc2	-0.4448071
237	0xbd824e4e	-0.06362592
238	0x3e5b85df	0.21437787
239	0xbd11824f	-0.035524663
240	0xbe92ea7e	-0.28694528
241	0xbddced8b	-0.10787495
242	0xbddadd6a	-0.10686763
243	0xbe5ff165	-0.21869428
244	0xbe9a7fcb	-0.30175623
245	0xbe213862	-0.15744165
246	0xbea00f0d	-0.31261483
247	0xbee726c2	-0.45146757
248	0xbea4a8d7	-0.32160065
249	0xbe1512c2	-0.14557937
250	0xbd2ba261	-0.041902903
251	0xbe932edf	-0.28746697
252	0x3e6dc67e	0.2322025
253	0x3de13da4	0.10998085
254	0x3df24e49	0.11831338
255	0xbee8dd19	-0.45481184

bias_hh_l0 f4 [256]
0	0xbe44a773	-0.19204502
1	0xbea3612f	-0.31910083
2	0xbe2b4597	-0.16725765
3	0xbee6b3f6	-0.45059174
4	0xbdce5ef2	-0.10076703
5	0xbf379e91	-0.7172633
6	0xbe33526b	-0.17511909
7	0x3e05eb8e	0.13078138
8	0xbd24778e	-0.04015308
9	0x3eaa0e2a	0.3321393
10	0xbe94e413	-0.29080257
11	0xbce3f21b	-0.027825406
12	0xbeeade4f	-0.45872733
13	0xbea7886c	-0.3272127
14	0xbf101105	-0.5627597
15	0xbdbbfb75	-0.09178821
16	0xbd338211	-0.043825213
17	0xbda0c735	-0.07850496
18	0xbf2cda16	-0.6752027
19	0xbe8461ae	-0.25855774
20	0xbf6297b4	-0.8851273
21	0xbef5d5a0	-0.48014545
22	0xbf01a646	-0.5064434
23	0xbe2a1155	-0.16608174
24	0xbd552dc9	-0.052045617
25	0xbec21233	-0.3790451
26	0xbd910e99	-0.070828624
27	0x3e5a2f86	0.21307191
28	0x3e85910a	0.2608722
29	0xbecdfb52	-0.40230805
30	0x3da2be49	0.0794645
31	0x3de62abb	0.11238619
32	0xbec2f706	-0.3807909
33	0xbe5c02e7	-0.21485482
34	0xbdb640da	-0.08899088
35	0xbe18f22d	-0.14936133
36	0xbf07cdef	-0.53048605
37	0xbedef583	-0.43546686
38	0xbe2d8c82	-0.1694813
39	0xbe6e4d58	-0.23271692
40	0x3baca5ef	0.0052688043
41	0xbf139824	-0.57654023
42	0xbed1fbc1	-0.41012385
43	0xbea0cc2f	-0.3140578
44	0xbe67be08	-0.22631085
45	0xbdd727f6	-0.10505669
46	0xbda024a9	-0.07819492
47	0xbe810d41	-0.25205424
48	0xbdb8f5be	-0.090312466
49	0xbe3a459c	-0.18190616
50	0xbd33847d	-0.043827523
51	0xbf093af3	-0.53605574
52	0xbe60dcfb	-0.21959297
53	0xbe0d866c	-0.13820809
54	0xbe318021	-0.17334034
55	0xbec45259	-0.38344076
56	0xbef1843a	-0.47171193
57	0xbeb89a1a	-0.3605507
58	0xbe6b2f96	-0.22967371
59	0xbe70657d	-0.23476215
60	0xbeca12bb	-0.39467415
61	0xbf22c9e8	-0.63589334
62	0xbea40e08	-0.32041955
63	0xbe61b957	-0.22043358
64	0xbf4e6395	-0.806207
65	0x3da66219	0.081241794
66	0xbce8342d	-0.028345192
67	0xbdc2fc30	-0.09520757
68	0xbf0fd7df	-0.5618877
69	0x3e7ab831	0.24484326
70	0xbcee776d	-0.029109681
71	0xbedd9a0d	-0.43281594
72	0xbf146fbb	-0.5798299
73	0xbf21aa68	-0.63150644
74	0xbb489e3b	-0.003061189
75	0xbecc52b8	-0.3990686
76	0xbf1eedf3	-0.6208183
77	0xbe9626f5	-0.29326597
78	0xbdf9ad6e	-0.12191282
79	0xbf22ba57	-0.6356558
80	0xbe4f32b9	-0.20234193
81	0x3d889719	0.066694446
82	0xbea7434d	-0.32668534
83	0xbeac0f1f	-0.33605286
84	0xbead9f9f	-0.33910844
85	0x3d183b14	0.037165716
86	0xbcae209c	-0.021255784
87	0xbee89b46	-0.45430964
88	0xbecc9b69	-0.3996232
89	0xbe9a2b0d	-0.3011097
90	0xbf20bfbf	-0.6279258
91	0xbf5e5bfb	-0.868591
92	0xbeff122a	-0.49818546
93	0x3dc26c6e	0.094933376
94	0xbe043b32	-0.12913206
95	0xbea92028	-0.33032346
96	0x3d477059	0.048691127
97	0xbc96aeca	-0.018393893
98	0xbf100507	-0.5625767
99	0xbe328d64	-0.17436749
100	0xbee2e5ae	-0.44315857
101	0xbf29ca74	-0.66324544
102	0x3e1548ea	0.14578596
103	0xbf3a9887	-0.7288899
104	0xbe972d9e	-0.2952699
105	0xbe519699	-0.20467605
106	0xbd83e79b	-0.064406596
107	0xbed6be20	-0.4194193
108	0xbeba6a69	-0.3640931
109	0xbf4d4843	-0.8018839
110	0xbf175982	-0.59120953
111	0xbf7a47cd	-0.9776581
112	0xbefc819d	-0.49317637
113	0x3e6ae02c	0.22937077
114	0xbf1267fe	-0.5718993
115	0x3ebb6ec9	0.3660796
116	0xbf1b89c6	-0.607571
117	0xbf9c6296	-1.2217586
118	0xbec6d795	-0.3883635
119	0xbe54692d	-0.20743246
120	0xbe9d67e1	-0.30743316
121	0xbf1661c7	-0.58742946
122	0xbe849063	-0.25891408
123	0xbe312dab	-0.17302577
124	0xbeca378d	-0.39495507
125	0xbe8d0c10	-0.27548265
126	0xbeb61146	-0.35560054
127	0xbee0dc37	-0.4391801
128	0xbda9b0ec	-0.08285698
129	0xbdf38733	-0.118910216
130	0xbd2b3f0c	-0.041808173
131	0xbd9646bc	-0.0733771
132	0x3dd9d76d	0.10636792
133	0xbdfc33ce	-0.123145685
134	0x3e305fe3	0.17224078
135	0xbe96fe95	-0.29491106
136	0x3de11028	0.1098941
137	0x3e82a78f	0.25518462
138	0xbd05c314	-0.032656744
139	0x3ccf9cd9	0.025343345
140	0x3d50e185	0.050996322
141	0xbcdfaec3	-0.027305013
142	0xbe996d9b	-0.29966435
143	0x3e00734f	0.12543987
144	0x3eb3af3c	0.3509463
145	0xbd2b8f84	-0.041884914
146	0x3e8815f9	0.26579264
147	0x3e00f5ba	0.12593737
148	0x3e0de519	0.13856925
149	0x3e40e08f	0.18835662
150	0xbdc6d196	-0.09707944
151	0x3d82da90	0.06389344
152	0x3bfeb283	0.007772745
153	0x3d4ea1ca	0.050447263
154	0x3e0ea319	0.13929404
155	0xbb8fdd70	-0.004390411
156	0xbb8ce1e5	-0.0042993897
157	0xbd726e29	-0.05918709
158	0xbe8aff00	-0.27147675
159	0x3cfd7785	0.03094078
160	0xbde70589	-0.112803526
161	0x3e31ccd9	0.173633
162	0x3c10798b	0.008818041
163	0xbd892d56	-0.066981
164	0x3e734178	0.23755443
165	0xbd58a082	-0.052887447
166	0x3e3501fb	0.17676537
167	0x3dfb03be	0.12256573
168	0xbdad26ff	-0.084547035
169	0xbe0ffa29	-0.14060272
170	0x3d6194f2	0.055073686
171	0x3c80b378	0.015710577
172	0xbdd98d95	-0.10622708
173	0x3e1b04ee	0.151386
174	0xbde39f45	-0.111143626
175	0x3d1e1e58	0.038603157
176	0xbef4e3dc	-0.47830093
177	0xbd8da360	-0.06915927
178	0xbea1e77b	-0.31621918
179	0xbb2238b2	-0.0024753031
180	0xbe7219c3	-0.2364264
181	0xbd8cf01b	-0.06881734
182	0x3d447d5c	0.047971115
183	0x3d1f8e39	0.038953993
184	0x3d86fb4a	0.06590898
185	0x3ae939c2	0.0017793702
186	0xbdaeede3	-0.08541467
187	0x3e0d2599	0.13783874
188	0xbe4243e3	-0.18971209
189	0xbebd3d2d	-0.36960736
190	0xbdd3c81f	-0.103409044
191	0xbe50a1fe	-0.20374295
192	0x3e26cd97	0.16289364
193	0x3f3e5b68	0.74358225
194	0xbf10e8b5	-0.5660508
195	0xbe9db2e6	-0.3080055
196	0x3eac8e07	0.33702108
197	0xbebd48ad	-0.3696951
198	0x3e5097d3	0.20370416
199	0xbe8979c9	-0.26850727
200	0xbd3c4daa	-0.045972504
201	0xbe980fc0	-0.29699516
202	0xbe77775a	-0.24166623
203	0xbd042dfe	-0.032270424
204	0xbeb71278	-0.35756278
205	0xbd981198	-0.07425231
206	0xbee10710	-0.439507
207	0xbed77a05	-0.4208528
208	0xbddfbce5	-0.10924701
209	0x3e66bb09	0.22532286
210	0xbf061a3f	-0.523838
211	0xbe5b281e	-0.21402022
212	0xbe3b1f97	-0.1827377
213	0xbee7b336	-0.45253915
214	0xbe6d1524	-0.23152596
215	0xbcf9d748	-0.030498162
216	0xbebea90f	-0.37238356
217	0xbc963a55	-0.018338362
218	0xbe7964b5	-0.24354823
219	0xbe006970	-0.12540221
220	0x3f570e95	0.84006625
221	0x3aa6bc66	0.0012720942
222	0xbead0989	-0.33796337
223	0x3eba681b	0.3640755
224	0x3e9769e4	0.29572976
225	0xbed69be7	-0.4191582
226	0x3e99c303	0.30031595
227	0xbe3e7e80	-0.18602943
228	0xbf0c6666	-0.5484375
229	0xbea93924	-0.33051407
230	0xbee4b59c	-0.44669807
231	0xbf19eb64	-0.601248
232	0xbe954f1e	-0.29161924
233	0xbd605b3f	-0.05477452
234	0xbdfe0f41	-0.12405253
235	0xbdeba1f6	-0.11505501
236	0xbe94bd64	-0.29050744
237	0x3d3de065	0.046356577
238	0x3e5aeed4	0.21380168
239	0xbcaa5d64	-0.020796485
240	0xbe8bed97	-0.27329704
241	0x3de876c9	0.113507815
242	0xbe872be9	-0.26400688
243	0xbe118dcc	-0.14214247
244	0xbee3ef6a	-0.44518596
245	0xbe431894	-0.19052345
246	0xbedab0db	-0.42713055
247	0xbeb762d0	-0.35817575
248	0xbe69cb87	-0.22831546
249	0xbc9f0b13	-0.01941446
250	0x3d3217bc	0.043479666
251	0xbe18f05d	-0.14935441
252	0x3e64b415	0.22334321
253	0x3e5c53ad	0.21516295
254	0x3e48cf9a	0.19610444
255	0xbed983d1	-0.4248338
