policies/go2_no_DR.pt (torch, 774664 bytes, 8 tensors)

weight f4 [512, 48]
00000000: b945 8f3c 9ff8 9fbe e150 b0bd d6c0 7f3e
00000010: 9b45 19bf 28b3 e33e 00d2 2fbe 7860 923d
00000020: 2331 303d d216 b23d 7863 f23d 70ce b6bd
00000030: de8b dd3c e084 953b bcf9 643d c6d0 b5bd
00000040: b2bb 50be 79e1 50bd e0ac d93d 2eaa 7bbc
00000050: 1b8c 3dbe b480 8fbd e8f4 29be 0c96 833b
00000060: 5e10 d13c 37a6 2f3e 110e 2a3c 29d8 7e3e
00000070: 63a5 84be 0b45 8c3d aa48 1a3e c16f 833a
00000080: 8646 953d c2f6 913c 7eff 05bf 3edf 3f3e
00000090: 0d76 d43c 06a7 343c 4436 fcbb b50a c83d
000000a0: a5f0 873c 5c1a 053d 850a 86bd b091 17be
000000b0: f40a 923b f68a b63c 689e 7dbc 473c 2fbc
000000c0: bd98 e23d a98f afbd dd8a 1ebe 2bd1 c4bd
000000d0: d39b 813d 5cc9 9bbe 36ad 823e 09f7 953e
000000e0: 073e 343d d373 13be a8dc c23c 6f2d d53e
000000f0: ff78 b2be ebf9 e03d b660 b83e f506 64bd
00000100: 928d 23bd 8d0b f23d a1bd c3bd 1c8e 983d
00000110: 5af9 ccbd c5d9 87be 3481 63be 30fd 91bd
00000120: 2b57 3c3d e314 eebc 3f89 993e 2ded 983d
00000130: b345 383d c19a 7f3e c83a 35be f85a 41bc
00000140: d0b7 07be e718 8fbe 2d20 843e 821d 90bd
00000150: 3a4a c23c 0a2c 6fbd 738c 0d3d 1e52 a33d
00000160: 3624 453d 6ce9 123d c138 533d 4b63 b7bd
00000170: 0261 2f3c f0ee 4cbc e887 05bd d17c 4fbd
00000180: 7c5a 103e 543e 85bd 628a 7dbe 7ce6 fc3c
00000190: 73a5 c93e 681a 0cbe 789a ae3d cc1d 67be
000001a0: fbe7 06be 927a 60be eccc 273e 2672 1dbc
000001b0: 2f2b 503e 79ae a2bd 8700 293c 9a9d cb3d
000001c0: a15f 8a3d 41cd dfbd 3f29 eb3d e598 0b3e
000001d0: 1a9b 533e 7489 8e3d 3f28 c03d 7cb6 9ebc
000001e0: 5b24 ce3b 6b76 03be 94e1 823e 1657 f5bd
000001f0: e42d f63d 5e86 1abd 5a86 89bd 36f0 083e
00000200: deea a03e 8f1c d43e ff37 fc3e 3a31 3cbd
00000210: f9e5 053e c568 b03d 6f46 93bd fd93 6b3d
00000220: c138 303c 6437 023e 828c 16be 56b6 bcbd
00000230: f0d7 9e3d c5ad 07bb a697 f03d 99b1 7abc
00000240: c7f6 08bd b59e 833c 32c2 4abe 8447 3abc
00000250: bc7e 7d3e 5f8e 863f c56f cfbc 85b7 923e
00000260: c43c 7dbc 42f3 983c 32e7 3abd 4d91 9bbf
00000270: 1fdb 403e 1e83 623c 216a 883e fd5a 58bd
00000280: ba1b 84be 6d6e 3e3d 38c9 5a3e 358a ed3d
00000290: b6eb debd 841b 10bc 79d7 063e 6698 fdbd
000002a0: 7d12 9abd 1ee5 473e 1022 df3c bd75 623e
000002b0: af81 07bd dcce 553e b5e3 283e ef64 0c3e
000002c0: 9a98 08bd 0497 063e a3f1 9cbe bf93 173e
000002d0: b515 4d3c d49c 783c ced9 fbbc b961 f0bc
000002e0: 98b3 05bd e335 7abb 60ef cfbb 68e7 1dbd
000002f0: daf0 043b f870 69bd 5944 edbc 4479 1cbd
00000300: 31b1 cd3d 6bc3 f4be c0ed 643e 7636 28bd
00000310: 1016 c73e 3e20 b93e f2bc 053f b960 41be
00000320: b991 043e 3b1b 57be d360 763e f48c 28bf
00000330: 3566 083e 538c 1c3e 1a35 a9bd 6ff9 93bd
00000340: 2b6d 23be fde9 a5ba d631 b5be 8f44 7f3e
00000350: a987 51be 848f 8f3d df53 243e 9ca1 e03e
00000360: 2ef8 38be 3297 6abe c351 b5be 5221 313e
00000370: bd11 03bf b069 393e d97e 91bd eae2 7fbe
00000380: e414 843e 7c27 22be af31 da3d e0e8 a93e
00000390: 8062 7b3d f965 953c 44db 5f3d 994b 803c
000003a0: 4e31 c13c 66b1 a0bb 1e2e 9abc 8f45 9f3a
000003b0: 2e89 25bd 4d1f 43bd f4f6 9bbb cd7d 03be
000003c0: 2bdb efbd 6666 95be 91de 773e 608e 8dbc
000003d0: 1d9c d5bd 4d7f 5dbd 8b0b 2abf 0477 04bf
000003e0: 5d69 eebd bfbd 713c f136 073e 5ab9 dcbd
000003f0: ac4e 2cbd ec61 193e ef81 af3d 60d3 18be
0.017489301 -0.3124437 -0.086091764 0.24975905 -0.59871835 0.44472623 -0.17169952 0.07147306
0.04301561 0.08695759 0.118353784 -0.089260936 0.027044233 0.004562959 0.055902228 -0.08877711
-0.203841 -0.050996277 0.106286764 -0.015360398 -0.18510477 -0.0700697 -0.1659733 0.0040156897
0.0255205 0.1715325 0.01037933 0.24887146 -0.2590743 0.068491064 0.15066782 0.0010027812
0.07288842 0.017817859 -0.52342975 0.18737504 0.025935197 0.01102615 -0.0076968987 0.09767667
0.01659424 0.03249584 -0.06544975 -0.14801669 0.004456872 0.022283059 -0.0154796615 -0.010695524
0.11064289 -0.08572323 -0.1548266 -0.09610208 0.06328549 -0.30427063 0.25522774 0.29290035
0.044004466 -0.14399652 0.023786858 0.41636226 -0.34857938 0.10985168 0.36011285 -0.055670697
-0.039929934 0.118186094 -0.09557653 0.0744898 -0.100084975 -0.26533332 -0.22217256 -0.0712837
0.045981567 -0.029062694 0.29987523 0.07467113 0.044988345 0.24961378 -0.17698205 -0.011801474
-0.13253713 -0.27948686 0.25805798 -0.07036878 0.023717035 -0.05839161 0.03455777 0.07974647
0.048130237 0.03586714 0.051567797 -0.089544855 0.010704281 -0.012508139 -0.032600313 -0.050656144
0.14097017 -0.06506029 -0.2475982 0.030871622 0.3938404 -0.13681948 0.08525556 -0.2256996
-0.13174431 -0.21921757 0.16386765 -0.009609735 0.20328973 -0.07943434 0.010315067 0.099421695
0.06756521 -0.10927821 0.114824764 0.13632543 0.20664635 0.06959811 0.09382676 -0.019374125
0.006290955 -0.12838142 0.25562727 -0.11979501 0.12020472 -0.0377258 -0.06715079 0.13372883
0.3142919 0.41428038 0.49261472 -0.045945384 0.13076009 0.08613733 -0.071911685 0.05751418
0.010755719 0.12716442 -0.14702037 -0.09214465 0.077560306 -0.002070294 0.11747675 -0.015301132
-0.03343847 0.016066888 -0.19800642 -0.01136959 0.24755377 1.0512198 -0.02532185 0.2865564
-0.015456382 0.018670682 -0.04563064 -1.2153717 0.18833588 0.013825206 0.2664347 -0.05282115
-0.25802404 0.04649203 0.21365821 0.115986265 -0.10884802 -0.008795623 0.13168134 -0.12382583
-0.075230576 0.19520995 0.027237922 0.22115226 -0.03308266 0.20879692 0.16493113 0.13710378
-0.033348657 0.13143545 -0.30653104 0.14802454 0.012517382 0.0151741095 -0.030743506 -0.029343473
-0.032641977 -0.0038179092 -0.0063456744 -0.038550764 0.002028516 -0.0569925 -0.028963255 -0.038201585
0.10043562 -0.47805342 0.2235632 -0.041067563 0.3888402 0.3615741 0.5224143 -0.18884553
0.12946214 -0.21006481 0.24060373 -0.6584008 0.13320239 0.15287904 -0.082620814 -0.0722531
-0.15959613 -0.0012658235 -0.35389584 0.24928497 -0.20461906 0.07009795 0.1604762 0.43873298
-0.18063423 -0.22909239 -0.35413942 0.17297867 -0.5119894 0.18106723 -0.071042724 -0.24988905
0.25797188 -0.15835375 0.10654008 0.33185482 0.061373234 0.0182371 0.054652467 0.015661048
0.02358308 -0.00490396 -0.018820819 0.0012151467 -0.040414028 -0.047637273 -0.0047596637 -0.12840958
-0.11711725 -0.29179686 0.24205996 -0.017279804 -0.10430167 -0.05407648 -0.66423863 -0.51744103
-0.1164119 0.014754712 0.13204552 -0.107775405 -0.042067215 0.1497876 0.08569705 -0.14924383

bias f4 [512]
00000000: ed6c e4bd beb8 3f3d 97ee c83c ffd4 b7bd
00000010: 18fc 19be e965 46bd 1b69 2cbd bf4c da3d
00000020: dcd9 11be 3b51 bbbc 2a73 053d 8b46 16be
00000030: 2be0 c43c 00c3 70bd f62a 47bc 4407 7bbb
00000040: 2522 9abd 0a1f b9bd cef3 003e 0a25 96bd
00000050: 3a14 d4bd 6f4e 80bc e024 e13d ded2 7bbd
00000060: 0a19 1fbe 6680 6b3c 8209 a73d 7263 00be
00000070: 09a2 f03d 380b dabd d799 b13d f8a9 133e
00000080: 2eb9 3abc ac24 03be c408 813d e91a 333d
00000090: 99ce 793d 4f0b b0bc 12ae e43b 8606 afbd
000000a0: 0e51 043d 3f15 c0bd 6142 f0bd ff69 04bd
000000b0: 8a38 10be 4079 bfbd eee0 22bd 9579 7abc
000000c0: 5fa1 03be 3310 dfbc b46f 75bc c829 fbbd
000000d0: e38d febc 5b72 2c3d bb0b f83d 1e51 25be
000000e0: c5df 27bd 93a2 47bd 134c 9a3c 3971 d83b
000000f0: 715c a53d 47e2 febd ca62 99bd 52a4 8f3b
00000100: 33bc e33c 4446 fabd f518 b8bd a7aa 4cbe
00000110: 6e79 533d 4ca7 87bd 29f7 673c 9c2b 23bd
00000120: 2602 333e f702 8e3c da41 00be 94bf 7f3b
00000130: 690e 6b3d 0691 313d 92db 033e 3c30 37be
00000140: c139 5cbc 0a17 46bd 4a72 fbbd c805 ee3c
00000150: cdac 893c d43b 1ebd 3799 223d 9d48 083d
00000160: 594b d4bd 8b61 023e 5724 96bd 658c 8cbd
00000170: 92c4 a13c 1104 863d d23e bd3d 05bd 5dbd
00000180: 2d30 96bd 3072 053e 66e5 51bc 0a72 9cbd
00000190: c8af e1bd 1339 67ba 0038 85bd 68d5 17be
000001a0: 5aa7 593c 3a0a 4b3d 82a7 32bb f132 043d
000001b0: 48ce 623d e327 6a3d bda9 20bc 397d 0bbd
000001c0: c621 d73c 320a 0bbe 2682 a6bd 06f0 0c3d
000001d0: 9e14 073d 7d33 72bd 7a40 d83d 3118 d33d
000001e0: 6307 3e3c 559c f3bd 7b22 9ebd 0e74 b33d
000001f0: 5ef2 a6bd f212 d93d 673e 39bc d877 f13d
00000200: 2de1 923d 15b2 ccbd 6a20 a4bd cc8f 40bd
00000210: 37ae 4cbc f2cb 9c3d 31c9 ba3b 9bdc 123d
00000220: 3d9f 5b3d 61b4 033d 9249 ebbd bf16 ef3a
00000230: 4326 043e c957 fa3d e9fa 10bd 1b26 df3c
00000240: 77d7 d13c c971 e2bd c67e 1a3d b436 a4bb
00000250: 74ef cdbd c56e 3cbd da74 853d e8cf ffbd
00000260: 56fb 43be 4d64 edbd 565f e5bc e791 083b
00000270: fd45 52be a84c 13be 5053 8b3d f74d acbc
00000280: 9e86 c3bd 8a7d 103d 3ab6 35bc d4a2 c33d
00000290: ed92 cabc 6712 d1bd 44cb 3b3d 7d0d 8f3d
000002a0: 7f41 f63d c6c1 433d fbdf a03d 5e7c 953d
000002b0: 5851 ec3b 04de d1bc 05ae 993b 1de2 3dbd
000002c0: 6b37 81bd cbe6 87bd b393 133c ecdc f33c
000002d0: f1ee 6c3d e131 373d a5b0 f3bc 6496 2ebe
000002e0: 9cb5 f4bd a443 913d 67e7 2bbd 7f24 47bd
000002f0: 038b 0abc 948c 973a 4573 c3bd 0760 83bb
00000300: 1aea 23be 3399 ef3d 0f99 c43c a285 f93d
00000310: 2cd7 a5bd 27a8 60bd bf73 7d3c e387 03be
00000320: 3699 0fbe ab14 023e b119 0f3e 23bf 603d
00000330: c051 ebbd 78a8 6bbd be35 83bd bbf1 33be
00000340: 163f 7bba 6fbc 853d ff7e adbd 3adb 2dbe
00000350: 150a 24be 82e3 653d d83c 67bd d7db 24be
00000360: 6e4f 8fbd c17a d4bd 5d2e b8bd 83a3 dabd
00000370: 3152 f5bc e2b0 823d 56f7 42bd 2d39 dabc
00000380: fd30 ac3d a266 5b3d a2da c9bc 5dce 143e
00000390: b837 83bd 9909 b4bd 0c18 8e3d f675 cabd
000003a0: eb15 cebd 40db c0bd b675 c83c b642 aabc
000003b0: 6280 20bd baa3 87bb a500 9fbd 91e4 88bd
000003c0: 8116 d03d 3635 533d 2015 f03c b47c a63d
000003d0: 2ade 933d 86a1 59bd dd4a 0c3a 5b12 4a3d
000003e0: 3475 6bbd 819c c33d d24d 17be 1a51 e13d
000003f0: 21d1 58be d52e 463c ff65 04bd 0388 193e
-0.111535884 0.046807043 0.024527831 -0.08976173 -0.15037572 -0.048437033 -0.042092424 0.106591694
-0.14243263 -0.022865882 0.032580532 -0.14675348 0.024032673 -0.058779716 -0.012156239 -0.0038303891
-0.07526044 -0.09039123 0.12593004 -0.073312834 -0.103554204 -0.0156624 0.109933615 -0.061480395
-0.15536895 0.014373874 0.0815611 -0.12537935 0.11749656 -0.10646671 0.08671921 0.14420307
-0.011396689 -0.12806958 0.063005 0.043726835 0.060988043 -0.021489767 0.0069787586 -0.08546166
0.032303862 -0.09379052 -0.11731411 -0.03232765 -0.14084068 -0.093492985 -0.03976529 -0.0152877765
-0.12854527 -0.027229404 -0.014980245 -0.122638285 -0.031073516 0.042101245 0.121116124 -0.16144225
-0.040984888 -0.048739027 0.018835103 0.006605294 0.080742724 -0.12445503 -0.07489546 0.004383602
0.027799701 -0.12220433 -0.08989135 -0.19986974 0.051629476 -0.06623706 0.014158049 -0.03983651
0.17481288 0.017335398 -0.1252512 0.0039024102 0.05738679 0.043351196 0.12876728 -0.17889494
-0.013441504 -0.048361816 -0.12277658 0.029055491 0.01680603 -0.038631275 0.0396969 0.033272374
-0.10365934 0.12732522 -0.0733115 -0.06862716 0.019747052 0.06543744 0.09240498 -0.05413534
-0.073334076 0.1303184 -0.0128110405 -0.07638939 -0.11019856 -0.00088204554 -0.06504822 -0.14827502
0.013284529 0.0495703 -0.0027260487 0.032275144 0.055372506 0.057166945 -0.009806094 -0.03405497
0.026261222 -0.13578108 -0.081302926 0.03440859 0.032978646 -0.059131134 0.10559173 0.103073485
0.011598441 -0.11895052 -0.077214204 0.0876237 -0.081516966 0.10599317 -0.011306382 0.117904365
0.07171855 -0.09994904 -0.08013995 -0.047012135 -0.012492708 0.07656087 0.0057002534 0.035854917
0.05361866 0.032154445 -0.11488642 0.0018241032 0.1290522 0.12223775 -0.035395537 0.02723985
0.025615437 -0.11056859 0.037718557 -0.005011404 -0.10055438 -0.046004076 0.06516428 -0.12490827
-0.19138846 -0.115913965 -0.027999561 0.0020838918 -0.20534511 -0.14384711 0.06803 -0.02103327
-0.095471606 0.035275973 -0.0110908095 0.095525414 -0.024728263 -0.10208588 0.045848146 0.069849946
0.12024211 0.04779222 0.07855221 0.07299112 0.0072118454 -0.02561856 0.004689934 -0.046358217
-0.06309398 -0.06635817 0.009007382 0.02976843 0.05784506 0.044725303 -0.029747317 -0.17049557
-0.11948702 0.070929796 -0.04196873 -0.04861879 -0.008455995 0.0011562281 -0.0954347 -0.00400925
-0.16007271 0.11699142 0.023998765 0.121836916 -0.080976814 -0.054847863 0.015469491 -0.12844805
-0.14023289 0.12703197 0.13974644 0.054869782 -0.11490202 -0.05753371 -0.06406735 -0.17572682
-0.00095842907 0.065300815 -0.08471488 -0.1697816 -0.16019471 0.05612517 -0.05645451 -0.16099487
-0.06997572 -0.10374976 -0.08993218 -0.10675719 -0.029946418 0.06381394 -0.04759916 -0.026638592
0.08407781 0.053564675 -0.024640385 0.14531846 -0.06407112 -0.08790893 0.0693818 -0.098857805
-0.10062774 -0.094168186 0.024470191 -0.020783763 -0.039184935 -0.004139391 -0.07763795 -0.066842206
0.10160542 0.051564418 0.029306948 0.08129254 0.07220109 -0.053132556 0.00053517317 0.04933391
-0.05748482 0.09551335 -0.1477578 0.11001797 -0.21173526 0.012096127 -0.032323834 0.1499329

weight f4 [256, 512]
00000000: 8aac 3bbd 2722 503d f8dd b6bd a38c 67bd
00000010: a51b 1ebc 6eb0 593c aa93 ad3d 7671 1abd
00000020: b500 1e3c f021 58bd 87f4 0c3d 40ac b43d
00000030: fa03 8cbd a98d df3d 7f5a 81bd da6e 063e
00000040: 39fc 713d 9d7b 8c3d 5392 2c3c 89e5 453d
00000050: 3f76 e03d e196 0a3c 7d1e 7d3d ad19 873d
00000060: 3667 5abd 9291 a9bd 568f cfbd 2a97 36bd
00000070: dad4 e0bc 1a14 083e 2e7c a9bd 2457 dc3c
00000080: 3c3f 73bd 1e7c 7dbb c28c be3d bef8 d53c
00000090: 924f b8bd acbd 473c ebed 9e3d 7fbd 153d
000000a0: 2306 593b d732 26bc 305f 87bc 54ca 34bd
000000b0: 7ad8 873d b558 1d3e 3de4 4e3c 0baa fe3c
000000c0: 9a51 41bc e146 383d bebe 3f3d 4004 e7b9
000000d0: db7c b83d b1f8 6d3d d753 90bd 1015 a3bd
000000e0: abf4 36bd 33d7 60bd a634 2fbd b408 c73d
000000f0: 2d59 043d 2c4e a23c 2763 92bd 27b7 bb3d
00000100: a75a b2bc 49b5 36bd 4381 b13d 1f85 a33c
00000110: 961d 073d 687f a93b 594a 92bc 06cd 533d
00000120: 68a3 933c d184 eb3d 4e42 303c 5e4f 82bd
00000130: f729 8b3d 46b5 dabd 85cd c23d 2834 423c
00000140: 7483 303d 9049 efbd 1404 ff3c 113b 5e3c
00000150: 84bd 0d3d 94cb 033e eb9f 49bd aafa 9a3c
00000160: c718 833d cd87 b0bc 8ff4 c3bc 347f ecbc
00000170: 1f2d 763c 5c1d 7cbc 4156 463d 405e cebd
00000180: 7dcb 43bd 8059 03be 21f8 e2bc 103d bbbd
00000190: 5b7f 1abd a8ea dd3d 0b56 2e3e 5e76 903d
000001a0: 0d63 32bc 2465 a73d 7a91 7fbb 7c71 5c3d
000001b0: b41f d83d dbcc fc3d 391b 803d 4977 863c
000001c0: 8d7f 8bbd bfe4 9b3d 1903 8a3d ec79 31bd
000001d0: 1635 4ebc 2962 7dbd 2d47 dd3c dbcf 73bd
000001e0: 266a 0dbd f994 863d 690a 223e ecc1 a33c
000001f0: 1772 febc dc6e 68bd 3d39 6d3c 4ef6 c33c
00000200: e313 71bd 6baf 363d d132 18be e957 ac3d
00000210: 2585 95bc 56d9 413c 5d9c a33c 963a eabc
00000220: 83db f6bc 67f1 bdbd 1151 9a3c 0a2e 8c3d
00000230: 036f 043d 0086 a73d c22f 953d d21f 563d
00000240: bd13 a2bd 7050 b93d 14d3 ec3a 6017 053d
00000250: d184 3d3b e0ad b63d 9902 9cbd 9a5f 9fbd
00000260: 6d14 a73d 7b9b 5ebd 3e50 fa3c 4b48 6abd
00000270: 9091 663d 3ea2 24bd 1cf4 8d3c f53e 04bd
00000280: 602c 323d 8cd9 94bd bc44 a1bc b08f 1f3c
00000290: ca3a 383c d122 d3bd 2c17 b7bd 8517 8bbb
000002a0: f1e4 54bc 4efd d73c 2211 c63c fec9 e5bc
000002b0: 487b 0a3e a72a 403d 9163 34bd ee5c bf3d
000002c0: 101a 6ebd 0df6 123e bfd7 bb3d cb4b b23d
000002d0: 234d 51bc a9cf 213e 3ade e83c 7354 5cbc
000002e0: fd30 be3c 90b5 4c3d cd8f 34bc 4646 c4bd
000002f0: 82fe 283c 2cb2 083e 6f9b ac3c e445 06bd
00000300: ffe6 e9bb 1804 7ebc b44a f23c 7fac 463d
00000310: 9699 24bd fad7 1bbd 7afe 06be 526e 7f3c
00000320: 4277 19bd e7f0 483c 07e2 203c 49f8 3dbe
00000330: e7c0 adbd 99ce debd 6664 6fbe 93bd 2abc
00000340: 1cc5 3f3c b80d 53bd 4b8d 963c 8b8b 813d
00000350: 91bb 8ebd 6a49 e13d 1b90 ebbc 60a3 a33d
00000360: ead5 7bbd e124 da3c 98d0 edbd 023c babd
00000370: 4848 a2bd dc59 8fbd 062b 85bd 4975 70bd
00000380: 4fa1 7dbd c813 153b 7dc4 a43c 30ce 93bc
00000390: 1142 15bd 6bba 743d d2f9 c83d 25d0 91bd
000003a0: eaa1 9ebb 45e4 8f3d 74d3 ff3d 5d5c 5dbd
000003b0: 6869 aa3b 70d3 e73d 29fd bab9 9971 9b3d
000003c0: 4084 96bd 1977 5cbc 58a8 8a3d 8e30 1fbd
000003d0: c8ae 1e3e e415 4dbd e828 553d 1e43 3f3d
000003e0: ed79 b13c 55e5 3c3d ed1d 483e ed60 16bd
000003f0: 9dbd 443d 29c3 b2bd 6da8 2cbd d9c9 47bd
-0.045818843 0.05081382 -0.08929056 -0.056530606 -0.009650146 0.013286693 0.0847543 -0.03770586
0.009643723 -0.05276674 0.034412887 0.088219166 -0.06836696 0.109156914 -0.06316089 0.13128224
0.05907843 0.06859515 0.010532933 0.048314605 0.10960054 0.008458824 0.061796654 0.06596694
-0.053321086 -0.082797185 -0.10134761 -0.044577755 -0.027445246 0.13288918 -0.082756385 0.02689702
-0.059386477 -0.0038678716 0.09304191 0.026119586 -0.08999552 0.012191217 0.07760223 0.03655767
0.003311523 -0.010143957 -0.016524881 -0.044138268 0.066330865 0.1536587 0.012627658 0.031086942
-0.0117992405 0.04498947 0.046812765 -0.0004406292 0.09008189 0.0580985 -0.07047241 -0.07963002
-0.044666927 -0.05489273 -0.04277482 0.09718457 0.032311607 0.019812666 -0.07147818 0.09165793
-0.021771742 -0.04460648 0.08667233 0.019960938 0.0329872 0.0051726587 -0.017857717 0.051709197
0.018022254 0.11499942 0.010757996 -0.06362794 0.067951135 -0.106791064 0.09511856 0.011853255
0.043094113 -0.11683953 0.031129874 0.013563887 0.034604564 0.12870628 -0.049224775 0.018918354
0.0640121 -0.02154913 -0.023920326 -0.028869249 0.015025406 -0.015387859 0.048422102 -0.100765705
-0.047801483 -0.1282711 -0.027706208 -0.09142506 -0.037719112 0.10835773 0.1702501 0.07053827
-0.010887873 0.08173588 -0.0038996623 0.053819165 0.10552922 0.123437606 0.06255192 0.016414301
-0.06811438 0.07611989 0.06738872 -0.043329164 -0.012585899 -0.06186119 0.027011478 -0.0595244
-0.03452506 0.06571383 0.15824284 0.01998993 -0.031060262 -0.05674635 0.014478979 0.023921158
-0.058856856 0.044600885 -0.14863135 0.08415205 -0.018251965 0.011831602 0.01997202 -0.02859239
-0.030133968 -0.092745595 0.018837484 0.06844719 0.03233243 0.08179855 0.072845 0.05227644
-0.07913921 0.09048545 0.0018068277 0.032492995 0.0028918276 0.08919883 -0.07617683 -0.077819064
0.08158193 -0.054347496 0.03055584 -0.05719785 0.056291163 -0.04019379 0.017328314 -0.032286603
0.04349935 -0.07268056 -0.019686095 0.009738848 0.011244485 -0.10309375 -0.089399666 -0.004244747
-0.012994037 0.026365902 0.024178091 -0.028050419 0.1352359 0.046915676 -0.044040266 0.09343897
-0.058130324 0.14351673 0.0917201 0.087058626 -0.0127747385 0.15801872 0.028426278 -0.013447869
0.023216719 0.04997784 -0.011020613 -0.09583716 0.010314586 0.13349217 0.02107021 -0.032781497
-0.0071381326 -0.015503906 0.029576637 0.04850435 -0.040185533 -0.03804777 -0.13183013 0.015590267
-0.03746725 0.012264467 0.009819514 -0.18551745 -0.08484059 -0.10879249 -0.23378143 -0.010421175
0.011704709 -0.051526755 0.01837792 0.06325444 -0.06969369 0.11000331 -0.028755238 0.07990146
-0.0614833 0.026628913 -0.11612052 -0.09093477 -0.07923943 -0.06999561 -0.06502347 -0.0587056
-0.061921414 0.0022747386 0.020113224 -0.018042654 -0.03643996 0.059748095 0.098132744 -0.071197785
-0.004841079 0.07025961 0.12491503 -0.054043163 0.0052005537 0.113196254 -0.00035665304 0.075900264
-0.073494434 -0.0134561295 0.0677039 -0.038864665 0.15496361 -0.050069705 0.052040964 0.046694867
0.021664584 0.046117146 0.19542666 -0.03671353 0.04803239 -0.0872863 -0.04215281 -0.04877648

bias f4 [256]
00000000: f363 90bd b4bb 21bd 274f 713c 361e 79bd
00000010: 1cda 7bbd 128d 25be 79b3 b1bd b38e ebbc
00000020: 501e 1bbe 61ef a3bd 8859 eebd 71ba 1abd
00000030: 3148 9fbc c705 f2bd 6697 f3bd 3954 8bbd
00000040: 287b a9bd 5da2 ecbd 56b9 43bd beba 33bd
00000050: 0d4a 9fbd af12 71be 9aab 27be 3992 a7bc
00000060: fb3c 50bd 9726 53bd 3f01 363d d2a7 3bbd
00000070: dfd3 77bd 81e2 85bd 7e57 afbc fafc f4bd
00000080: 0ee9 cebd 121a 71bc 97b8 cfbd a578 0dbc
00000090: 1482 0f3d 472f 84bd 2adf 133c 2e87 f7bd
000000a0: 7683 b6bd 20f5 dcbc 0b55 febd 218d 27be
000000b0: 23a3 b3bd 53e9 00bd f5ae 33be e618 c4bd
000000c0: 7546 d63c 0112 ecbc 2eb5 2ebd 7794 73bd
000000d0: 0739 5ebd 19c4 73bd fb4c f8bd fb32 063c
000000e0: 29c1 43bd 969a 3cbd 38ff 303a dddd d3bd
000000f0: ca73 76bc ce00 04bd e190 a5bd 44bd 983c
00000100: 12d6 42bd 7cff 3dbd 6d8b 33bd 2744 e8bd
00000110: c9ee cdbd d4b5 26be b73f fabd 5a3e 92bd
00000120: a3fc 39be b8c7 a9bd 485c 97bd 11f2 ddbc
00000130: fc18 a5bd 095f dbbd 07d0 f2bc 6895 10bd
00000140: 1c96 dfbc eb42 47bd 162b 45bd d033 16bc
00000150: 36b0 2dbe feb7 3fbd a07e 0dbe b972 a3bd
00000160: 48c3 32bc 1105 73bd e185 11be e8cb 53bb
00000170: e6c6 a0bd dd59 4f3c 20c5 89bd fa74 d6bd
00000180: 17b4 71bd 2f07 cfbc 1dae 6cbb 6a2a e3bd
00000190: 90c5 38bd 2c65 1cbe 46e6 febd ee33 b9bd
000001a0: 9ba4 cdbd 6762 36bd 68a4 96bd 25eb 13be
000001b0: 849a 643c 41fd 72bd 35ab c6bd 64f3 b6bd
000001c0: 15e1 27bd 9f87 c1bc c281 72bd 94c3 10bd
000001d0: c186 5ebd 5c1d 57bd c320 ed3b 92de b5bd
000001e0: 410d bdbd 3d95 86bd da77 563c eec0 e5bd
000001f0: fb4f b6bd 7062 50bd df75 3abe 7dfc cfbd
00000200: 631f bcbd 0de2 22bc fbec ea3b ed13 dabd
00000210: 388e 0abd 5fbe c1bd 6ffa a2ba eefd d43c
00000220: 66ef cabb dcb4 b8bd ae2c 9ebd abd2 02be
00000230: 4426 9ebd 26d5 d4bc bb37 32be 330e f9bb
00000240: d907 14be 2f3c dbbd 32b1 f2bd cfee d93a
00000250: c645 debd c7a9 d5bd 0b3d 94b9 9b87 37bd
00000260: 6095 2cbc d624 d7bd e49f 52bd 8b3e ffbc
00000270: 024e 193d 1404 e9bc c002 5fbd c6dc 2a3d
00000280: 4ae3 bdbd d7a7 93bd c357 263c e982 1bbc
00000290: dfab 45bd ef06 acbc b1af 043d f2d8 c8bd
000002a0: 1565 ddbc ebdb a2bd 98af 11be 56db f0bd
000002b0: e248 29be a6fc 9ebc d984 c03c 2acf 7ebd
000002c0: 8927 c5bd f58c 2abe 2a50 ad3c b988 08be
000002d0: 3604 47bc c6b2 4cbb fde6 88bd cd0d 09be
000002e0: 2113 d4bc 1089 fdbc c436 88bc 2281 56bd
000002f0: b213 1bbc 90bc 67bd 525f 59bd 1e73 92bd
00000300: fd31 0e39 10b8 b7bc 1f23 e9bb 2266 2ebe
00000310: 6441 cdbd e9a1 a2bd 8826 a9bd f8fb 4abc
00000320: ffe9 033d b923 6bbd 4888 d3bd 0f20 04be
00000330: ded2 2e3d 1d9f 02be 0a23 88bb c609 2bbe
00000340: 97f7 60bd 998b 2ebe c56e c8bd 9e51 16bd
00000350: ba40 f03b 72ba 74bd 498b 8fbd fb71 18be
00000360: 0257 dcbc e0ee b6bd 731b 48bc b778 2dbc
00000370: 4231 e1bd 6370 eabd f726 03be 044e cebc
00000380: bf32 f1bd 59b7 a3bc 2fc5 123b 362e 15be
00000390: 677b 04be 9aa4 44be be0c 25be c1ed bebd
000003a0: 6caf 5cbd 9733 a9bd 4e2f 83bc fab6 67bd
000003b0: 603b 86bd f671 a3bc 0b5b a2bd 3609 d73b
000003c0: 77ee d5bc 994d a5bd 5a3f 49be 291e 55bc
000003d0: 40c3 0ebe d5a5 bbbd 98e5 93bd d014 e7bc
000003e0: a7af efbb 4cfd 90bb 6173 9abd 9af7 08bd
000003f0: bb3a 16be 40b5 a7bd 9bbf 1d3c 77a2 21bd
-0.07050314 -0.03948565 0.014728344 -0.060819827 -0.061487302 -0.16167095 -0.0867681 -0.028754568
-0.15148282 -0.08004642 -0.116381705 -0.03777546 -0.019443603 -0.11817508 -0.11894111 -0.068031736
-0.08275443 -0.11554406 -0.047784172 -0.043879263 -0.07777796 -0.23542283 -0.16374055 -0.020455467
-0.050839406 -0.051550474 0.044434782 -0.045814343 -0.06050479 -0.06537343 -0.021404024 -0.11962314
-0.101030454 -0.014715688 -0.101426296 -0.008634721 0.03503616 -0.0645433 0.009025374 -0.1208633
-0.08911793 -0.026972353 -0.124185644 -0.1636243 -0.0877135 -0.031472515 -0.1754721 -0.095750615
0.026156643 -0.028817179 -0.042653255 -0.05946776 -0.054253604 -0.059513185 -0.12124058 0.008190866
-0.047791634 -0.046045862 0.0006751898 -0.103450514 -0.015042255 -0.03222733 -0.08084274 0.018644936
-0.047567435 -0.046386227 -0.04383414 -0.11341124 -0.1005531 -0.162803 -0.12219184 -0.07140799
-0.1816278 -0.082900465 -0.07390648 -0.027092965 -0.08061406 -0.10711486 -0.02964021 -0.035298735
-0.027293257 -0.048647802 -0.048136793 -0.0091676265 -0.1696175 -0.046806328 -0.13817835 -0.07980866
-0.0109108165 -0.059331004 -0.14211227 -0.0032317583 -0.07850437 0.012655702 -0.06727052 -0.1047153
-0.059009638 -0.02527198 -0.0036114522 -0.11092074 -0.045110285 -0.15272969 -0.12446265 -0.09043108
-0.100411616 -0.044527438 -0.07355577 -0.1444517 0.013952855 -0.059323553 -0.09700624 -0.08933142
-0.04098614 -0.02362424 -0.059205778 -0.035342768 -0.05432773 -0.052518234 0.0072365715 -0.088803425
-0.092310436 -0.06571434 0.013090098 -0.11218439 -0.08901974 -0.050875127 -0.18209027 -0.1015558
-0.09185674 -0.00994159 0.0071693636 -0.10648332 -0.033827037 -0.094601385 -0.0012434254 0.02599999
-0.0061930893 -0.09018871 -0.07723366 -0.12775676 -0.07722142 -0.025980543 -0.17404072 -0.0076005696
-0.14456119 -0.107048385 -0.118502036 0.0016626957 -0.10853152 -0.10432773 -0.0002827424 -0.044807058
-0.010533661 -0.10505073 -0.051422015 -0.031157752 0.03742791 -0.028444327 -0.054445982 0.041714452
-0.092718676 -0.07209747 0.01015276 -0.009491661 -0.048259612 -0.0209994 0.032394115 -0.09807004
-0.027025739 -0.07952102 -0.1422714 -0.11760585 -0.16531709 -0.019407582 0.023500847 -0.062209286
-0.09626681 -0.16655333 0.02115639 -0.13333406 -0.012147 -0.0031234487 -0.066846825 -0.13384171
-0.025888028 -0.030949146 -0.016627677 -0.052369244 -0.009465145 -0.05657631 -0.05306942 -0.07150863
0.00013560797 -0.022426635 -0.0071147825 -0.17031148 -0.10022238 -0.07941038 -0.082593024 -0.012389176
0.032205578 -0.057407115 -0.10328728 -0.12902854 0.042681567 -0.1275601 -0.0041545676 -0.16702947
-0.05492362 -0.1704544 -0.097867526 -0.03669893 0.0073319348 -0.05974812 -0.070089884 -0.1488723
-0.026896957 -0.089322805 -0.012213576 -0.010587863 -0.10995723 -0.11447217 -0.12807833 -0.025183685
-0.11777257 -0.019984888 0.0022395363 -0.1456841 -0.129377 -0.19203416 -0.16118142 -0.09322692
-0.053878233 -0.08261793 -0.016013768 -0.056570984 -0.06554294 -0.019951802 -0.07927521 0.0065623773
-0.026114685 -0.08071441 -0.19653073 -0.013007679 -0.1394167 -0.09162489 -0.07221526 -0.028208166
-0.0073146406 -0.0044247266 -0.07541538 -0.033439256 -0.14670841 -0.081888676 0.009628202 -0.03946158

weight f4 [128, 256]
00000000: 6195 d43d 607f bc3d bfbf b53d de99 c43d
00000010: 5293 90bc 7b56 2ebd bffb 0b3e 604d 063d
00000020: efbc c83c 71f2 143d a438 e7bd 2298 e8bd
00000030: 67e3 893d a42c 9f3d f09f b2bd 998c 8bbd
00000040: 91ec 2b3d e747 803c 1b56 843c d649 df3d
00000050: ffb8 153d 03f1 cb3c f41e 54bd 47ce 14bd
00000060: 3596 e73d 3d81 5e3b 8451 efbc fe54 e1bd
00000070: 2164 5fbd 727b 8a3d 66f9 a43c aa85 07bd
00000080: 9fcf 8e3c 2821 1bbc 46b1 8bbd b9ac b93c
00000090: ab8c 2abd 84db 393d 7720 69bc 62d3 7d3d
000000a0: 69cd b8bd b6d7 acbb ea22 a1bd 4a3c 3cbe
000000b0: 38d7 403c 9247 afbd fd9b 9e3d 40bc b7bd
000000c0: 714d 183e 4877 6cbd b875 833d e593 c33d
000000d0: cb5a 5abd 6d43 00bc 39a8 a7bd 137e f0bc
000000e0: 7cd6 7fbc 30cf c73d e8dd a8bd 5cca abbc
000000f0: b1a8 57bd 26e2 94bd 769a 853c f761 383d
00000100: d5d4 78ba 4927 9d3d 5926 c03d 2df2 a1bd
00000110: 325b 543b e24b a2bc 70bf b1bd f756 19bc
00000120: e67b 0e3d 0fe6 01be 3865 3cbc 32a2 703d
00000130: c5a4 36be 3b0e 843d fb93 3fbd cd48 a43d
00000140: 7e93 f53b ccda 8cbd 41e0 1abd 6b30 263e
00000150: ec88 27be 2da1 a9bd e5d7 1dbe 7729 d4bc
00000160: 2e83 b9bd 037e 843d b92a 433c 6bdb d0bd
00000170: 5a22 063e 407b 133e fe2b 193d d167 febc
00000180: a493 62bc 94d4 c53c ad00 c83c 6676 68bc
00000190: e255 8dbc a8da e4bd 1d8b f0bc 47e3 433d
000001a0: fe35 ae3d 3881 b7bd aea8 57bd 0a0d 493d
000001b0: 7120 66bd a92f 3cbd e0b9 59ba 3d28 38bb
000001c0: c15a 9a3d 6960 e93c 7a96 d33c afa8 8bbd
000001d0: 8ab6 9e3d f04d 15be 51e1 543d b104 b7ba
000001e0: 4c29 0a3e eed6 07be dd50 e03c e235 c03c
000001f0: 73e1 1f3e 7dd2 32be 04e5 263e 8b50 2ebd
00000200: 68e9 1f3d ee0a 92bc ec6e 15be 258b 063c
00000210: 813e e2ba 2864 d7bd dceb 903c 694f 89bd
00000220: 2d9b f03d 3f2a e13d c3cd fbbc 2cd0 723e
00000230: a964 e43d d476 2bbd 3f9a 1e3e 4863 a8bd
00000240: f74a fbbc 0d76 60bd ec05 d6bc 9098 1abd
00000250: 484e 673d 5bd2 153c 6923 82bd c95c 503d
00000260: 3a5b 163d 135c 023d e23f 913d 8fbd e73c
00000270: 8cc4 ca3b c883 50bd f991 e8bd 36d0 983d
00000280: a2c6 86bd 6613 adbd 59ee 7ebc f372 663d
00000290: 5907 80bc b559 17bc 54ef b13d a1e2 20be
000002a0: ebf3 6ebd c963 7a3d f374 83be c359 5e3d
000002b0: cfca 933d 8963 473d 0275 efbd 9c9a b03c
000002c0: bcaa 99bd c0ed c93c b6b4 4fbd 1fea d73d
000002d0: f038 8ebd a60e 393d 4e35 8ebd 9c15 8a3c
000002e0: 3007 c8bd b81b ccbd 58ca 04bc f8f3 833d
000002f0: 1fe1 58bb 2249 f9bd 3d21 603d 4a53 fabd
00000300: 952c c73d 6a29 b83c a981 0cbd d122 133e
00000310: 4c6a bdbd 5ba1 aebd cddc 8e3d f7c2 8d3d
00000320: 10d4 e0bc ce07 1dbd 7af0 37bc 131d 833d
00000330: a0e3 763d e33b e6bd d431 2d3d 7b19 e23d
00000340: 14f3 2dbe 110f debc 93e6 a43c a4d8 7c3d
00000350: f87b 1b3d 8323 0dbe 396b 0abd 2cd7 193d
00000360: 0a15 053c dc8e eabb 258f fa3c 83eb b5bc
00000370: 8af4 9f3a b4d4 58bd 617c 99bb 5dbf ffbd
00000380: 05e5 c7bc 1a3c 8a3c 82ec 01be 4ca4 b43d
00000390: f94e 57bd abb2 bebd b88d 60bd 3194 22bc
000003a0: 7366 17be 1d7d e83d 9927 463d 03b2 b33c
000003b0: cf7d e1bc 7e85 25bd aaf8 123d bc0b 68bc
000003c0: c0be 16be cd5e 8cbd 1930 363d 3b69 253c
000003d0: 436c 283d 11cf 9ebd cd28 1bbe 6887 14be
000003e0: 2615 0cbd 2ac6 0a3c 4f1a 26bd b6be 203d
000003f0: 24fb 55bd 5f9b efbd 5afc b2bc 3d37 c63d
0.10380054 0.09203982 0.08874463 0.0959966 -0.017648373 -0.042562943 0.13670252 0.032788634
0.024504153 0.036364023 -0.112901 -0.11357142 0.06732827 0.077721864 -0.08721912 -0.06813926
0.041973654 0.015659286 0.01615434 0.10902755 0.03655338 0.024895197 -0.05178733 -0.036329534
0.113079466 0.0033951544 -0.029213674 -0.11002539 -0.05453885 0.067618266 0.020138454 -0.033086456
0.017432986 -0.009468354 -0.068209216 0.022665368 -0.041638058 0.045375362 -0.014228932 0.06196917
-0.09023554 -0.005274738 -0.078679875 -0.18382373 0.011770062 -0.08558573 0.07744596 -0.08971453
0.14873292 -0.057730943 0.064189374 0.09549693 -0.053309243 -0.007828576 -0.08186383 -0.029356992
-0.015615102 0.09756315 -0.0824545 -0.020970516 -0.05265111 -0.07269697 0.016309004 0.0450153
-0.00094921637 0.07673509 0.09382314 -0.079075195 0.003240299 -0.019811574 -0.08679092 -0.009359113
0.034786128 -0.12685417 -0.011498742 0.05874843 -0.17836292 0.06448027 -0.046771985 0.08021698
0.007494389 -0.0687767 -0.03781152 0.16229407 -0.16360825 -0.08282695 -0.15414388 -0.025898678
-0.09058224 0.06469347 0.011912041 -0.10198101 0.13099042 0.14402485 0.03739547 -0.031055363
-0.013829146 0.024149217 0.024414385 -0.014188385 -0.017252866 -0.11174518 -0.02936321 0.04782417
0.08506392 -0.089601934 -0.0526511 0.0490847 -0.056183282 -0.04594389 -0.00083055906 -0.0028100156
0.07536841 0.028488355 0.025828589 -0.06819283 0.0774966 -0.14580512 0.05197269 -0.001396319
0.13492316 -0.13265583 0.027382309 0.023463193 0.15613346 -0.17463107 0.162983 -0.04255728
0.039040953 -0.017827477 -0.14593095 0.008211886 -0.0017261059 -0.1051715 0.017690592 -0.067045994
0.117483474 0.10994386 -0.030737763 0.23712224 0.11152012 -0.04186137 0.15488528 -0.082220614
-0.030675394 -0.054800082 -0.02612587 -0.03774315 0.05647114 0.009144391 -0.0635441 0.050869737
0.036708094 0.03182609 0.07092263 0.02828863 0.006187981 -0.050906926 -0.11355967 0.07461588
-0.06580855 -0.084509656 -0.015559756 0.056261968 -0.015628504 -0.009237696 0.08688226 -0.15711452
-0.058338087 0.06113032 -0.25675163 0.054284822 0.07216417 0.04867891 -0.11692239 0.021558098
-0.07503268 0.0246495 -0.05070945 0.10542702 -0.06944454 0.045179985 -0.06943761 0.016856007
-0.09766996 -0.099662244 -0.008104883 0.06443018 -0.0033093167 -0.12172152 0.0547192 -0.122229174
0.097253 0.022480685 -0.03430334 0.1436875 -0.0924879 -0.0852687 0.06975708 0.06921952
-0.02744487 -0.03833752 -0.011226768 0.0640203 0.060275674 -0.11241891 0.042283848 0.11040016
-0.16987258 -0.027106794 0.020129478 0.061730042 0.037960023 -0.13783078 -0.03379366 0.03755872
0.008122692 -0.0071581434 0.030585835 -0.022207027 0.0012203616 -0.052937225 -0.0046840166 -0.124876715
-0.024401197 0.016874362 -0.12687877 0.088204 -0.05256555 -0.09311422 -0.054822654 -0.009923027
-0.14785175 0.113519885 0.048377607 0.021935469 -0.02752581 -0.04041051 0.035881676 -0.014162954
-0.14721203 -0.06854019 0.044479463 0.01009589 0.04111887 -0.077543385 -0.15152283 -0.14504778
-0.034199856 0.008470098 -0.040552434 0.039244376 -0.05224146 -0.116995566 -0.021848846 0.096785046

bias f4 [128]
00000000: ddd1 eebc 83c0 c7bd d7b4 d9bd 5083 dabc
00000010: 3f4d 01bd 55e6 853b 2439 4cbe f1a6 ec3c
00000020: cdce aabd ec6e 0b3c 4dbd 14be 52ed babd
00000030: 465a 11be 2dec b9bd a70d 9ebd 7b2f 9ebd
00000040: 9c73 0abe 691c e03b 4298 c0bb e208 7cbd
00000050: 2d07 3bbc 3eeb 313c 8a69 a9bd a303 63bc
00000060: de65 febd 4948 6abd f539 86bd ef86 56bd
00000070: 7824 55bd 24d3 bbbc 75b9 ffbc b746 e0bd
00000080: 91e5 c5bd 0181 0f3d 501a f5bb 3621 23bc
00000090: d3b5 84bd 88ec a6bc 33e9 1abc 96a7 50bc
000000a0: 4e44 babc 6c63 1f3a 61e5 81bd 53b8 79bc
000000b0: cd24 e33c 0adc 18bd 2d12 68bd 9204 05bd
000000c0: f1af d4bd a7a9 84bd ae8e 1ebe 1829 193d
000000d0: 90ed 96bc 6212 53bd c208 a1bd 1d16 8dbd
000000e0: d02f 80bc a423 1a3b d6da 92bd 1ac7 34bd
000000f0: cbed 063d 178c 7fbc 3e75 29be 77fd 073d
00000100: 1b31 d5bc 189e 1bbe aa1b c1bc 62eb 21bc
00000110: 7aef c2bd de46 453d a77e 6fbd 43d1 eabd
00000120: 4bbe febd 6077 38bd fd3e e8bc 53b9 0abd
00000130: 7fe9 463d 063d abbc 6bff 10bd 9480 50bd
00000140: dfd0 4dbd a408 50bd fb5e d2bd 5398 883c
00000150: 830a 673d 5a43 aebd b4bf e5bd 1cf3 1ebd
00000160: 148c 2cbc 0250 b93c 909f babd efaa 3fbd
00000170: e551 87bd 37f7 ea3c 63a7 c3bd 8298 84bc
00000180: 4c44 a4bd e7ba 00be 6d18 3fbc e613 5ebd
00000190: 8819 b3bc 0d3d 8abd c07f a0bc 25fa 63bd
000001a0: 5633 5dbc 3925 60bb 5c22 86bd cc25 debc
000001b0: d4a1 a4bd 2348 64bd 8378 b8bd b05f d2bd
000001c0: d6ae 87bd 257e 0cbe 424f 75bd 6893 57bc
000001d0: 7bf4 8a3c e18f 89bd df4b 86bd 2785 f43c
000001e0: 5520 b3bc 091b 36be 746c 81bd 53a2 8dba
000001f0: ba1a 41be f87c 16be ac2a 61bd b8de b4bd
-0.029152805 -0.097535156 -0.106301956 -0.026673943 -0.03156781 0.0040862956 -0.19943672 0.028888198
-0.08340225 0.008510333 -0.14525338 -0.091272965 -0.14194593 -0.0907825 -0.07717448 -0.077239
-0.13520664 0.0068393243 -0.0058775255 -0.06153191 -0.011415285 0.010859309 -0.08272083 -0.0138558475
-0.124217734 -0.057197843 -0.06554023 -0.052374776 -0.052036732 -0.022927828 -0.031216362 -0.10950988
-0.09662927 0.035035137 -0.0074799433 -0.009956649 -0.06479993 -0.020376459 -0.009455013 -0.012735268
-0.022737648 0.00060801837 -0.06342579 -0.0152417 0.027727509 -0.03731922 -0.05665796 -0.03247506
-0.10385121 -0.06477671 -0.15484115 0.037392706 -0.018423826 -0.051531203 -0.078629985 -0.068889834
-0.015647799 0.0023519779 -0.07170646 -0.04413519 0.03294162 -0.015597365 -0.1654863 0.033200707
-0.026024392 -0.15197027 -0.023572762 -0.00988278 -0.09518333 0.048163287 -0.058470394 -0.11465695
-0.12438639 -0.04503572 -0.028350348 -0.033868145 0.048562523 -0.020903122 -0.035399836 -0.05090387
-0.050248023 -0.05078949 -0.10272022 0.016674196 0.05640651 -0.0850894 -0.11218205 -0.038806066
-0.010531444 0.022621159 -0.091124654 -0.046793874 -0.06607417 0.028682334 -0.09553411 -0.016186003
-0.08020839 -0.12571298 -0.011663538 -0.054218195 -0.02186276 -0.06749926 -0.019592166 -0.05565848
-0.013501009 -0.0034201874 -0.06549522 -0.027117632 -0.08038679 -0.055732857 -0.09007361 -0.10272157
-0.06625144 -0.13719995 -0.05989004 -0.013157703 0.01696228 -0.06716896 -0.0655744 0.029848648
-0.021866003 -0.1778375 -0.06319514 -0.0010805823 -0.18857852 -0.1469611 -0.054972336 -0.08831543

weight f4 [12, 128]
00000000: b659 b8bd bf6a 603c 789b 55bd f413 1bbd
00000010: e9ae 0c3d fe1d 05bd ff2e 3dbd 1e36 fa3b
00000020: 5c32 313c 2646 5d3d a315 ae3c a7f9 1ebc
00000030: d349 cabc e5cd 373d 3b75 8bbd eb59 673c
00000040: 041d 2d3d d085 0bbd ca7f 1dbd 28a0 d63b
00000050: 9894 38bc c131 293c 715e 313c 62c3 2abc
00000060: 48f7 903d 7ee8 903c 029e a7bc 764f b53b
00000070: 601e 293d 4588 00bc 8945 903d df7c 123d
00000080: c342 1bbd 81ee 773b bf52 8abd 4b19 ad3c
00000090: 7b83 4cbc 64c0 7cbc 336f 02bc 6ecf 4abd
000000a0: b2a2 803c c64e b73c 498a b6bd f6de be3b
000000b0: 6267 3c3c 3f8e 9abd 2157 6abd 1451 e83a
000000c0: 78d0 8c3d e0ce 86bc 2257 22bc 1d71 e83b
000000d0: acc7 3fbd 269b 63bc 84af 0bbd 526c c43a
000000e0: abca c03c b545 2d3d a932 1a3d 7bdf 44bd
000000f0: 3106 42bd c7f7 8db9 d948 353d b241 9cbc
00000100: 16c8 30bb 3e1a dbbc f8b9 beb9 3def 963c
00000110: 43a5 a73d 5e7f 7b3d 27de cf3b 3e8c 38bd
00000120: 3445 043b a3b3 a13b 52f1 543d 74e6 c1bc
00000130: 6591 54bd 3c1b 5a3d da1f 913c 1c8e 7b3c
00000140: eb93 99bc 3dda 363c 7dde 4a3d 3e7a 9c3c
00000150: ca02 9e3c c287 e8bc 9e12 08be 27f3 64bc
00000160: fd83 363c d043 303d 793f 433d 899d 3ebd
00000170: 15c3 0c3b 5478 77bc 9fff 97bc ab14 c3bc
00000180: 0e49 2f3d 2a21 2fbd f7b7 77bd 49fd 6e3c
00000190: 2253 f2bc 894e cc3b bea5 84bd ad9e 103e
000001a0: 4eaf e0bc 5b7f 503d 2e7b acbc e477 fbbc
000001b0: 6066 653d ebf6 9a3c 4c59 203d c5fb d43c
000001c0: 8c40 803c e0f6 813c 3a43 f5bc 1f8e 6cbd
000001d0: e3f8 c8bc 2b20 ffbc 72c3 2bbc 23ce 9cbc
000001e0: 0c32 86bc bca8 883c 79c6 783c 69a2 a13c
000001f0: b6ca a4bb 0bd2 1bbd 86e8 6d3c 707c 27bc
00000200: 4f18 a8bb 8904 973c 61fb 70bd afff a33d
00000210: 143d e03d 94c1 35bd 9ccb 18bc 1224 d03b
00000220: 5163 31bd bec3 bc3c 7416 4b3c 56ac 7dbd
00000230: 3668 76bd e969 063d 6778 c03d f039 4a3d
00000240: 9c37 513d d7ea ec3d 5d55 c0bd 6447 933d
00000250: c1b1 153d 474d 703d 5f38 333d c0ca b23d
00000260: ee48 a13d 68d4 db3c d4de bd3d 3968 0abd
00000270: ead6 a93d f524 203d bc1e 90bb aba6 503d
00000280: e3ce 483c 480f 92bd e812 0c3d bf7a dfbb
00000290: 4b42 fa3c 3036 3cbd a853 84bb 34a0 23bc
000002a0: cf94 0ebd 3261 e03b d422 423d e1ea 983c
000002b0: 18ed 5cbd 7583 95bd 8e3c e13d fa7c 973d
000002c0: 9306 ccbc d109 d03d 560e 51bc 4f7b 043c
000002d0: cdba 82bd 69ef a3bc d98a aa3b dcb5 cb3c
000002e0: 0345 9e3c 8192 b63a 22ba 013d 885f 51bc
000002f0: a1ce 423d ae55 753c d5f5 ad3c 024f 50bd
00000300: 878d a3bc 1a02 f8bc d500 b63c 0f5b f5bd
00000310: 5c67 81bd faeb 5b3c 513f 86bd b8c4 8d3d
00000320: ef2f 103d 282c ffbb 3129 98bc f916 593e
00000330: cc49 cf3c 83fe 3a3d e09b 103d 035a 823b
00000340: 006b 82bc 10ab 903d 6e52 04bc 64c4 a2bc
00000350: 7c09 05bd c0d9 823d 6fce b0bd 93be 28bd
00000360: 53ba 0d3d 3b7b 923d 7b68 f0bc c99e 82bd
00000370: c0d2 343a 8cbf 993c 9669 d8bc ea43 82bb
00000380: 5608 f4bd b687 793b 206a 383d 6806 fbbc
00000390: 41e0 10bc 96ab 0cbd 7f4c c0bc dbea 573d
000003a0: fab3 0ebd 8bf0 453d e823 d73c 13ad 50bc
000003b0: 2602 2fbd 7834 55bd 608b 473c b25c 02bc
000003c0: 3904 123c d9b2 7bbc 075f 87bc b3a5 e1bd
000003d0: 896a 3e3d 17c1 053c 14ac 073d a99b e7bc
000003e0: 8fb8 f5bc 9807 efbc 28c8 98bb cde9 833d
000003f0: f89c b63c 672d afbd 8645 3abc b3d5 383d
-0.09001486 0.013697325 -0.05215022 -0.037860826 0.034346495 -0.032499306 -0.046187397 0.007635846
0.010815229 0.054021977 0.021250552 -0.009703076 -0.024693405 0.04487409 -0.06809469 0.014120559
0.042264 -0.03406316 -0.038451947 0.006549854 -0.011265896 0.010326804 0.010825739 -0.010422559
0.07078415 0.017688986 -0.020461086 0.005533154 0.041288733 -0.007844989 0.07044513 0.035763618
-0.037905466 0.0037831368 -0.06754064 0.021130225 -0.012482519 -0.015426729 -0.007961082 -0.049514227
0.01570258 0.02237643 -0.089130946 0.005824919 0.011499258 -0.075466625 -0.057212 0.0017724358
0.068757 -0.016456068 -0.009908469 0.0070935623 -0.04682128 -0.013891971 -0.03410293 0.0014985895
0.02353414 0.042302806 0.03764597 -0.04806469 -0.047369186 -0.00027078224 0.044258926 -0.019074295
-0.002697473 -0.026745912 -0.00036378182 0.018424625 0.08185818 0.061400764 0.0063436213 -0.04505562
0.002018285 0.0049347444 0.051987953 -0.023669459 -0.05189647 0.05324863 0.017715383 0.015353706
-0.01874729 0.0111604305 0.049528588 0.019101258 0.01928844 -0.028385047 -0.13288352 -0.013973988
0.011139867 0.04303342 0.047667954 -0.046536956 0.0021478583 -0.015104372 -0.018554507 -0.023813566
0.04279428 -0.042756237 -0.060478177 0.014586755 -0.029580656 0.006234948 -0.06476925 0.1412303
-0.027427342 0.050902706 -0.02105483 -0.030696817 0.056005836 0.018916568 0.03914766 0.02599896
0.015655778 0.01586479 -0.029939283 -0.057752725 -0.024532741 -0.031143269 -0.0104836095 -0.019141262
-0.016381286 0.016682021 0.015184038 0.019730764 -0.005029048 -0.03804211 0.01452077 -0.010222539
-0.005129851 0.01843478 -0.058833484 0.08007752 0.1094915 -0.044374064 -0.009325888 0.006351956
-0.043307606 0.023042556 0.01239549 -0.06193193 -0.060157977 0.032815848 0.09397965 0.04937166
0.051078424 0.1156823 -0.09391282 0.07191351 0.036546472 0.058667447 0.04375493 0.08730078
0.07875238 0.026834682 0.09271017 -0.0337908 0.08292945 0.039097745 -0.004398195 0.050940197
0.012256357 -0.07131821 0.034197718 -0.0068200524 0.03054919 -0.045950115 -0.004038293 -0.009986926
-0.034809884 0.006847524 0.047396496 0.018666686 -0.053937048 -0.07300464 0.10997878 0.07396884
-0.024905479 0.10158122 -0.012759766 0.00808604 -0.06383286 -0.02001162 0.00520454 0.02486699
0.019320017 0.001392916 0.03167165 -0.012779124 0.047560338 0.014974041 0.021235386 -0.050856598
-0.019964946 -0.03027444 0.022217194 -0.11980259 -0.06318542 0.01342296 -0.065550454 0.06922287
0.035201963 -0.0077872463 -0.01857433 0.2120017 0.025303744 0.045652878 0.035304904 0.0039780154
-0.015920162 0.070638776 -0.008076293 -0.019869037 -0.032479748 0.06389189 -0.08633124 -0.04119737
0.03460152 0.071524106 -0.029346695 -0.06377942 0.0006897859 0.018768094 -0.026417535 -0.003975381
-0.119156525 0.0038075275 0.045023084 -0.030642703 -0.008842529 -0.034343325 -0.023473976 0.05271421
-0.034839608 0.048325103 0.026262239 -0.012736577 -0.04272666 -0.05205199 0.012179226 -0.007956671
0.00891214 -0.015362465 -0.016524805 -0.11017933 0.04648832 0.008163712 0.03312309 -0.028272467
-0.029995231 -0.029178426 -0.0046625324 0.06441078 0.022291645 -0.08553582 -0.011369115 0.045125674

bias f4 [12]
00000000: c376 fe3d 9839 e03d 6094 e63d 5655 17be
00000010: bd24 663a fced 58bd 5fd0 bebd 9778 993b
00000020: 6305 413d 0d11 4e3e f4f9 e13d c1e7 29bd
0.12424996 0.10948485 0.11258769 -0.14778647 0.0008779278 -0.052961335 -0.093170874 0.004683565
0.047124278 0.20123692 0.11034003 -0.041480783
