policies/go2_with_DR.pt (torch, 774664 bytes, 8 tensors)

weight f4 [512, 48]
0	0xbe0cda58	-0.13755167
1	0x3d9092cb	0.070592485
2	0xbdd324a0	-0.1030972
3	0x3e1ce9df	0.1532359
4	0x3eb6c466	0.35696715
5	0xbf06f3c9	-0.52715737
6	0xbdca5af4	-0.09880629
7	0xbe57a92e	-0.2106063
8	0x3dfaad21	0.12240053
9	0xbd00bdd6	-0.03143104
10	0xbdb72ea8	-0.08944446
11	0x3f29e060	0.66357994
12	0x3ef1a69b	0.47197422
13	0x3e9f0afc	0.31063068
14	0xbcf90dde	-0.03040212
15	0x3e303530	0.1720779
16	0x3da37313	0.07980933
17	0xbe42fe49	-0.19042315
18	0xbdab143f	-0.08353471
19	0xbc06207b	-0.008186455
20	0x3d802cb1	0.06258524
21	0x3e991516	0.298989
22	0x3e8afa22	0.2714396
23	0x3e8afd21	0.27146247
24	0x3e43b9b4	0.19113809
25	0x3e6bf3aa	0.23042169
26	0x3dc17512	0.094461575
27	0x3e81c4b9	0.253454
28	0xbb532102	-0.003221572
29	0xbdbb0da0	-0.09133458
30	0x3e5d3971	0.21603943
31	0xbd1e8889	-0.03870443
32	0x3e596d42	0.21233085
33	0x3daf01e9	0.08545286
34	0x3d10aed1	0.035322968
35	0x3d003da2	0.031308778
36	0xbd2a0dde	-0.04151713
37	0x3ce62efc	0.028098576
38	0xbcec67e0	-0.028858125
39	0xbcab258a	-0.020891923
40	0xbcd64e1e	-0.026160296
41	0x3c9f0949	0.019413607
42	0xbd36743a	-0.044544436
43	0xbd29f47c	-0.041492924
44	0x3be7e6c8	0.007077072
45	0xb89a4eb6	-7.357953e-05
46	0x3d995e54	0.07488695
47	0x3bb4c17f	0.0055162306
48	0xbd3fc147	-0.046815183
49	0x3d98c4dc	0.07459423
50	0x3d76979a	0.060203172
51	0xbe046efb	-0.1293296
52	0x3e5a128d	0.21296139
53	0xbe8188c4	-0.25299656
54	0x3e4dbf2d	0.20092459
55	0xbae5f401	-0.0017544032
56	0x3dd9019d	0.10596011
57	0xbd83d1c2	-0.064364925
58	0xbe69e07b	-0.22839539
59	0x3e9baae4	0.30403817
60	0x3e5f3676	0.21798119
61	0xbe1dfd89	-0.15428747
62	0xbe16d325	-0.14728983
63	0xbea90453	-0.33011112
64	0x3e2540c5	0.16137989
65	0x3d0aebd0	0.033916295
66	0xbdc324b3	-0.09528484
67	0xbde397d8	-0.11112946
68	0x3c38285a	0.011240089
69	0x3e063c2f	0.13108896
70	0x3d8603a4	0.06543663
71	0xbe28a8a6	-0.16470584
72	0xbc0e5c23	-0.008688959
73	0x3e524a05	0.20536049
74	0xbe1bb35b	-0.15205137
75	0xba5fc029	-0.0008535409
76	0xbe419da4	-0.18907791
77	0x3e384455	0.17994817
78	0xbd2328d6	-0.039833866
79	0xbe3625b8	-0.17787826
80	0x3ca225bd	0.019793386
81	0xbb076c46	-0.0020663901
82	0xbdb148e9	-0.08656485
83	0xbc256a57	-0.010096154
84	0xbc39ffb5	-0.011352469
85	0x3c35d900	0.0110991
86	0xbb6bfbf9	-0.0036008342
87	0x3c419dcc	0.011817407
88	0x3dadacdb	0.08480235
89	0xbd1581b6	-0.036500655
90	0x3d7cb313	0.061694216
91	0xbd4a46f0	-0.049384058
92	0x3cbce513	0.02305845
93	0xbdcfad8d	-0.10140524
94	0x3da98cea	0.0827883
95	0xbc9f5338	-0.019448861
96	0xbc1a18f9	-0.009405368
97	0xbd988a56	-0.074482605
98	0xbe051f5c	-0.13000244
99	0x38b289af	8.513347e-05
100	0xbe928297	-0.28615257
101	0x3dd41193	0.103549145
102	0x3d9b460c	0.0758172
103	0xbe890534	-0.26761782
104	0x3d90eaf8	0.07076067
105	0xbd599ca8	-0.053127915
106	0x3d09d8a4	0.03365387
107	0xbed72ee3	-0.4202796
108	0x3dcba3f9	0.09943385
109	0x3e71efce	0.23626634
110	0x3e782277	0.24231897
111	0x3e84df5b	0.25951657
112	0xbe51b4fa	-0.20479193
113	0xbe894319	-0.26809004
114	0xbe3de7ab	-0.18545406
115	0xbe37e84b	-0.17959706
116	0x3e3fd5bb	0.18733875
117	0xbd64d6da	-0.05586896
118	0xbe101928	-0.14072096
119	0x3e0cc08c	0.13745326
120	0x3dc49332	0.09598388
121	0x3cc0f8f5	0.023556212
122	0x3de25079	0.11050505
123	0x3bb27c5e	0.0054469546
124	0xbec6f432	-0.3885818
125	0xbdda08fe	-0.106462464
126	0x3de3c915	0.11122338
127	0x3e2a906e	0.16656658
128	0xbe2e52aa	-0.17023721
129	0x3da37bdd	0.079826094
130	0xbe1b3d24	-0.15160042
131	0xbef5b0bb	-0.47986397
132	0xbcf177f4	-0.029476143
133	0xbd1762f8	-0.03695962
134	0xbc3a8e83	-0.0113865165
135	0xbd0942d9	-0.033511017
136	0x3d64312c	0.055710956
137	0x3b23dde1	0.0025004076
138	0xbcb1a09d	-0.021683032
139	0xbc09b97c	-0.008406039
140	0xbc637345	-0.013882463
141	0x3d867e12	0.06567015
142	0xbc49117e	-0.012272237
143	0xbd9ba1fb	-0.07599255
144	0xbdf52791	-0.11970437
145	0x3deb3380	0.11484432
146	0xbd7a6e73	-0.06114049
147	0x3dce3265	0.10068206
148	0xbea5e80d	-0.32403603
149	0xbdbfc408	-0.09363562
150	0xbc408384	-0.011750106
151	0xbeadb163	-0.33924398
152	0x3de3e406	0.111274764
153	0x3e0d8703	0.13821034
154	0xbe00cd1c	-0.12578243
155	0xbd4ad296	-0.049517237
156	0xbd896f3e	-0.06710671
157	0xbeb26d17	-0.34848854
158	0x3ec640b8	0.3872125
159	0x3c28d140	0.010303795
160	0xbe76713e	-0.24066636
161	0xbd7e904e	-0.06214934
162	0xbda45ef8	-0.08025926
163	0x3daf5121	0.08560396
164	0x3e67fbda	0.22654667
165	0x3eee43ae	0.4653601
166	0xbe91f634	-0.2850815
167	0x3e541265	0.20710142
168	0xbd70329f	-0.058642026
169	0x3c4bf0f8	0.012447588
170	0xbd4c76d5	-0.049918015
171	0xbccd12b6	-0.025033336
172	0xbefc835f	-0.49318978
173	0xbc76d9d8	-0.015066586
174	0xbe58ec42	-0.21183875
175	0xbd35ce85	-0.044386405
176	0xbcdcdef2	-0.026961777
177	0x3e1dd3bb	0.154128
178	0xbd911afa	-0.070852235
179	0x3c44df8f	0.012016191
180	0x3c93283b	0.01796352
181	0xbba4a91e	-0.005025043
182	0xbd04948d	-0.03236823
183	0x3d0a376b	0.033744257
184	0x3da4da38	0.080494344
185	0x3c0811da	0.008305037
186	0x3d0da136	0.03457757
187	0xbd7f112b	-0.062272232
188	0xbad5dff4	-0.0016317354
189	0x3d2f02ea	0.04272739
190	0xbc2be401	-0.010491372
191	0xbdb5e023	-0.08880641
192	0xbd1f3299	-0.038866613
193	0xbd5a80a4	-0.053345338
194	0x3d85e915	0.065385975
195	0xbdf5dbd5	-0.1200482
196	0xbdeb7fd5	-0.114989914
197	0x3ec5325d	0.38514987
198	0xbdedcdb8	-0.11611503
199	0x3ed25eec	0.41088045
200	0x3d2be71e	0.041968457
201	0x3d964729	0.073377915
202	0xbd45cba0	-0.048289895
203	0xbebc31df	-0.367568
204	0xbe5e46ab	-0.21706645
205	0x3e061303	0.1309319
206	0xbd46a718	-0.048499197
207	0xbb7c8c7c	-0.0038535884
208	0xbe992faf	-0.29919192
209	0x3e2cfa20	0.1689229
210	0xbe54c6bb	-0.20778935
211	0xbe5e3ca7	-0.21702825
212	0x3ed465f1	0.41484025
213	0x3e2313d6	0.15925536
214	0xbe4e0269	-0.20118107
215	0x3ee0665e	0.438281
216	0xbdbd0eaa	-0.092313126
217	0x3d9d8e0b	0.07693108
218	0xbe3034da	-0.17207661
219	0xbe8e6e9a	-0.27818757
220	0xbc5e0989	-0.013552078
221	0x3d02d364	0.03193988
222	0xbd7ef318	-0.06224355
223	0xbe8b505e	-0.27209753
224	0x3e9bf7f2	0.30462605
225	0xbbd3a74a	-0.0064591514
226	0xbe604369	-0.21900715
227	0x3e834d0a	0.25644714
228	0xbd76eb46	-0.060282968
229	0xbd1c3750	-0.038138688
230	0x3ba21bf7	0.0049471813
231	0xbd5a7594	-0.053334787
232	0xbce4b987	-0.027920498
233	0xbdb6d87c	-0.0892801
234	0xbd6e9a6e	-0.058252744
235	0x3da277dc	0.079330176
236	0xbdc88fc2	-0.097930446
237	0x3cba558d	0.022745872
238	0xbd090863	-0.033455264
239	0x3de66582	0.1124983
240	0x3e06ddf6	0.13170609
241	0x3d424bab	0.047435444
242	0x3e295ce9	0.16539349
243	0x3ca4d00f	0.020118741
244	0xbd17d231	-0.03706569
245	0xbb0e9421	-0.0021755772
246	0xbe1d8749	-0.15383638
247	0x3ee16555	0.44022623
248	0x3d19cd61	0.03754938
249	0x3b344d9b	0.0027512077
250	0xbe1faa9d	-0.15592428
251	0xbef39a95	-0.47578874
252	0x3f0c19bb	0.5472676
253	0x3d832b08	0.06404692
254	0xbd4b0a62	-0.04957045
255	0x3e46423c	0.19361204

bias f4 [512]
0	0xbdf5ba74	-0.11998454
1	0xbe57bd8f	-0.21068405
2	0x3dcd23aa	0.10016568
3	0xbdd9e937	-0.10640185
4	0x3d15d974	0.036584333
5	0xbe185f9c	-0.14880222
6	0xbdb49195	-0.0881683
7	0xbe0c7021	-0.13714649
8	0x3cef3e7d	0.029204601
9	0x3da903a9	0.08252651
10	0xba59f95d	-0.0008315051
11	0x3d98f0e9	0.07467825
12	0x3d7598cf	0.059960183
13	0x3d5a1977	0.05324694
14	0xbc657c52	-0.014006691
15	0xbe44607c	-0.19177431
16	0xbdb2489f	-0.087052576
17	0x3cdaf97d	0.026730293
18	0xbe1187ec	-0.14212006
19	0x3e05ffb6	0.13085827
20	0xbd2b970a	-0.04189209
21	0xbe2ebf98	-0.17065275
22	0xbe7b2fe8	-0.24529994
23	0xbcf624f0	-0.03004691
24	0xbe0f2a70	-0.13981032
25	0x3db153ac	0.08658537
26	0xbe2edd40	-0.17076588
27	0x3e0f1df0	0.13976264
28	0x3a93b5ca	0.0011269387
29	0x3e05c9f8	0.13065326
30	0x3aef5888	0.0018260637
31	0xbe34dd32	-0.17662504
32	0xbe394191	-0.18091418
33	0xbdd8ae91	-0.10580171
34	0xbdf91753	-0.12162652
35	0x3e0ce759	0.13760127
36	0x3d99c264	0.0750778
37	0x3dc37f03	0.0954571
38	0x3d244ef7	0.04011437
39	0xbd12743a	-0.035755374
40	0x3db5b119	0.08871669
41	0xbdc07bbb	-0.093986
42	0xbd03ee78	-0.032209843
43	0x3e1258ab	0.14291637
44	0xbd5e4f59	-0.05427489
45	0x3ccd81bd	0.025086278
46	0xbe313d5a	-0.1730856
47	0xbe1639cd	-0.14670487
48	0xbde63adc	-0.11241695
49	0x3d45d5c6	0.048299573
50	0xbe38a96f	-0.18033384
51	0x3c75fdac	0.015014093
52	0x3dbe68fb	0.09297367
53	0xbe313d69	-0.17308582
54	0xbd6906e8	-0.056891352
55	0xbc1f9b8c	-0.009741675
56	0x3d98c678	0.0745973
57	0xbde5e6c8	-0.11225659
58	0x3dbacc46	0.09120993
59	0x3bff658f	0.007794089
60	0x3d239707	0.039938953
61	0x3d00ec25	0.031475205
62	0x3c2947b9	0.010332041
63	0x3dd80d58	0.1054942
64	0xbda6d795	-0.08146588
65	0x3d8c0616	0.06837098
66	0x3d9f48cc	0.07777557
67	0x3d36d0b3	0.044632625
68	0x3d6850aa	0.056717552
69	0x3d8cf90c	0.068834394
70	0xbdc7f367	-0.09763222
71	0xbe3cb336	-0.18427739
72	0xbdc7e943	-0.09761288
73	0x3db59721	0.08866716
74	0xbe472111	-0.19446208
75	0x3d893d8a	0.06701191
76	0xbd8b456f	-0.06800353
77	0xbd1d1526	-0.038350247
78	0x3de8c76f	0.11366164
79	0xbe382394	-0.17982322
80	0x3d50ddf4	0.05099292
81	0x3d84afe3	0.0647886
82	0xba5744e4	-0.00082118646
83	0xbd9189c7	-0.07106357
84	0xbe03504e	-0.12823603
85	0x3cfadb46	0.030622136
86	0xbc40fad3	-0.011778551
87	0xbbc394cd	-0.005968666
88	0xbdbe22f6	-0.09284012
89	0x3ced6bd2	0.028982077
90	0xbd42bcea	-0.047543444
91	0x3dcf03f5	0.101081766
92	0xbb30e718	-0.0026993211
93	0xbdabcdec	-0.08388886
94	0xbd505c69	-0.05086938
95	0xbd9dced6	-0.077054664
96	0xbb941374	-0.0045189206
97	0x3dc0aa5a	0.09407492
98	0xbe491b07	-0.19639216
99	0xbd99c3e5	-0.07508067
100	0xbdda1bd7	-0.10649841
101	0xbcd1483c	-0.02554714
102	0x3d2e515a	0.04255805
103	0xbd26c6cb	-0.040716927
104	0x3db4e1b4	0.08832112
105	0xbd9ef4bb	-0.077615224
106	0xbe583f94	-0.21118003
107	0xbd9fcb4a	-0.07802446
108	0xbc6aec7d	-0.01433861
109	0xbc98290f	-0.018574266
110	0x3c43dd4a	0.011954615
111	0xbe17686b	-0.14785926
112	0xbcde44cb	-0.027132412
113	0xbd3e9cbb	-0.04653619
114	0x3e184f64	0.14874035
115	0xbd2ec843	-0.042671453
116	0x3da90ca8	0.08254367
117	0xb9c7f1fd	-0.00038136533
118	0x3dccd693	0.10001864
119	0x3d5924bb	0.053013545
120	0xbddfd6fb	-0.10929676
121	0xbd2bb980	-0.041924953
122	0xbdf500a2	-0.11963011
123	0xbd731539	-0.05934641
124	0xbd642a24	-0.05570425
125	0xbe4608c7	-0.19339286
126	0x3cad4fac	0.021156155
127	0xbded08f9	-0.11573977
128	0xbde74c74	-0.11293879
129	0xbdf59e21	-0.11993051
130	0x3d441c12	0.047878332
131	0x3c6b8ab4	0.014376331
132	0x3d578168	0.052613646
133	0xbdce4ed3	-0.10073628
134	0xbd024a67	-0.031809237
135	0xbcb6b6f1	-0.02230403
136	0xbe14387f	-0.14474677
137	0x3d742b1b	0.05961142
138	0x3e2ce366	0.1688362
139	0x3dae46b4	0.08509579
140	0xbe19be2f	-0.15013956
141	0x3dc899bd	0.09794948
142	0x3d92154e	0.0713297
143	0xbd0c2124	-0.034211293
144	0xbd9af36c	-0.0756596
145	0xbb51d7ce	-0.0032019499
146	0x3cfee6ad	0.031115854
147	0xbd3c5d07	-0.045987155
148	0xbe04f23a	-0.12983027
149	0x3d48ad05	0.04899313
150	0xbe17a3d5	-0.1480859
151	0x3cdc7e79	0.026915776
152	0x3cf577fa	0.029964436
153	0xbe03b3a0	-0.1286149
154	0xbdef11bf	-0.11673307
155	0xbaee1422	-0.0018163959
156	0x3cfe75c3	0.031062013
157	0xbe25bcb9	-0.16185273
158	0x3e04ae40	0.12957096
159	0x3d6bb2a7	0.057543423
160	0xbda0db20	-0.07854295
161	0xbda9a1ae	-0.08282791
162	0xbdd66be4	-0.10469797
163	0xbcd77be9	-0.026304202
164	0xbe1d36e5	-0.15352972
165	0xbdaf711d	-0.085664965
166	0xbe0faca0	-0.14030695
167	0xbc0b312f	-0.008495613
168	0xbe13fd9b	-0.14452212
169	0xbce621fb	-0.028092375
170	0xbe32110f	-0.1738932
171	0xbda08198	-0.07837218
172	0xbdd44f51	-0.10366691
173	0x3db1c065	0.086792745
174	0xbd83f888	-0.06443888
175	0xbe34ddda	-0.17662755
176	0xbda682a8	-0.081303895
177	0xbe072d8f	-0.13200973
178	0xbe687605	-0.22701271
179	0xbe27b5f0	-0.16377997
180	0xbdcdca47	-0.10048347
181	0xbd96094f	-0.07325994
182	0x3d87def2	0.0663432
183	0xbe96c02a	-0.29443485
184	0xbd18d490	-0.03731209
185	0x3dacd6fb	0.08439442
186	0xbe1861e5	-0.14881094
187	0xbd00a094	-0.03140314
188	0x3d86df24	0.065855294
189	0xbd7dbce7	-0.06194773
190	0x3bf1d210	0.0073797777
191	0xbd318e04	-0.043348327
192	0x3cf5ebfa	0.030019749
193	0xbc94f43c	-0.018182866
194	0xbdd29fd0	-0.10284388
195	0xbbc2887d	-0.005936681
196	0xbd51f75e	-0.0512613
197	0x3d84dc32	0.064873114
198	0x3ddb9cac	0.10723242
199	0xbda61ae7	-0.081106
200	0xbcb7d824	-0.022441931
201	0x3d325ee0	0.04354751
202	0x3d68dd88	0.056851894
203	0xbd709b86	-0.05874207
204	0xbdfa9bd3	-0.12236752
205	0xbe6e133a	-0.23249522
206	0xbd48a5da	-0.048986293
207	0x3dab7045	0.08371023
208	0xbdf82273	-0.12115946
209	0xbe38b667	-0.18038331
210	0xbc1f8f04	-0.009738687
211	0xbc59f304	-0.013302568
212	0xbd0a3214	-0.033739164
213	0xbc23e2be	-0.01000279
214	0xbe12ee50	-0.14348722
215	0xbe03d5fa	-0.12874594
216	0xbd5b1bbe	-0.053493254
217	0xbe05c064	-0.13061672
218	0xbd16bc2b	-0.036800545
219	0x3d25caf1	0.040476743
220	0x3d840e51	0.06448043
221	0xbd9e32ce	-0.07724534
222	0x3d5a2df6	0.053266488
223	0xbd8d2eaa	-0.06893666
224	0x3dbb811c	0.09155485
225	0xbd7c3bcf	-0.061580475
226	0x3d0003c1	0.03125358
227	0x3d2548ab	0.040352505
228	0xbe16f280	-0.14740944
229	0xbddcb70b	-0.107771
230	0x3d8b83bb	0.06812235
231	0xbd3bd981	-0.045861725
232	0xbe1015fb	-0.14070885
233	0xbe106ecf	-0.1410477
234	0xbdda3102	-0.10653879
235	0xbd018fb4	-0.031631187
236	0x3d8f5470	0.06998527
237	0xbe2dc047	-0.16967879
238	0xbdbb4839	-0.09144635
239	0x3e168649	0.14699663
240	0x3d0dc57b	0.03461216
241	0xbc9e60db	-0.019333294
242	0xbe1e6481	-0.15468027
243	0xbce3b536	-0.027796369
244	0xbe2854a0	-0.16438532
245	0x3b2ce6c9	0.0026382676
246	0xbde0fd92	-0.10985865
247	0xbb9efd3d	-0.0048519657
248	0xbe16ba2b	-0.14719455
249	0xbdfa2a81	-0.12215138
250	0xbdc112cb	-0.094274126
251	0xbd198225	-0.03747763
252	0x3cb3591e	0.02189308
253	0x3db75ca4	0.08953217
254	0x3cbf44a9	0.02334817
255	0x3d87d3d9	0.066322036

weight f4 [256, 512]
0	0x3e0a43ba	0.13502398
1	0x3c51ac84	0.012797479
2	0x3e057565	0.13033064
3	0x3deacede	0.11465238
4	0x3db5f3ba	0.08884378
5	0x3dac15f5	0.084026255
6	0x3e3d0579	0.18459119
7	0xbd2c31ee	-0.042039804
8	0xbe00023e	-0.12500855
9	0x3dbefe9e	0.09325908
10	0xbd65423e	-0.055971377
11	0xbd155e34	-0.036466792
12	0xbd2871c0	-0.041124105
13	0xbddcf046	-0.10788016
14	0xbcafaf85	-0.021445999
15	0x3da08b53	0.07839074
16	0x3e0d128b	0.13776605
17	0x3d2c9b53	0.042140316
18	0xbb0cf5f7	-0.002150891
19	0xbd2646d8	-0.040594906
20	0xbe1f87fe	-0.1557922
21	0x3dcca511	0.099924214
22	0x3e41f38d	0.18940563
23	0x3b614311	0.003437225
24	0xbd15efe0	-0.036605716
25	0x3e1ef9f7	0.15525042
26	0x3d8e6d4c	0.069544405
27	0x3bfdb51b	0.0077425367
28	0xbb3dbd3b	-0.0028951901
29	0x3e1f6fd6	0.15570006
30	0x3db8d97d	0.090258576
31	0xbd20aee0	-0.039229274
32	0xbd8e2ad6	-0.06941764
33	0xbd5f1337	-0.054461684
34	0x3d04c360	0.032412887
35	0xbc878555	-0.01654307
36	0xbc25ea2c	-0.010126632
37	0x3d22b07a	0.039719082
38	0x3cee60f7	0.02909897
39	0xbe1d3ba6	-0.15354785
40	0x3d400af5	0.04688545
41	0x3c4ca0dc	0.012489524
42	0x3d653f71	0.055968706
43	0xbdab96e1	-0.08378387
44	0x3d1beb61	0.03806627
45	0xbca42d2a	-0.020041067
46	0x3da30515	0.07959954
47	0x3d8b7cdc	0.068109244
48	0x3d66c76d	0.05634253
49	0xbe17aed9	-0.14812793
50	0x3e41ae5f	0.18914174
51	0x3d90af2b	0.07064661
52	0xbd26d5e3	-0.040731322
53	0xbd3cb9c0	-0.046075583
54	0xbdfbb5e0	-0.12290549
55	0x3de9cb1f	0.114156954
56	0xbe269876	-0.16269097
57	0xbd38b38f	-0.045093115
58	0xbc9bbfbf	-0.01901233
59	0x3df51be8	0.11968213
60	0x3dbda6e2	0.09260346
61	0xbd4cf1f5	-0.050035436
62	0xbacf90f5	-0.0015836047
63	0xbcd7bc91	-0.026335033
64	0x3c5ad4be	0.013356386
65	0x3d943c1d	0.07238028
66	0xbba12aed	-0.004918447
67	0x3d2fb65c	0.04289852
68	0x3c85c412	0.016328845
69	0x3e160855	0.14651616
70	0xbdcd6300	-0.100286484
71	0x3d3d1dfa	0.046171166
72	0xbd3857b9	-0.045005534
73	0x3d2ec38f	0.042666968
74	0x3c3ba499	0.011452817
75	0xbd698960	-0.057015777
76	0x3d768889	0.060188804
77	0xbd82df4a	-0.06390245
78	0xbe2b19f8	-0.16709125
79	0x3dd6bfaf	0.104857795
80	0xbe198d16	-0.14995226
81	0xbd9d8857	-0.076920204
82	0xbdb8302e	-0.089935645
83	0x3dcfa051	0.10138
84	0xbbd553ef	-0.00651025
85	0xbda178c5	-0.07884363
86	0x3e2364eb	0.15956466
87	0xbc9e7ef0	-0.019347638
88	0xbd921481	-0.07132817
89	0x3d4fb75c	0.050711975
90	0x3dc5dd8b	0.096613966
91	0x3e18b71b	0.14913599
92	0xbd9ec478	-0.07752317
93	0xbdc71f60	-0.09722781
94	0xbcbab6d6	-0.022792261
95	0x3d237d74	0.039914563
96	0xbdc3b749	-0.09556443
97	0xbd347cf4	-0.044064477
98	0xbc748381	-0.014923931
99	0xbdc233ab	-0.09482511
100	0x3c1d5990	0.009603873
101	0xbc6319f7	-0.013861171
102	0xbd728efe	-0.0592184
103	0x3d972ab6	0.07381193
104	0xbdcf3a87	-0.10118585
105	0x3d157c59	0.03649554
106	0x3e29d452	0.165849
107	0x3e177df4	0.14794141
108	0xbbed08e7	-0.0072337273
109	0xbdaed848	-0.08537346
110	0x3d168955	0.036752064
111	0x3c1bdb22	0.009512695
112	0xbd01b5b1	-0.031667415
113	0xbe46f001	-0.19427492
114	0xbcb34565	-0.021883676
115	0x3ca9045d	0.020631963
116	0xbdc2df7e	-0.09515284
117	0x3c92d37b	0.017923107
118	0xbd1ba8aa	-0.038002647
119	0xbd94e800	-0.07270813
120	0xbd38baf7	-0.04510018
121	0xbd63ec37	-0.055645194
122	0x3dbfb30c	0.09360322
123	0xbd28ee16	-0.04124268
124	0x3b85f624	0.00408818
125	0x3ce64a9a	0.028111745
126	0x3e286e03	0.16448216
127	0x3b8046bd	0.0039146827
128	0xbd9b8deb	-0.07595428
129	0x3d2ce59e	0.042211168
130	0xbbbde9ce	-0.005795694
131	0x3dc07d3a	0.09398885
132	0xbdc60ed0	-0.09670794
133	0x3c4e7f61	0.012603612
134	0x3d8e0b5b	0.0693576
135	0xbb3bd8c3	-0.0028663136
136	0xbdd3c8e8	-0.10341054
137	0xbd2ec402	-0.042667396
138	0x3cbe6d2a	0.023245413
139	0xbcc4ae4e	-0.024008896
140	0x3e23dc75	0.16002066
141	0xbd1f63bb	-0.03891347
142	0xbd670f2f	-0.056410965
143	0xbd245a91	-0.040125433
144	0xbadb07d2	-0.0016710705
145	0x3d74bb73	0.059749078
146	0x3ded444d	0.11585293
147	0xbe067c7b	-0.13133423
148	0xbdeccffb	-0.115631066
149	0x3c9e3229	0.019311028
150	0xbd810c45	-0.06301168
151	0xbb4f1a8e	-0.0031601521
152	0xb95a27f5	-0.00020804985
153	0x3e1cd441	0.15315343
154	0x3bd3774d	0.0064534307
155	0x3e084a99	0.13309707
156	0x3dfe522b	0.12418016
157	0x3bff5fb1	0.0077933897
158	0x3c62c328	0.013840474
159	0xbe376280	-0.17908669
160	0x3e04eb1f	0.12980317
161	0x3e120276	0.14258751
162	0x3db2d66c	0.08732304
163	0xbdcd7faa	-0.100341156
164	0x3cf57fd6	0.029968183
165	0xba8783db	-0.0010338979
166	0xbde06bb1	-0.109580405
167	0x3db0aaf0	0.08626354
168	0xbb34cb23	-0.00275869
169	0x3dd3506e	0.10318075
170	0xbdd4a9d4	-0.10383955
171	0x3df5acd7	0.11995857
172	0xbd0d66f4	-0.034522012
173	0xbd3c2f98	-0.045943826
174	0xbd60173c	-0.054709658
175	0xba25bd84	-0.00063224905
176	0x3e0966fc	0.13418192
177	0x3cf12678	0.029437289
178	0xbc8b2d01	-0.016989233
179	0xbda6f4b3	-0.081521414
180	0x3d5e1cab	0.05422656
181	0x3d098766	0.03357639
182	0x3cd9a122	0.026566092
183	0x3e14ea51	0.1454251
184	0x3dd1ea06	0.102497146
185	0xbcd920ea	-0.026504952
186	0x3d599187	0.0531173
187	0xbe0697cc	-0.13143843
188	0x3b006522	0.001959153
189	0x3d1363cb	0.035983842
190	0xbcfb7ac4	-0.030698188
191	0x3ca61214	0.020272292
192	0x3d4a8eb5	0.049452502
193	0x3d8dfc20	0.06932855
194	0x3cc4b772	0.024013255
195	0xbd638d8c	-0.05555491
196	0xbc86f49c	-0.01647406
197	0x3c456f13	0.012050408
198	0xbbe6201f	-0.007022872
199	0x3d81d8f0	0.06340206
200	0xbdc9e8f8	-0.098588884
201	0x3dbc4a28	0.09193832
202	0x3bd3ba86	0.0064614443
203	0x3db533f9	0.088478036
204	0xbd79b1de	-0.060960643
205	0x3de08c8a	0.10964306
206	0x3e391d64	0.18077618
207	0xba897c52	-0.0010489321
208	0xbdcb883d	-0.09938095
209	0x3d21f4c3	0.039540064
210	0xbd942527	-0.07233649
211	0x3df3b65b	0.11900016
212	0x3e02a6f2	0.12758997
213	0x3d506571	0.050877992
214	0xbdc44a7e	-0.09584521
215	0x3d9b6b3e	0.07588814
216	0x3cbd8a63	0.023137277
217	0x3ba373e6	0.0049881814
218	0x3d72ee30	0.059309185
219	0xbdc6b1ae	-0.097018585
220	0x3df3e470	0.11908805
221	0xbb7f6ab8	-0.0038973521
222	0xbe369a3e	-0.17832276
223	0xbce1d7c3	-0.027568704
224	0x3c091092	0.008365767
225	0x3cafe060	0.021469295
226	0x3decc212	0.115604535
227	0x3d94203e	0.07232712
228	0x3cfee3b0	0.03111443
229	0x3c7b448e	0.015336169
230	0xbd4ec7dc	-0.05048357
231	0x3e359fee	0.1773679
232	0x3cdbed5d	0.026846582
233	0x3cdb6dcf	0.02678576
234	0xbe0f3457	-0.1398481
235	0x3cafda31	0.021466346
236	0x3d880c81	0.0664301
237	0xbd1bea56	-0.038065277
238	0x3d1c3e9e	0.038145654
239	0xbcfa56a5	-0.030558893
240	0x3bd5ad42	0.006520898
241	0x3d999460	0.074990034
242	0x3c9c5d85	0.019087562
243	0x3d55fe68	0.052244574
244	0xbda521aa	-0.080630615
245	0xbd9b0fc9	-0.0757137
246	0xbd208631	-0.039190475
247	0xbd0f374d	-0.03496485
248	0xbd8244f1	-0.06360806
249	0xbcd9dab9	-0.026593553
250	0xbcbee3e8	-0.023302034
251	0xbd3deca3	-0.046368252
252	0x3ddb2025	0.106994905
253	0x3d5c47bc	0.05377935
254	0x3d123502	0.035695083
255	0x3ddef03e	0.10885666

bias f4 [256]
0	0xbd4ff14b	-0.050767224
1	0xbdde141d	-0.1084368
2	0xbcda69d0	-0.026661783
3	0xbe0ae24a	-0.13562885
4	0xbe33a3a2	-0.1754289
5	0x3c30ebb7	0.010798386
6	0xbd5436d0	-0.051810086
7	0xbdd8b088	-0.10580546
8	0xbdea6141	-0.11444331
9	0xbe029748	-0.12753022
10	0xbd914d9d	-0.07094882
11	0x3caa3ca6	0.020780873
12	0xbd7d9ed2	-0.06191904
13	0x3d4c549f	0.04988539
14	0xbdf7784e	-0.12083493
15	0xbd62324b	-0.055223744
16	0xbc42d022	-0.011890443
17	0x3b0c269c	0.0021385318
18	0xbdb97cfb	-0.09057041
19	0xbcf99cc6	-0.030470263
20	0xbd63433f	-0.055484053
21	0xbdc09f29	-0.094053574
22	0xbdee4907	-0.116350226
23	0xbd054406	-0.032535575
24	0xbdbe2e24	-0.092861444
25	0xbbb372bd	-0.0054763244
26	0xbda6984f	-0.08134519
27	0xbdcc13f4	-0.09964743
28	0x3c28b267	0.010296441
29	0xbd6d08d1	-0.057869736
30	0xbe08db9a	-0.13365021
31	0xbe0c3b2d	-0.13694449
32	0xbd20572d	-0.039145637
33	0xbcf8530e	-0.030313041
34	0xbdc001ce	-0.09375344
35	0xbe1c6844	-0.15274149
36	0xbd815b5a	-0.06316252
37	0xbdca9192	-0.098910466
38	0xbe066e5a	-0.13128033
39	0xbc2a637d	-0.010399696
40	0xbdbcc369	-0.09216959
41	0xbde2ba07	-0.11070638
42	0xbe4022d2	-0.18763283
43	0xbe3166d8	-0.17324388
44	0xbd27aa1a	-0.040933706
45	0xbdae2209	-0.085025854
46	0xbd880e1c	-0.06643316
47	0xbd006788	-0.031348735
48	0x3be50ca5	0.0069900327
49	0xbd1a34cd	-0.03764801
50	0xbdf11819	-0.117721744
51	0xbdf3d95a	-0.11906691
52	0xbc3bf2e3	-0.011471483
53	0xbda3c592	-0.07996668
54	0xbd3cd45e	-0.046100967
55	0xbce7ded9	-0.028304504
56	0xbc6a6d6d	-0.014308316
57	0xbd3e1056	-0.046402298
58	0xbdc71c58	-0.09722203
59	0x3d149261	0.03627241
60	0xbd9e55f5	-0.07731239
61	0xbd42edd4	-0.04759009
62	0xbd82db6c	-0.06389508
63	0xbe19ade9	-0.15007748
64	0xbe0736c4	-0.13204485
65	0xbd9bd031	-0.07608069
66	0xbdb3549d	-0.08756373
67	0xbdcaeb5e	-0.09908174
68	0xbbb8e9ac	-0.0056430902
69	0xbc47e173	-0.012199747
70	0xbc06ddee	-0.008231623
71	0xbcb0af98	-0.021568105
72	0xbdf25b19	-0.11833782
73	0xbd85d8a0	-0.065354586
74	0xbd3107b0	-0.043220222
75	0x3c1161f9	0.008873456
76	0xbd18c859	-0.03730044
77	0xbd951d81	-0.07281018
78	0xbdebae3e	-0.115078434
79	0xbda81e26	-0.08208875
80	0xbe09ca44	-0.13456064
81	0x3c820891	0.015873225
82	0xbe07d9fa	-0.13266745
83	0xbd4374d0	-0.047718823
84	0xbdd9f303	-0.10642054
85	0xbe0aeefe	-0.13567731
86	0xbe31e8b5	-0.17373927
87	0xbdc72b33	-0.097250365
88	0xbe13caf2	-0.14432886
89	0xbd3410b9	-0.04396126
90	0xbd66c82f	-0.056343254
91	0xbd25d945	-0.040490407
92	0xbc84c325	-0.016206333
93	0xbdab50d9	-0.0836503
94	0xbdccd5f7	-0.10001748
95	0xbdaf7697	-0.08567541
96	0xbd865b2b	-0.06560358
97	0x3a041267	0.00050381426
98	0xbde466b4	-0.111524016
99	0xbd4c8fcc	-0.049941823
100	0xbdc928a6	-0.09822206
101	0xbd05bbc1	-0.03264976
102	0xbdf8000d	-0.12109385
103	0xbdc7ebaa	-0.09761746
104	0xbd197cea	-0.037472643
105	0xbda890e8	-0.08230764
106	0xbdda9baf	-0.106742255
107	0xbdcde255	-0.10052935
108	0xbd981dfc	-0.07427594
109	0xbdcd00c0	-0.10009909
110	0xbbe3446a	-0.006935646
111	0xbdc24cbb	-0.094872914
112	0xbcf41a17	-0.029797597
113	0xbe056914	-0.13028365
114	0xbd67eb84	-0.05662109
115	0xbe1bc4b6	-0.15211758
116	0xbd206bf8	-0.039165467
117	0xbd93d405	-0.07218174
118	0xbbdaf771	-0.0066823293
119	0xbb96cef2	-0.0046023065
120	0xbd8718bd	-0.06596515
121	0xbd7b28d3	-0.06131823
122	0xbdae71eb	-0.08517822
123	0xbdc46b23	-0.09590747
124	0x3cc046ad	0.0234712
125	0xbdaa732c	-0.083227485
126	0xbc14408e	-0.009048594
127	0xbd7b9672	-0.061422773
128	0xbc952d63	-0.018210119
129	0xbcbc67ce	-0.022998717
130	0xbd2a779f	-0.041617986
131	0xbd5a9a40	-0.05336976
132	0xbd274344	-0.040835634
133	0xbdb40fda	-0.08792086
134	0xbdf8ebc7	-0.12154346
135	0xbe4bc64e	-0.19899866
136	0xbd9b692e	-0.07588421
137	0xbddfb358	-0.10922879
138	0xbdce4975	-0.100726046
139	0xbda1e0f7	-0.07904237
140	0xbded710c	-0.115938276
141	0xbe05f81a	-0.13082924
142	0xbe37553b	-0.17903607
143	0xbdbd156a	-0.092326
144	0xbc56b252	-0.013104038
145	0xbe1479d8	-0.14499605
146	0xbddea8f0	-0.10872066
147	0xbdaa57f5	-0.08317558
148	0xbde2bc8f	-0.11071121
149	0xbd33abbd	-0.043864954
150	0xbdcd0da9	-0.10012371
151	0xbe00eb4c	-0.12589759
152	0xbd5739a0	-0.05254519
153	0xbdd93ba5	-0.106070794
154	0xbd8d707a	-0.06906219
155	0x3d574882	0.052559383
156	0xbc455548	-0.012044258
157	0xbe340496	-0.17579874
158	0x3cf441b9	0.029816495
159	0xbcdaf62f	-0.026728718
160	0xbdef5401	-0.11685944
161	0x3bc208eb	0.0059214733
162	0xbd4945aa	-0.049138702
163	0xbddad75f	-0.1068561
164	0xbccc6236	-0.024949174
165	0xbe38185d	-0.17978044
166	0xbdbbe2d4	-0.091741234
167	0xbd693020	-0.05693066
168	0xbd8d8485	-0.06910042
169	0xbca3a93a	-0.019978154
170	0xbd92ac20	-0.071617365
171	0xbda2a352	-0.07941307
172	0x3d660c07	0.056163814
173	0xbd585f3f	-0.05282521
174	0xbe750eb1	-0.23931386
175	0xbdb52f55	-0.088469185
176	0xbb39709f	-0.0028295887
177	0xbe1eb2fa	-0.15497962
178	0xbde60a11	-0.11232389
179	0xbd909aa6	-0.07060747
180	0xbd7df509	-0.06200126
181	0xbd67a0d4	-0.056549862
182	0xbd963dad	-0.073359825
183	0xbcaccd12	-0.021093879
184	0xbdc99031	-0.098419555
185	0xbd8645f2	-0.0655631
186	0xbcd24f93	-0.02567271
187	0xbd302a51	-0.043009106
188	0xbddbd6f7	-0.10734361
189	0xbdfad5e1	-0.122478254
190	0xbda92d14	-0.08260551
191	0xbda36722	-0.079786554
192	0xbd9b6f14	-0.07589546
193	0xbdde6d71	-0.10860718
194	0xbd4975aa	-0.04918448
195	0xbdf4cb29	-0.11952812
196	0xbe40d1b9	-0.18830003
197	0xbcdf7aa4	-0.02728016
198	0xbd41288b	-0.047157805
199	0xbdd21a27	-0.102588944
200	0xbd91d9e1	-0.07121635
201	0xba3ed1c6	-0.00072791835
202	0xbddfd573	-0.10929384
203	0xbd56a262	-0.052400954
204	0xbe035119	-0.12823905
205	0xbe023021	-0.12713672
206	0xbc31cf2d	-0.010852617
207	0xbd28b3d0	-0.041187108
208	0xbdc8a8d5	-0.09797827
209	0xbdc5d7c4	-0.09660295
210	0xbde412ea	-0.1113642
211	0xbc67ed0e	-0.014155639
212	0xbdfaf48c	-0.12253675
213	0xbd317e5d	-0.0433334
214	0xbdd9c37d	-0.106329896
215	0xbe02e486	-0.12782487
216	0xbd9053c2	-0.070472255
217	0xbdc353d3	-0.095374726
218	0x3c356789	0.011072048
219	0xbdfaaf9e	-0.122405276
220	0xbdbd6f30	-0.09249723
221	0xbd867342	-0.065649524
222	0xbd9c9eff	-0.076475136
223	0xbd379d42	-0.044827707
224	0xbd867a6a	-0.065663174
225	0xbcc7c9eb	-0.024388274
226	0xbcb2c0cb	-0.021820446
227	0xbd95938a	-0.073035315
228	0xbca6a55e	-0.020342525
229	0x3bab11e7	0.00522064
230	0xbc4401ee	-0.011963351
231	0xbd1126f6	-0.035437547
232	0xbd679633	-0.056539726
233	0xbdab66ca	-0.08369215
234	0xbdad8c66	-0.084740445
235	0xbe4588c3	-0.19290452
236	0xbdb7bfdc	-0.08972141
237	0xbe1151a9	-0.14191307
238	0x3c83297c	0.016010992
239	0xbd360682	-0.0444398
240	0xbda45548	-0.080240786
241	0xbdc82a08	-0.09773642
242	0xbe45b31c	-0.19306606
243	0xbe0d7d36	-0.13817295
244	0xbe04aea4	-0.12957245
245	0xbcf287f7	-0.029605849
246	0xbc0c2b5f	-0.008555262
247	0xbde18011	-0.11010755
248	0xbda094dd	-0.078408934
249	0xbcf29a3b	-0.029614558
250	0xbd69faaa	-0.057123818
251	0xbd8816b7	-0.066449575
252	0xbd02592e	-0.03182333
253	0xbdab2acd	-0.08357773
254	0xbe0c122d	-0.13678809
255	0xbd84f536	-0.06492083

weight f4 [128, 256]
0	0xbd153ccb	-0.03643493
1	0xbcf5c0d6	-0.029999178
2	0xbc255e66	-0.010093307
3	0xbd48f8f8	-0.04906556
4	0x3dbf3ef3	0.093381785
5	0x3d74eb3d	0.059794653
6	0x3d5981a9	0.05310217
7	0x3c972d06	0.018454086
8	0xbbf9a413	-0.007618436
9	0x3cf677a2	0.030086342
10	0x3d9fb2fa	0.07797809
11	0xba53468e	-0.00080595247
12	0x3d82bf01	0.06384087
13	0xbe0c2cfb	-0.13689034
14	0x3d182dfe	0.037153237
15	0x3c064796	0.008195778
16	0xbd4a78ea	-0.04943172
17	0x3c01accc	0.007914733
18	0xbe01dfe9	-0.12683071
19	0x3ded0925	0.1157401
20	0x3d855d40	0.06511927
21	0xbc92cf31	-0.017921062
22	0x3decf2e0	0.11569762
23	0xbdbb11ee	-0.09134279
24	0x3ca91f6c	0.020644866
25	0xbc474491	-0.012162344
26	0x3dd50936	0.104021475
27	0x3bb3cdd7	0.0054871845
28	0xbe68cf18	-0.2273525
29	0x3cff64e0	0.03117603
30	0xbb922210	-0.004459627
31	0x3e27d42f	0.16389535
32	0x3cf1ff7f	0.029540775
33	0xbd7d2f00	-0.0618124
34	0xbc3fde62	-0.011710735
35	0x3dd9ba90	0.10631287
36	0xbcf01c14	-0.029310264
37	0x3dde1c8b	0.10845288
38	0x3cf9edac	0.030508839
39	0x3d3d350b	0.046193164
40	0x3b6c56b4	0.0036062421
41	0x3d9b6e26	0.075893685
42	0x3cc9c20b	0.02462866
43	0xbddf5f42	-0.10906841
44	0xbadd870f	-0.0016901213
45	0x3d47b770	0.048758924
46	0xbd733faa	-0.059386887
47	0xbb01af4f	-0.001978833
48	0xbd557925	-0.052117486
49	0xbe05caa8	-0.13065588
50	0xbd33e67e	-0.043920986
51	0x3df22436	0.11823313
52	0xbcd589e9	-0.026066737
53	0xbe127231	-0.14301373
54	0x3bd04729	0.006356139
55	0xbd19ef7e	-0.037581913
56	0x3d7dda08	0.06197551
57	0xbbd9df35	-0.006648923
58	0x3d827b05	0.0637112
59	0xbcc48caf	-0.023992864
60	0x3dba1466	0.09085922
61	0xbceed94d	-0.029156351
62	0xbcfe7f98	-0.0310667
63	0xbce615cc	-0.028086565
64	0xbca82ac6	-0.020528208
65	0xbda2388e	-0.07920943
66	0xbded6f37	-0.11593478
67	0xbd00eb5f	-0.031474467
68	0x3b9c4254	0.004768649
69	0x3cfd0ce2	0.030889932
70	0x3d0c156c	0.034200117
71	0xbca7bee3	-0.020476764
72	0x3d100866	0.03516426
73	0x3e035842	0.12826636
74	0xbd18d07e	-0.03730821
75	0x3d75ecfb	0.060040455
76	0x3d466958	0.048440307
77	0x3c2a45ff	0.010392665
78	0x3db21a4d	0.08696423
79	0x3ae5c0ac	0.0017528734
80	0xbc330de7	-0.010928608
81	0xbbfe69bc	-0.0077640694
82	0xbdd26c89	-0.10274608
83	0xbd56808b	-0.052368682
84	0x3cb0a80e	0.02156451
85	0x3e221158	0.15826929
86	0x3c91d99d	0.017803961
87	0x3db8355c	0.089945525
88	0xbde074ea	-0.109597996
89	0x3cc31a17	0.023816152
90	0x3c23d5c8	0.0099997
91	0xbd270fad	-0.040786434
92	0xbca872b8	-0.020562515
93	0x3d473979	0.048638795
94	0x3c680ed1	0.014163689
95	0x3dae8f70	0.08523452
96	0xbe180642	-0.14846137
97	0x3cfb4938	0.030674562
98	0xbde7d8eb	-0.11320671
99	0xbcd72745	-0.026263842
100	0xbc919e23	-0.0177756
101	0x3c0d182d	0.008611721
102	0x3bf78eee	0.0075548803
103	0x3debb43d	0.11508987
104	0xbcd7a780	-0.026324987
105	0x3955e66e	0.00020399105
106	0x3c4375c0	0.011929929
107	0x3dbf7b97	0.09349745
108	0x3d619980	0.05507803
109	0x3d705c44	0.05868174
110	0x3a8b94d1	0.0010649209
111	0xbd85ab4e	-0.065268144
112	0x3c676067	0.014122105
113	0x3d80bff1	0.0628661
114	0x3dcc47f2	0.0997466
115	0x3e0e9bd3	0.1392663
116	0x3d518a19	0.05115709
117	0x3d71032d	0.05884092
118	0x3dca03d0	0.098640084
119	0xbd80435e	-0.06262849
120	0xbc65e579	-0.014031761
121	0xbd3c14e8	-0.045918375
122	0x3be8aeb0	0.0071009025
123	0xbce4cccb	-0.027929684
124	0x3c6cf5e4	0.014462922
125	0xbd33f50a	-0.04393486
126	0xbb07a5bd	-0.0020698153
127	0xbdb2ddf4	-0.087337404
128	0x3de116ee	0.109907016
129	0xbcee553f	-0.029093383
130	0xbd7c4690	-0.06159073
131	0xbc7f8b78	-0.015597217
132	0xbd252e07	-0.0403271
133	0xbca3734f	-0.019952444
134	0x3cb5cd43	0.022192603
135	0x3d150208	0.03637889
136	0xba1ffe72	-0.0006103284
137	0x3d89e4e3	0.0673311
138	0xbdcb1d38	-0.099176824
139	0xbd48b1d1	-0.048997704
140	0xbcd21493	-0.025644576
141	0xbd0902ab	-0.03344981
142	0xbc5e3681	-0.013562799
143	0xbe007786	-0.12545595
144	0x3c84a740	0.016193032
145	0xbdb4c72c	-0.088270515
146	0x3d54ea17	0.051981058
147	0xbc86877d	-0.016422028
148	0xbc14abd3	-0.009074169
149	0xbc6bbd53	-0.0143884
150	0xbdf0dab3	-0.117604636
151	0xbdd7e96e	-0.1054257
152	0x3c12d5a5	0.00896207
153	0xbd3f8146	-0.046754144
154	0x3d734a67	0.059397127
155	0xbd2c2eaa	-0.04203669
156	0x3df82117	0.121156864
157	0x3d3a1614	0.04543121
158	0x3d1755fc	0.036947235
159	0xbd6fc18d	-0.058534194
160	0xbcb03fab	-0.021514734
161	0x3d2698df	0.040673133
162	0xbd0fcf5c	-0.035109863
163	0xbcde003f	-0.027099727
164	0xbcd7e05e	-0.026352104
165	0xbd465dd1	-0.048429314
166	0x3c9e3372	0.01931164
167	0x3c178483	0.009247902
168	0x3e0b69d7	0.13614593
169	0xbc1cecca	-0.009577939
170	0xbc2902a7	-0.010315574
171	0xbd1bb06b	-0.038010042
172	0xbc5d38e7	-0.013502336
173	0x3c40a63e	0.011758385
174	0xbcd16e7d	-0.02556538
175	0xbd947ac7	-0.072499804
176	0xbbe90d3b	-0.007112173
177	0x3cda0587	0.026613964
178	0xbccb6cea	-0.024832208
179	0x3d82a64a	0.06379373
180	0x3e02ad56	0.12761435
181	0xbd131d7e	-0.035916798
182	0xbc4b89e1	-0.01242301
183	0x3d8587ba	0.065200284
184	0xbc9b00ad	-0.01892122
185	0x3cfb6131	0.030685993
186	0xbda21ddb	-0.07915851
187	0xbdae0b01	-0.084981926
188	0xbcda4c4d	-0.026647711
189	0xbd85b8de	-0.06529401
190	0xbcc13d56	-0.023588818
191	0xbcd295fe	-0.025706287
192	0xbcb66f9a	-0.022270013
193	0x3d212ed9	0.039351318
194	0x3dceda06	0.101001784
195	0x3ccf0f33	0.025275802
196	0x3da83ddb	0.08214923
197	0x3d54bdbf	0.05193877
198	0x3e0eacf2	0.13933161
199	0x3c3810c7	0.011234469
200	0xbbcdf123	-0.0062848493
201	0xbdbc8aa2	-0.092061296
202	0xbca3f949	-0.02001633
203	0xbc9b3b99	-0.018949317
204	0xbc52780a	-0.012846002
205	0xbd7cda49	-0.06173161
206	0x3bbe27a0	0.0058030635
207	0xbcc90dfc	-0.024542801
208	0x3d7bccf8	0.06147477
209	0x3b44d423	0.003003367
210	0x3e20468e	0.15651914
211	0xbdcbbc1f	-0.099479906
212	0x3d536a3a	0.051614977
213	0x3d843286	0.06454949
214	0x3cdabeb2	0.026702259
215	0x3ce9d4c7	0.028543843
216	0xbdc7acbf	-0.097497456
217	0x3dc18ced	0.094507076
218	0xbb27ca18	-0.0025602635
219	0x3c2fe3d4	0.010735471
220	0xbddd3192	-0.108004704
221	0xbc9268f8	-0.017872319
222	0x3ddfbc52	0.10924591
223	0x3d48dcab	0.04903857
224	0x3db3bb72	0.08775987
225	0x3d4ba32f	0.04971617
226	0xbd23be04	-0.039976135
227	0xbd20cea5	-0.03925957
228	0x3da07b50	0.0783602
229	0x3da4bbca	0.080436304
230	0x3d6b3a9f	0.057428952
231	0x3df225bf	0.11823606
232	0x3d2a1014	0.04151924
233	0x3d9c39cb	0.07628211
234	0x3b8c7802	0.004286767
235	0x3ca12c01	0.019674303
236	0x3c358545	0.011079137
237	0xbd83f367	-0.0644291
238	0xbe3e10e7	-0.18561135
239	0xbe030119	-0.12793387
240	0x3d5fc727	0.054633286
241	0x3d8ece2d	0.06972919
242	0x3db2a9f5	0.08723823
243	0x3d55748a	0.052113093
244	0x3d26143b	0.040546637
245	0x3d662709	0.05618957
246	0xbd1b1014	-0.03785713
247	0xbc4c8bdb	-0.012484516
248	0x3e25f1f2	0.16205576
249	0xbda8b8a8	-0.082383454
250	0x3d09bcbc	0.033627257
251	0x3cb1c438	0.02170001
252	0x3d95c8a1	0.073136576
253	0xbd7bfe6d	-0.061521936
254	0xbda59204	-0.08084491
255	0xbdd8d24f	-0.10586988

bias f4 [128]
0	0xbc0af18f	-0.008480444
1	0xbdd6b9f0	-0.104846835
2	0xbdea7170	-0.11447418
3	0xbd99828f	-0.07495605
4	0xbc067176	-0.008205762
5	0xbd95240a	-0.072822645
6	0xbb8e985e	-0.0043516597
7	0x3d57d2e3	0.05269135
8	0x3db588d9	0.08863992
9	0xbd901a91	-0.07036317
10	0xbc963427	-0.018335415
11	0x3c8a225c	0.016862087
12	0xbd1dd20c	-0.038530394
13	0xbd5da73a	-0.054114558
14	0xbcbe3704	-0.023219593
15	0xbdb9cc94	-0.09072223
16	0xbd6f6336	-0.058444224
17	0x3d937a05	0.07201008
18	0xbdfba27b	-0.1228685
19	0xbd3d7f54	-0.046264008
20	0x3c56e06d	0.013115031
21	0xbddaa2ff	-0.1067562
22	0xbc3c7a02	-0.011503698
23	0xbe151693	-0.14559393
24	0x3c89c721	0.016818585
25	0xbc31fd32	-0.010863589
26	0x3c243e38	0.0100246
27	0x3d35a06b	0.04434244
28	0xbda4304a	-0.08017023
29	0xbd29549b	-0.04134045
30	0xbd764882	-0.060127743
31	0xbdb8cc76	-0.09023373
32	0xbcf7454f	-0.030184416
33	0xbd2ba414	-0.041904524
34	0xbd8ae02a	-0.06781037
35	0xbd58d304	-0.052935615
36	0xbdb1597d	-0.08659647
37	0xbda20447	-0.07910972
38	0xbc991588	-0.018687025
39	0xbd9e421a	-0.077274516
40	0xbc8b0e20	-0.016974509
41	0xbddfdb31	-0.10930479
42	0x3d7a8ae1	0.0611676
43	0xbdce265d	-0.10065911
44	0xbcaaebae	-0.020864334
45	0xbcfad4b4	-0.030619003
46	0xbe5d6fa7	-0.21624623
47	0xbe0e7bdb	-0.13914435
48	0xbddc80ed	-0.10766778
49	0xbda5e414	-0.08100143
50	0xbd317502	-0.043324478
51	0xbcd459d1	-0.025921734
52	0xbd836a3b	-0.06416746
53	0x3ba382cc	0.0049899574
54	0xbe386f21	-0.18011142
55	0xbe0cf3ec	-0.13764924
56	0x3d0f5211	0.034990374
57	0xbdb031fe	-0.08603285
58	0xbd9d7efc	-0.07690236
59	0xbdec9ec8	-0.115537226
60	0xbd562a3d	-0.052286375
61	0xbcd712c7	-0.02625407
62	0xbd56a901	-0.05240727
63	0xbd963d39	-0.07335896
64	0xbd626236	-0.055269442
65	0xbdbb1a6a	-0.091358975
66	0x3cd4a1c6	0.025956046
67	0xbd994f18	-0.07485789
68	0x3b8a6dd9	0.0042245206
69	0xbcb77eb2	-0.02239928
70	0x3bf0e2fb	0.007351277
71	0xbdbae5b6	-0.09125845
72	0xbd4713bd	-0.04860281
73	0x3bcd888c	0.006272381
74	0x3cb5400c	0.022125266
75	0xbd9777d9	-0.07395906
76	0xbd51fcc7	-0.051266458
77	0xbc2a7a70	-0.010405168
78	0xbdb804a6	-0.089852616
79	0xbd50929a	-0.05092106
80	0xbde70afa	-0.112813905
81	0xbbe3fa25	-0.00695731
82	0x3cb4045a	0.021974731
83	0xbd2619cc	-0.040551946
84	0xbe011624	-0.12606102
85	0xbe47d110	-0.19513345
86	0xbd4a6930	-0.04941672
87	0xbcd1309b	-0.025535872
88	0xbcedd16e	-0.029030528
89	0x3c458c8e	0.012057437
90	0xbd480334	-0.04883118
91	0x3d9ab60b	0.07554253
92	0xbccf5e48	-0.025313511
93	0xbd18ee45	-0.037336607
94	0xbe2c33e0	-0.16816664
95	0x3ca48e47	0.020087374
96	0xbb413737	-0.0029482374
97	0xbd6b56a9	-0.057455692
98	0xbc780ea3	-0.015140208
99	0xbce2a754	-0.027667679
100	0x3a7f539d	0.00097399374
101	0x3d833d62	0.06408192
102	0xbdbe8b51	-0.09303916
103	0xbc638be6	-0.013888335
104	0xbdce1dcc	-0.10064277
105	0xbdb60f68	-0.08889657
106	0xbd50b11a	-0.050950147
107	0xbcb64a1f	-0.02225214
108	0xbd217d87	-0.039426353
109	0xbc41cd15	-0.0118286805
110	0x3c73f485	0.014889841
111	0xbd62fe84	-0.055418506
112	0x3c822280	0.015885592
113	0xbd164456	-0.036686264
114	0xbd7cffe7	-0.061767485
115	0xbbf25bb2	-0.007396185
116	0xbdf782b0	-0.120854735
117	0x3c23a6e3	0.009988519
118	0xbd200a28	-0.039072186
119	0xbd2f0f57	-0.04273924
120	0x3c062037	0.008186392
121	0xbe071924	-0.13193184
122	0xbd33aa03	-0.043863308
123	0xbca1d491	-0.01975468
124	0xbe2b30ae	-0.16717789
125	0xbdaad5fd	-0.08341596
126	0xbdce4008	-0.10070807
127	0xbd3ac3da	-0.045596935

weight f4 [12, 128]
0	0xbc882727	-0.016620232
1	0xb93e9d48	-0.00018178404
2	0x3d346b0b	0.044047397
3	0x3bfb65cc	0.0076720472
4	0xbd21cb81	-0.039500717
5	0xbd20e298	-0.039278597
6	0xbc299941	-0.01035148
7	0x3cc6d384	0.02427078
8	0xbd5c8ab6	-0.053843223
9	0xbc8d33ea	-0.017236669
10	0xbb9040af	-0.004402242
11	0x3d106fe7	0.03526297
12	0x3aff5011	0.0019478818
13	0x3d130e21	0.035902146
14	0x3b99e587	0.0046965512
15	0xbd2185ee	-0.039434366
16	0xbce12900	-0.02748537
17	0x3d4ce7c9	0.050025735
18	0x3ce5afc7	0.028037919
19	0x3cc16913	0.023609674
20	0xbdd48a7b	-0.103779756
21	0xbd4be6ea	-0.049780764
22	0x3da2e1e8	0.079532444
23	0x3d2dc600	0.042425156
24	0xbdcc391b	-0.099718295
25	0xbc23658b	-0.00997294
26	0xbd47fc50	-0.04882461
27	0xbd14dd45	-0.03634383
28	0x3d0b1d6b	0.033963602
29	0x3c891c68	0.016737178
30	0x3d3fbd8b	0.04681162
31	0xbb188955	-0.0023275216
32	0xbcd41f0c	-0.02589371
33	0xba66fe5e	-0.00088117074
34	0xbba40321	-0.005005256
35	0x3ba9eb95	0.0051855543
36	0x3d2c7aec	0.042109415
37	0xbdb76f0c	-0.089567274
38	0xbbaf384a	-0.0053472864
39	0xbbbae758	-0.005703848
40	0x3d9e4ab2	0.07729091
41	0xbd1e1e1f	-0.038602944
42	0x3c252ee0	0.010081977
43	0xbd7cabad	-0.06168716
44	0x3d790a89	0.060801063
45	0xbcaf3ebc	-0.021392219
46	0xbc3238ee	-0.010877831
47	0xbc86a224	-0.016434737
48	0xbceb4fe9	-0.028724628
49	0x3d827939	0.06370778
50	0x3b9abe84	0.0047224183
51	0xbd127f65	-0.035766024
52	0x3b2a321c	0.002596981
53	0xbd1b8f32	-0.03797836
54	0x3a7183f4	0.0009213083
55	0xbd27a6ba	-0.040930487
56	0x3b430ce7	0.002976233
57	0x3bf11901	0.007357717
58	0xbc98aed6	-0.018638056
59	0xbc9a76f3	-0.018855548
60	0xbc6a0701	-0.014283896
61	0xbde36ed7	-0.111051254
62	0x3c87d1cd	0.016579533
63	0x3d8a0a5d	0.06740258
64	0xbd004094	-0.031311586
65	0xbcc7ec73	-0.02440474
66	0x3db94dc1	0.090480335
67	0xbce91fb8	-0.028457507
68	0xbb2df9be	-0.0026546563
69	0x3d2282c8	0.039675504
70	0xbd7f312b	-0.06230275
71	0x3ca1f4ba	0.019770015
72	0x3cbe4e7f	0.02323079
73	0x3c164887	0.009172565
74	0xbc329494	-0.010899682
75	0x3d22e1c8	0.039766103
76	0x3d13b67b	0.0360627
77	0xbccf780a	-0.025325794
78	0x3cd5ca37	0.0260974
79	0x3b54ecfa	0.0032489882
80	0xbc359128	-0.011081971
81	0xbc278d73	-0.010226595
82	0x3d4c41ac	0.049867317
83	0xbd272625	-0.04080786
84	0xbd32d08a	-0.04365591
85	0x3db71d93	0.08941188
86	0xbd340fd0	-0.043960392
87	0xbcd03c2e	-0.02541932
88	0x3d2fede6	0.042951487
89	0xbcc14835	-0.023594001
90	0xbd581071	-0.052750055
91	0xbcd663ee	-0.026170697
92	0xbc9bd9e7	-0.019024802
93	0x3c3a4121	0.011368067
94	0x3ccca4c0	0.024980903
95	0xbd2aa905	-0.041665096
96	0x3db31290	0.08743775
97	0x3bbb2d85	0.0057122135
98	0xba46e0d6	-0.0007586604
99	0xbd812dc8	-0.0630756
100	0x3c823d4b	0.015898367
101	0xbd1aacd2	-0.03776247
102	0x3d4f51f5	0.05061527
103	0xbbe3eacc	-0.00695548
104	0xbc80f518	-0.01574187
105	0x3d3a9b91	0.045558516
106	0x3c34a582	0.011025788
107	0xbc3b9bc5	-0.011450713
108	0x3cc4cd74	0.024023749
109	0xbcc95397	-0.024575992
110	0x3c7c9d46	0.015418356
111	0xbc0f82c8	-0.008759208
112	0xbc00640d	-0.007836354
113	0xbd11eee2	-0.035628207
114	0xbb8b0608	-0.0042426623
115	0xbcbebcb4	-0.02328334
116	0xbcbfdcd2	-0.023420725
117	0x3b8f929f	0.0043814923
118	0xbdca8f41	-0.09890605
119	0x3cc4fc24	0.024046011
120	0x3da362ba	0.07977815
121	0x3d610c23	0.054943215
122	0x3cda7217	0.02666573
123	0x3ca96e64	0.020682521
124	0xbd847eb9	-0.06469483
125	0x3c1664df	0.009179323
126	0x3cd49323	0.025949067
127	0x3b963cfb	0.004584906
128	0x3cceafa5	0.025230238
129	0x3d8398cf	0.0642563
130	0x3ca3fd14	0.020018138
131	0x3d0bf7e0	0.03417194
132	0x3c1875bb	0.009305413
133	0xbd8d6756	-0.069044754
134	0xbcca78ca	-0.0247158
135	0xbca111cf	-0.019661812
136	0xbdd245fa	-0.10267253
137	0x3c25b7c9	0.010114619
138	0x3ccf3fa8	0.025298908
139	0x3dba1725	0.09086446
140	0xbba929d7	-0.0051624584
141	0xbd01f880	-0.03173113
142	0x3cc3b6bd	0.023890847
143	0x3dc82f30	0.09774625
144	0xbd48138c	-0.048846766
145	0xbceb809d	-0.028747851
146	0xbb868d64	-0.0041062105
147	0x3c510be4	0.012759183
148	0x3d4ee5dc	0.05051218
149	0xbd90f291	-0.07077516
150	0x3d43a645	0.04776599
151	0x3b563b12	0.0032689017
152	0xbb8e8c41	-0.0043502157
153	0xbd662346	-0.056185983
154	0xbcb0a9f5	-0.021565417
155	0x3ce135af	0.027491419
156	0xbda02172	-0.07818879
157	0x3da6f639	0.08152432
158	0x3cb57816	0.022151988
159	0xbd05c8f5	-0.03266235
160	0x3bc2582b	0.0059309206
161	0x3d6c2f13	0.05766208
162	0x3d062222	0.032747395
163	0xbcf964a8	-0.030443504
164	0x3d4860e8	0.048920542
165	0x3db4fa36	0.088367864
166	0xbda5c698	-0.080945194
167	0xbd0a6ef7	-0.03379723
168	0x3c55784e	0.013029171
169	0x3d752dc6	0.059858106
170	0x3db3e758	0.0878436
171	0x3d3d041a	0.04614649
172	0xb81e8d62	-3.780181e-05
173	0xbd6395aa	-0.055562653
174	0xbcbe2d92	-0.023215089
175	0xbc114109	-0.008865603
176	0x3b8d600e	0.004314429
177	0x3d7f50e8	0.062333018
178	0x3d39d9b4	0.045373634
179	0x3d30090e	0.042977385
180	0x3c0685df	0.008210628
181	0xbc598e49	-0.013278552
182	0xbc022c31	-0.007945106
183	0xbd618cf4	-0.055066064
184	0xbd07f413	-0.03319175
185	0x3d635eea	0.05551044
186	0xbba71991	-0.0050994833
187	0x3be4b6de	0.0069798073
188	0xbc1c938c	-0.009556662
189	0xbd6dd3bc	-0.058063254
190	0x3d217a5c	0.03942333
191	0x3cc76260	0.024338901
192	0xbd9cbf56	-0.07653682
193	0x3d9f7485	0.07785896
194	0xbcdb5a3d	-0.026776427
195	0xbd8836c7	-0.06651073
196	0x3d2e13c5	0.042499322
197	0x3cd13d46	0.025541913
198	0x3cbcf185	0.023064384
199	0xbd119b7e	-0.03554868
200	0x3aad65c4	0.0013229181
201	0x3c70db00	0.014700651
202	0x3c2a0007	0.010375983
203	0xbd2eaf9f	-0.042647954
204	0x3c8d4472	0.017244551
205	0xbd0b18a1	-0.033959035
206	0xbc8a8bf1	-0.016912432
207	0xbd98cdb8	-0.07461113
208	0xbdc023c4	-0.09381822
209	0x3db09fc6	0.08624224
210	0x3c62c501	0.013840915
211	0x3d82026c	0.06348118
212	0xbd840571	-0.0644635
213	0x3ca59b76	0.020215731
214	0xbb622871	-0.0034508968
215	0x3d6747c0	0.05646491
216	0xbd88b80d	-0.0667573
217	0xbd83b0b8	-0.06430191
218	0x3d976120	0.07391572
219	0x3d5e533a	0.05427859
220	0x3d51ef1d	0.051253427
221	0x3db8cb0e	0.090231046
222	0x3d80ed2b	0.06295236
223	0xbd1283c0	-0.035770178
224	0x3e18794f	0.14890026
225	0x3d1a100d	0.037612963
226	0x3d5a0a00	0.053232193
227	0xbc65c7ec	-0.014024716
228	0xbd36e836	-0.044655047
229	0xbccce3f9	-0.02501105
230	0x3df1032a	0.117681816
231	0x3c2e41e8	0.01063583
232	0xbcc8ad25	-0.024496624
233	0x3d090dea	0.033460535
234	0xbd4cb7a6	-0.04997983
235	0x3c23e2a9	0.01000277
236	0xbdd41738	-0.10355991
237	0xbd0f0a60	-0.034922004
238	0xbd5c29c5	-0.053750772
239	0xbbe9139a	-0.0071129324
240	0x3ce0314a	0.027367253
241	0x3c9a2b03	0.018819338
242	0xbd40a2a8	-0.04703012
243	0xbc20379c	-0.009778883
244	0x3d02fcc9	0.031979356
245	0xbd7c290b	-0.06156258
246	0x3d81ed5c	0.06344101
247	0xbded43e4	-0.11585215
248	0xbcf73b5d	-0.030179674
249	0x3d53508a	0.05159048
250	0x3d7a4fe1	0.061111335
251	0x3c6bac92	0.014384406
252	0x3ca72e47	0.020407809
253	0x3cce71da	0.025200773
254	0x3d809afe	0.062795624
255	0xbc74427e	-0.014908431

bias f4 [12]
0	0x3cdac1af	0.026703684
1	0x3cc30332	0.023805235
2	0xbc04cf87	-0.008106119
3	0x3dca0c20	0.09865594
4	0xbde817eb	-0.11332687
5	0xbd83ee0f	-0.064418904
6	0xbc91b538	-0.017786607
7	0x3e36db0e	0.17857
8	0xbc5d5777	-0.013509623
9	0x3e201b27	0.15635358
10	0x3e846297	0.25856468
11	0xbdbb541c	-0.09146902
